models/lstm_drag.pth (torch, 52892 bytes, 5 tensors)

lstm.weight_ih_l0 f4 [128, 64]
0	0xbe2edc9c	-0.17076343
1	0xbe2ef079	-0.1708392
2	0xbd954746	-0.07288985
3	0xbbfc28a0	-0.0076952726
4	0xbe0c5cec	-0.13707322
5	0x3e22c126	0.15893993
6	0x3d551aee	0.052027635
7	0x3d800efa	0.062528566
8	0xbd7a3b03	-0.061091434
9	0x3d9218f5	0.071336664
10	0x3e305eeb	0.17223708
11	0x3e1ce292	0.15320805
12	0x3dec5b58	0.1154086
13	0xbd272345	-0.04080512
14	0xbe2d5203	-0.16925816
15	0x3ccb826a	0.02484246
16	0x3d0ec5aa	0.034856476
17	0x3ca0f1e9	0.019646602
18	0x3c29d5b9	0.010365897
19	0x3cb931fc	0.022606842
20	0x3c4a89b6	0.012361934
21	0xbdf02e4e	-0.11727582
22	0x3e0f3ada	0.13987294
23	0x3d5977c1	0.05309272
24	0xbd4a73be	-0.049426787
25	0xbd4e082b	-0.05030076
26	0x3d89c5b2	0.067271605
27	0x3d951b80	0.07280636
28	0x3dc0e8d1	0.09419406
29	0x3be98bbd	0.007127254
30	0x3d6346d2	0.05548746
31	0xbdf06b4f	-0.117392175
32	0xbd80520e	-0.06265651
33	0x3ac3acec	0.0014928854
34	0xbd09bde7	-0.03362837
35	0xbd9e3161	-0.07724262
36	0xbe028993	-0.12747793
37	0x3d6a804d	0.057251263
38	0xbe212c03	-0.15739445
39	0x3e11983a	0.14218226
40	0xbd9b295e	-0.075762495
41	0x3d584fa2	0.05281032
42	0x3d385058	0.044998497
43	0x3c678afd	0.0141322585
44	0x3e107615	0.14107545
45	0x3e0a8b1b	0.13529627
46	0xbc9a6a59	-0.018849539
47	0x3e054efc	0.13018411
48	0x3cc6564f	0.024211077
49	0xbdd954b1	-0.10611857
50	0xbe18200f	-0.1485598
51	0xbe0bc817	-0.13650547
52	0xbccb9124	-0.024849482
53	0xbbe01db0	-0.0068394765
54	0xbd3e5cdf	-0.046475288
55	0x3e18c2ec	0.14918107
56	0xbe168d68	-0.1470238
57	0xbe0eb658	-0.13936746
58	0xbdc5d5c6	-0.09659915
59	0xbc95186e	-0.018200126
60	0xbd31e91c	-0.0434352
61	0xbdb35572	-0.08756532
62	0x3e250783	0.16116147
63	0x3dbdccf3	0.092676066
64	0x3dc2d6a4	0.09513596
65	0x3d990616	0.07471864
66	0x3d44904e	0.047989182
67	0xbda049f1	-0.07826603
68	0xbe148031	-0.14502026
69	0x3e46966f	0.19393323
70	0xbdfd938e	-0.123816594
71	0xbd51ec06	-0.05125048
72	0xbc11376c	-0.008863311
73	0x3dd8fd1e	0.10595153
74	0xbae07d26	-0.0017127141
75	0xbdb9d8ad	-0.09074531
76	0xbe0f531e	-0.1399655
77	0xbe3b0fda	-0.18267766
78	0xbd291803	-0.041282665
79	0xbca40acb	-0.020024678
80	0xbdd3b392	-0.10336985
81	0x3dcf55ee	0.10123812
82	0xbcc6c4b5	-0.02426372
83	0xbd10f4f4	-0.035389856
84	0x3d4f1812	0.050560065
85	0xbe0a5fd2	-0.13513115
86	0xbdb5b8f0	-0.08873165
87	0x3e1a2083	0.15051465
88	0xbaae4365	-0.0013295232
89	0x3e3ed5ac	0.18636197
90	0x3e14592b	0.1448714
91	0xbe10ae3e	-0.14128968
92	0x3d848c8b	0.06472119
93	0xbdaf3c88	-0.08556467
94	0x3a72c560	0.00092609785
95	0x3dc7da6b	0.09758457
96	0x3db6b52e	0.08921276
97	0x3e402ee6	0.1876789
98	0x3dc1b995	0.09459225
99	0xbcfdd22b	-0.030984005
100	0xbde42b02	-0.111410156
101	0x3d984b3a	0.07436223
102	0x3e0ec3df	0.13941906
103	0xbcc56c52	-0.024099503
104	0x3bcb3165	0.0062009566
105	0xbde5dd06	-0.112237975
106	0xbda05593	-0.07828822
107	0x3c3e5de2	0.011619063
108	0xbd5b89fe	-0.053598396
109	0xbd637669	-0.055532847
110	0xbc54b32a	-0.012982169
111	0x3dd96091	0.10614122
112	0xbd301227	-0.04298606
113	0xbe14ba9d	-0.14524312
114	0xbd55df5a	-0.052214958
115	0xbe088dbf	-0.13335322
116	0xbdf45be9	-0.11931593
117	0x3e35f2ff	0.17768477
118	0x3b9707a2	0.004609064
119	0xbdf01e4e	-0.1172453
120	0xbd8446c1	-0.06458808
121	0xbe04b893	-0.12961034
122	0xbd2d2966	-0.04227581
123	0x3e070de6	0.13188896
124	0xbc7372dd	-0.0148589285
125	0x3cef57b9	0.029216634
126	0x3d2fb4a5	0.042896885
127	0xbd92977e	-0.07157801
128	0x3d9fc02d	0.078003265
129	0xbe30a87c	-0.17251772
130	0xbcda5108	-0.026649967
131	0x3c599eff	0.0132825365
132	0xbd8e7077	-0.06955045
133	0xbdf8cfe9	-0.12149031
134	0xbdb74d20	-0.08950257
135	0x3e2a43e2	0.16627458
136	0xbdbf5fa7	-0.09344416
137	0xbdd67faf	-0.104735725
138	0xbd6e046f	-0.058109697
139	0xbe2c02d7	-0.16797958
140	0xbd9f78cf	-0.07786714
141	0x3e0501a7	0.12988912
142	0x3d8c1b26	0.06841116
143	0xbb8b4d6b	-0.0042511723
144	0xbdee1817	-0.116256885
145	0x3c97a69f	0.018512068
146	0x3df80905	0.12111095
147	0xbe2284e1	-0.15871002
148	0x3e03e030	0.1287849
149	0x3cb578f6	0.022152405
150	0x3d4c6b72	0.049907155
151	0x3da3c428	0.07996398
152	0xbbc29c8b	-0.0059390715
153	0xbd1bd49f	-0.03804457
154	0x3dd0ceca	0.10195692
155	0xbd33542f	-0.043781456
156	0xbdf2be5d	-0.11852715
157	0xbdc5a288	-0.09650141
158	0x3daa8b55	0.08327357
159	0x3d15b27c	0.03654717
160	0xbe34ea69	-0.17667545
161	0xbc36fe57	-0.011169038
162	0xbe25c188	-0.16187108
163	0xbd52f5f7	-0.0515041
164	0x3c89b615	0.016810456
165	0xbe307236	-0.17231068
166	0x3e3780d3	0.17920236
167	0xbcdf4d7c	-0.027258627
168	0xbd3ee9d2	-0.046609707
169	0x3e26e04d	0.16296501
170	0x3dea0e0d	0.11428461
171	0x3e0abc35	0.13548358
172	0xbe3aeb36	-0.18253788
173	0x3e079cb4	0.13243371
174	0x3e01807c	0.12646669
175	0x3d6f4596	0.05841597
176	0x3df3c78a	0.119032934
177	0xbe044a89	-0.12919058
178	0xbdb9d728	-0.09074241
179	0xbd001946	-0.031274103
180	0x3dd1981e	0.10234092
181	0xbde88999	-0.1135437
182	0x3df55077	0.11978238
183	0x3e0ee353	0.13953905
184	0xbdb7a1fb	-0.08966442
185	0x3e3c66e7	0.18398629
186	0xbd93352b	-0.07187875
187	0xbc6dac7a	-0.014506454
188	0xbe2ac728	-0.16677535
189	0x3e2284f5	0.15871032
190	0x3cac163a	0.021006692
191	0xbdb7e8df	-0.089799635
192	0x3df08a2e	0.11745106
193	0xbe1f9621	-0.15584613
194	0xbdb93438	-0.09043163
195	0x3e0c11d4	0.13678676
196	0xbe016454	-0.12635928
197	0x3defee77	0.117154054
198	0x3d9edcd0	0.077569604
199	0x3e072967	0.13199387
200	0x3e1409ef	0.14456914
201	0xbdf28f4c	-0.11843738
202	0x3d9c5cc6	0.07634883
203	0xbe09b2ef	-0.13447164
204	0x3e34f480	0.17671394
205	0x3e36b8a9	0.1784388
206	0xbcae5f86	-0.021285783
207	0xbd77a025	-0.06045546
208	0xbd018e0d	-0.03162961
209	0xbddf08b6	-0.10890333
210	0xbe11e91c	-0.1424908
211	0x3dc631e6	0.09677486
212	0x3e1f8361	0.15577461
213	0xbc225e79	-0.009910219
214	0x3c9f810c	0.019470714
215	0xbd1b7410	-0.037952483
216	0x3dd4fd5a	0.103998855
217	0xbdb3caf8	-0.087789476
218	0xbd25197f	-0.040307518
219	0x3df8ab40	0.12142038
220	0x3c5538b5	0.013014008
221	0xbd4dd285	-0.050249595
222	0x3e187940	0.14890003
223	0x3e01a0a1	0.12658931
224	0xbe20f7ae	-0.15719482
225	0x3dfb81dc	0.12280628
226	0x3cdea1b3	0.027176714
227	0x3e10e1f4	0.14148694
228	0x3e1350af	0.14386247
229	0xbe147109	-0.14496244
230	0xbe1bde5e	-0.15221545
231	0x3c87407d	0.016510243
232	0x3d91fb8e	0.071280584
233	0xbdf4649c	-0.11933252
234	0x3ddd05af	0.107921
235	0x3dce1e1c	0.10064337
236	0xbe1b6b2d	-0.15177603
237	0xbd86848f	-0.06568252
238	0xbdca88fa	-0.098894075
239	0xbd82a0e3	-0.06378343
240	0xbe382e36	-0.17986378
241	0x3d76e482	0.060276516
242	0xbe3167e3	-0.17324786
243	0xbce2af04	-0.027671345
244	0x3e0b1b18	0.13584554
245	0x3e0da08d	0.13830777
246	0xbd1aee57	-0.037824955
247	0x3d833e41	0.06408358
248	0x3e1cbae0	0.15305662
249	0x3df1446c	0.117806286
250	0x3e33b64d	0.17550011
251	0x3dccda6d	0.10002599
252	0xbe184ca4	-0.14872986
253	0xbcc7a1e4	-0.024369188
254	0xbe0bd759	-0.13656367
255	0x3dfa05a8	0.1220811

lstm.weight_hh_l0 f4 [128, 32]
0	0x3d8d2db0	0.0689348
1	0x3d56a495	0.05240305
2	0x3d38937d	0.04506253
3	0xbd9714a0	-0.07376981
4	0x3dfdba00	0.12388992
5	0xbda54a49	-0.080708094
6	0xbdff7322	-0.12473132
7	0x3dbdd742	0.09269573
8	0xbe102f36	-0.1408051
9	0xbda2a982	-0.07942487
10	0xbdd4f9cd	-0.10399208
11	0x3e22cce8	0.15898478
12	0xbe275b1e	-0.16343352
13	0x3de678e5	0.112535276
14	0xbe1d561d	-0.15364881
15	0x3e13bdb5	0.14427836
16	0x3d96f1e7	0.07370358
17	0x3e2b336d	0.16718836
18	0xbdad6763	-0.08466985
19	0x3dcb463e	0.09925507
20	0xbe2076b6	-0.15670285
21	0xbe2c6d93	-0.16838674
22	0x3ddc2737	0.10749667
23	0x3d3e9023	0.04652418
24	0x3a3029ed	0.00067201146
25	0xbd4839a9	-0.048883114
26	0x3e01eb7e	0.1268749
27	0x3de0dedd	0.10980008
28	0x3e2de15e	0.16980502
29	0xbd95be6c	-0.07311711
30	0xbdefdd54	-0.11712137
31	0xbe089a27	-0.13340054
32	0xbd9e80de	-0.07739423
33	0x3d9dd5bf	0.077067845
34	0x3d5deafd	0.05417918
35	0xbdce969c	-0.1008732
36	0x3d819fcb	0.06329306
37	0xbe1811ac	-0.14850491
38	0xbd9c4f9a	-0.0763237
39	0xbdddb6ad	-0.10825858
40	0x3cbbcd8c	0.02292516
41	0xbd76201d	-0.06008922
42	0xbd906348	-0.070501864
43	0xbdfd9138	-0.12381214
44	0x3e0b0913	0.1357768
45	0x3db3f038	0.087860525
46	0xbe399c53	-0.18126039
47	0x3d7b44ea	0.06134502
48	0x3dfaa8ec	0.122392505
49	0xbdfa7488	-0.12229258
50	0xbe2ad12b	-0.16681354
51	0x3d965054	0.0733954
52	0xbd9319eb	-0.07182678
53	0x3e1d8254	0.15381747
54	0xbd9fc216	-0.07800691
55	0xbda7960f	-0.08182918
56	0x3e2cccc7	0.16874991
57	0x3e166ead	0.14690657
58	0x3bd39d12	0.006457933
59	0xbe2deea7	-0.1698557
60	0xbba6c7fb	-0.0050897575
61	0x3ca31da8	0.019911602
62	0xbba103ef	-0.004913799
63	0xbdf51d61	-0.11968494
64	0x3d8aebde	0.06783269
65	0x3cc37fd0	0.023864657
66	0xbd86f767	-0.06590157
67	0xbdd178fb	-0.10228153
68	0x3d270b40	0.040782213
69	0xbe37450e	-0.17897436
70	0x3e12a366	0.14320144
71	0xbd96179d	-0.073287226
72	0xbe03c4d3	-0.12868051
73	0xbdf8b2a6	-0.121434495
74	0x3dfafc3f	0.122551434
75	0xbd95c3dc	-0.07312748
76	0x3e12ffeb	0.14355437
77	0xbd3f1a04	-0.04665567
78	0x3dc3e946	0.09565978
79	0xbdf98e96	-0.12185399
80	0xbe264a9d	-0.162394
81	0x3dd5715a	0.10422011
82	0x3dee3f48	0.11633164
83	0xbe2a39ec	-0.16623658
84	0x3da0e160	0.07855487
85	0x3e33626f	0.17518018
86	0xbdb25cb8	-0.08709091
87	0x3d212c84	0.039349094
88	0x3d0f0ae5	0.0349225
89	0xbcda0df8	-0.026617989
90	0xbd133192	-0.035935946
91	0xbca384d9	-0.019960808
92	0x3e18184f	0.14853023
93	0x3e03a5a2	0.12856153
94	0xbdf88351	-0.121344216
95	0x3d96fc68	0.073723614
96	0xbde48637	-0.11158412
97	0x3dc62c61	0.09676433
98	0x3e2469f7	0.16056047
99	0x3c88be69	0.016692357
100	0xbce26605	-0.027636537
101	0x3dca05f5	0.098644175
102	0xbde038ec	-0.10948357
103	0x3d0d136f	0.03444236
104	0xbc1a9683	-0.009435299
105	0xbd662520	-0.05618775
106	0x3c93cbae	0.018041458
107	0x3b3721c8	0.002794372
108	0x3e1960a5	0.14978273
109	0x3e17794f	0.1479237
110	0xbc0c2f9c	-0.008556273
111	0xbe28977e	-0.1646404
112	0x3dbffc4f	0.09374296
113	0xbc8da8e5	-0.01729245
114	0xbd17253f	-0.036900755
115	0x3d790d8b	0.06080393
116	0xbd88b8ee	-0.066758975
117	0x3d2cb5bd	0.042165507
118	0x3cb5d49e	0.02219611
119	0x3c2e55c8	0.010640569
120	0xbe008f05	-0.12554558
121	0xbd5fbb37	-0.0546219
122	0xbd9a8110	-0.07544148
123	0x3d472cfa	0.048626877
124	0x3df10d4d	0.11770115
125	0x3e1d6b03	0.15372853
126	0x3e165998	0.14682615
127	0xbe07f103	-0.13275532
128	0x3e1e9663	0.15487055
129	0xbc185ef7	-0.009299985
130	0xbdb674c2	-0.089089885
131	0xbbea8407	-0.007156852
132	0x3c2f4d72	0.010699617
133	0xbdf38512	-0.118906155
134	0x3db093ba	0.086219266
135	0x3db5db11	0.08879674
136	0x3e176de0	0.14788008
137	0xbe0fcf17	-0.14043842
138	0xbd26f39e	-0.040759675
139	0xbde41184	-0.11136153
140	0xbd23c258	-0.039980263
141	0x3d4bf316	0.04979237
142	0xbdc82fea	-0.09774764
143	0x3e02dd7d	0.12779804
144	0x3e2faf49	0.1715671
145	0x3d9ff12d	0.078096725
146	0xbdfcd2eb	-0.12344917
147	0xbcd03e1f	-0.025420247
148	0x3ad5c66d	0.0016309746
149	0x3dcd8b6f	0.100363605
150	0x3e229e0a	0.158806
151	0xbc1166b4	-0.008874584
152	0xbe2ce389	-0.16883673
153	0xbe369f06	-0.178341
154	0x3958ee9b	0.00020688253
155	0xbdb5d475	-0.088784136
156	0xbe05532f	-0.13020013
157	0x3e2a6448	0.16639817
158	0x3d365cad	0.044521976
159	0x3bc42751	0.005986132
160	0xbd71fbdc	-0.059078082
161	0x3db61339	0.08890385
162	0xbe03ed5f	-0.12883519
163	0xbe2030ef	-0.15643667
164	0xbca9c1cf	-0.020722298
165	0x3c9505ce	0.018191244
166	0xba433151	-0.00074460084
167	0x3da7e6b2	0.081982985
168	0x3dcb6c0a	0.09932716
169	0x3c8f9c94	0.017530717
170	0xbdb6770b	-0.089094244
171	0xbddd13a9	-0.107947655
172	0xbe0865f8	-0.13320148
173	0xbba450dc	-0.005014522
174	0x3e26512a	0.16241899
175	0xbdb4745e	-0.08811258
176	0xbdc992e0	-0.09842467
177	0x3e019e71	0.12658097
178	0x3db1cbba	0.08681436
179	0x3ce73320	0.02822262
180	0x3e1e6d81	0.1547146
181	0x3e289369	0.16462483
182	0xbe24d03c	-0.1609506
183	0x3d438147	0.04773071
184	0xbd5589f2	-0.052133508
185	0xbd2ce3dc	-0.04220949
186	0x3cab1ea0	0.020888627
187	0x3db138e1	0.08653427
188	0x3d8d5340	0.06900644
189	0x3dbfdb68	0.0936802
190	0x3cabc8b0	0.020969719
191	0xbd3a7182	-0.045518406
192	0x3dbac6aa	0.091199234
193	0xbc96b025	-0.01839454
194	0x3de8cd59	0.11367292
195	0xbde35794	-0.111006886
196	0xbd7d90b4	-0.061905578
197	0xbe15cc5c	-0.14628738
198	0xbe0e7aef	-0.13914083
199	0x3d7f53e4	0.062335864
200	0xbd9f6797	-0.0778343
201	0xbda50702	-0.08057977
202	0xbe1499eb	-0.1451184
203	0x3d2ed193	0.042680334
204	0x3da3a0df	0.07989668
205	0xbe05018f	-0.12988876
206	0xbcdd4f8b	-0.027015468
207	0x3da11943	0.078661464
208	0xbe03e672	-0.12880877
209	0x3d5b9221	0.053606156
210	0x3d53513a	0.051591136
211	0x3e345e09	0.17613997
212	0xbde65ad7	-0.11247795
213	0xbd538e74	-0.051649526
214	0xbe093cbf	-0.13402079
215	0x3e117d96	0.14208063
216	0xbd64efb5	-0.055892665
217	0x3d9733fe	0.073829636
218	0x3d1f34e6	0.038868807
219	0x3ccf1856	0.025280159
220	0x3c340f1c	0.0109899305
221	0x3d81283b	0.063065015
222	0xbdcbd261	-0.09952236
223	0x3deb4a9c	0.1148884
224	0xbe124f0c	-0.14287966
225	0x3db2eb7c	0.08736321
226	0x3ddc4032	0.10754432
227	0xbd334429	-0.043766174
228	0xbe0a2e50	-0.1349423
229	0xbe172531	-0.14760281
230	0x3dc32266	0.09528045
231	0x3cc86648	0.024462834
232	0x3d617a51	0.05504829
233	0x3ddffaeb	0.10936531
234	0x3d999851	0.07499755
235	0xbe15ff19	-0.14648093
236	0xbdca1b87	-0.09868532
237	0x3ca751e3	0.020424789
238	0xbe21e00c	-0.15808123
239	0x3e084bc9	0.1331016
240	0xbcb063f1	-0.02153203
241	0x3dba105a	0.0908515
242	0xbe0d754c	-0.13814276
243	0x3d40abe8	0.047038943
244	0xbe203107	-0.15643702
245	0x3d62a702	0.055335052
246	0x3d5d57d0	0.054038823
247	0x3e014c12	0.12626675
248	0x3c86262d	0.016375626
249	0x3c98945d	0.018625433
250	0xbd3e8d18	-0.046521276
251	0xbde63ed8	-0.11242455
252	0x3d89aaea	0.067220524
253	0xbd1ea63d	-0.038732756
254	0xbd236a1c	-0.039896116
255	0x3ce0124b	0.027352473

lstm.bias_ih_l0 f4 [128]
0	0xbda3c72f	-0.07996976
1	0x3d054ced	0.032544065
2	0x3ca8e251	0.020615729
3	0xbc5abd76	-0.013350835
4	0x3d84ef1c	0.06490919
5	0xbd3d7241	-0.04625154
6	0x3cf39d47	0.029738082
7	0xbd347946	-0.044060968
8	0x3dddb6a6	0.10825853
9	0x3c49c565	0.012315129
10	0xbd0ad326	-0.033892773
11	0xbd863e3f	-0.06554841
12	0x3db6fb1e	0.089346156
13	0x3e062182	0.1309872
14	0xbe0282b9	-0.12745179
15	0x3e0638a8	0.1310755
16	0x3e1b9f03	0.15197377
17	0xbdb7c170	-0.08972442
18	0x3db33457	0.087502174
19	0xbde7ab27	-0.113119416
20	0x3e1fd6f2	0.15609339
21	0xbde9b765	-0.11411933
22	0xbbe474df	-0.00697194
23	0xbdb1824c	-0.0866743
24	0xbe0782cf	-0.13233493
25	0x3daffec1	0.08593512
26	0x3def670a	0.11689575
27	0x3cdb2119	0.02674918
28	0xbdd78665	-0.105236806
29	0xbe26f71d	-0.16305204
30	0x3e0ebe86	0.13939866
31	0x3d086e1c	0.033308133
32	0x3e166f21	0.1469083
33	0xbc3d0983	-0.011537912
34	0xbd111c9b	-0.03542767
35	0xbe040ef5	-0.1289633
36	0xbb22ed7c	-0.002486079
37	0x3bdda563	0.0067641004
38	0xbe292e08	-0.16521466
39	0x3e26eeb9	0.16302003
40	0x3e23d55a	0.15999356
41	0x3d53a0af	0.05166691
42	0x3d5a1f23	0.05325235
43	0xbdf46d48	-0.11934906
44	0xbd4697ca	-0.0484846
45	0xbe19c22c	-0.15015477
46	0x3c8abd83	0.01693607
47	0xbe27727a	-0.16352263
48	0xbe1a0664	-0.150415
49	0xbe247b8a	-0.16062751
50	0x3d501804	0.050804153
51	0x3d3483cd	0.044071008
52	0x3e22dcf5	0.15904601
53	0xbb93ac30	-0.0045066103
54	0xbcaee10d	-0.021347547
55	0xbd916d69	-0.071009465
56	0x3e0c8dbd	0.13725944
57	0xbdcb0f84	-0.09915069
58	0x3e0fd7e6	0.14047202
59	0xbcfe4c08	-0.031042114
60	0xbdee0ea2	-0.11623885
61	0x3e34c0f7	0.17651735
62	0xbd83b42d	-0.0643085
63	0x3d9f30a6	0.07772951
64	0x3e184ffb	0.1487426
65	0x3df557db	0.11979648
66	0xbd8fd654	-0.07023302
67	0xbc946bde	-0.018117841
68	0x3ded05da	0.11573382
69	0x3e001108	0.12506497
70	0xbd4aeed8	-0.049544185
71	0xbe16ccc1	-0.14726545
72	0x3dd3c463	0.10340192
73	0x3e1ee792	0.15518025
74	0x3d975222	0.073887125
75	0xbc65edcf	-0.014033749
76	0xbdb24914	-0.08705345
77	0xbd1ad21f	-0.037798043
78	0x3e161a2e	0.14658424
79	0xbd3b2ecd	-0.04569893
80	0xbdf943de	-0.12171148
81	0xbd256485	-0.040379066
82	0xbe36ef59	-0.17864741
83	0x3dea8052	0.114502564
84	0x3e09b91d	0.13449521
85	0xbd57b52f	-0.052663025
86	0x3e1a2dee	0.15056583
87	0xbd6116cb	-0.054953378
88	0xbdf37f64	-0.11889532
89	0xbe176892	-0.14785984
90	0xbe1c9b79	-0.15293683
91	0x3df046d4	0.117322594
92	0x3e21b13b	0.15790264
93	0xbd3d0ba4	-0.04615368
94	0xbdef0e00	-0.11672592
95	0xbdaa96d4	-0.083295494
96	0xbd873777	-0.06602376
97	0x3e29bd28	0.16576064
98	0x3e0450df	0.12921475
99	0xbd82e7df	-0.06391882
100	0xbe279c8d	-0.16368313
101	0xbda276c9	-0.07932813
102	0x3d9e2e03	0.0772362
103	0x3c5b356f	0.013379439
104	0xbd4c20ce	-0.049835972
105	0x3e1764c2	0.1478453
106	0x3e1839ff	0.14865874
107	0x3e477263	0.19477229
108	0x3da9bead	0.08288322
109	0xbda21bbd	-0.07915447
110	0x3d71e8f8	0.059060067
111	0x3e29e1c1	0.16590025
112	0x3dca1e87	0.09869104
113	0xbe2add1f	-0.16685914
114	0x3d0f742e	0.035022907
115	0xbbe780fa	-0.0070649358
116	0x3d17aa49	0.03702763
117	0xbe06900c	-0.13140887
118	0x3d6c1081	0.057632927
119	0xbe2a6cb9	-0.16643037
120	0x3dd79284	0.105259925
121	0x3d920960	0.071306944
122	0xbde3f68b	-0.11131009
123	0x3e1ce0b6	0.15320095
124	0xbdeff438	-0.11716503
125	0x3d8932db	0.06699153
126	0xbd073e04	-0.033018127
127	0xbe0bd319	-0.13654746

lstm.bias_hh_l0 f4 [128]
0	0xbdb9f77e	-0.090804085
1	0x3e021cf6	0.1270636
2	0x3dd9743c	0.10617873
3	0x3dcd9541	0.100382335
4	0xbcae47ed	-0.021274531
5	0x3e2ba141	0.16760732
6	0xbdb3b605	-0.08774952
7	0x3e16a63d	0.14711852
8	0xbe1b4ac3	-0.15165238
9	0xbdd701e6	-0.10498409
10	0xbd9bc893	-0.07606616
11	0xbe02651a	-0.1273388
12	0xbd968294	-0.073491246
13	0x3de7db8c	0.11321172
14	0xbdae60a2	-0.08514525
15	0xbdaf91ad	-0.08572707
16	0xbdf35723	-0.118818544
17	0xbe397f1e	-0.18114898
18	0xbd9d4b6b	-0.076804005
19	0xbe0b0b64	-0.13578564
20	0x3c9afea8	0.018920258
21	0xbe09ec7e	-0.13469121
22	0x3d4256d4	0.047446087
23	0x3dbbaea0	0.091641665
24	0x3e19603a	0.14978114
25	0x3e390795	0.18069299
26	0xbdd52d9e	-0.104090914
27	0xbdb69f73	-0.08917131
28	0x3df7c89f	0.12098812
29	0xbdecca4d	-0.11562023
30	0x3d95d7e4	0.073165685
31	0xbd66f2b8	-0.05638382
32	0x3d262e14	0.040571287
33	0xbb6db1bd	-0.003626927
34	0x3de28324	0.11060169
35	0xbd793cf9	-0.060849164
36	0xbe22403d	-0.15844817
37	0xbdeb6703	-0.11494257
38	0x3e242b12	0.16032055
39	0x3b96edcf	0.0046059857
40	0xbb144c02	-0.0022628312
41	0x3dc80b53	0.09767785
42	0xbde1b3c4	-0.11020616
43	0xbda8cc96	-0.08242147
44	0x3e2f90b6	0.17145047
45	0xbdedc3a6	-0.116095826
46	0xbdf2a96f	-0.11848723
47	0x3e0ef70a	0.13961425
48	0xbd5253b1	-0.051349346
49	0x3e2b7783	0.16744809
50	0x3c0af649	0.0084815705
51	0xbca8669d	-0.020556742
52	0x3e162ccb	0.14665525
53	0x3d9ad231	0.07559622
54	0x3ddd636c	0.10809979
55	0xbd2b3d3e	-0.041806452
56	0xbe2a9d22	-0.16661504
57	0xbd190979	-0.03736255
58	0xbdaddee6	-0.0848978
59	0xbd9b1865	-0.07573012
60	0x3e3704ac	0.17872876
61	0x3ce68b69	0.028142648
62	0xbda5b1f1	-0.0809058
63	0xbe1edb80	-0.1551342
64	0x3e102f6b	0.14080589
65	0xbde62e10	-0.112392545
66	0xbe193815	-0.149628
67	0xbdc1c2a3	-0.09460952
68	0xbd91750d	-0.07102404
69	0xbdcc6488	-0.09980112
70	0x3dea3f83	0.11437895
71	0xbe2d8f91	-0.16949297
72	0x3d1b1698	0.037863344
73	0xbe1638c1	-0.14670087
74	0xbdca985c	-0.098923415
75	0x3db7fdf1	0.08983982
76	0xbe186d1d	-0.14885373
77	0x3dd1d414	0.10245529
78	0x3e254678	0.16140163
79	0x3dc9ef8a	0.098601416
80	0xbc93e381	-0.018052818
81	0xbcea3bb4	-0.028592922
82	0xbe0f8211	-0.1401446
83	0x3e22f0f9	0.15912236
84	0xbd43b463	-0.047779452
85	0xbe2c87dd	-0.16848703
86	0x3d8505da	0.06495257
87	0xba89f1f1	-0.0010524375
88	0x3c6c1135	0.014408399
89	0x3c4bda24	0.0124421455
90	0xbe102026	-0.14074764
91	0xbe0a207d	-0.13488956
92	0xba72e300	-0.0009265393
93	0x3d9a5f2a	0.07537682
94	0xbe00c154	-0.12573749
95	0xbdd9b9d3	-0.10631146
96	0x3d9045ac	0.07044539
97	0x3c2be733	0.010492134
98	0xbdc36ce6	-0.09542255
99	0xbd8729a9	-0.06599743
100	0x3a77c3b5	0.0009451465
101	0x3d65fad4	0.05614741
102	0xbc83dbfb	-0.016096106
103	0xbd9b2424	-0.07575253
104	0xbc3b9c0d	-0.01145078
105	0x3d8c71fa	0.06857677
106	0x3e1c61b3	0.15271644
107	0xbd9d1685	-0.07670311
108	0x3d778d84	0.060437694
109	0x3c9972c2	0.018731479
110	0xbb35f31f	-0.002776332
111	0x3e10b033	0.14129715
112	0x3df270eb	0.11837944
113	0xbe179a76	-0.14805016
114	0xbba69921	-0.0050841724
115	0xbda724b5	-0.08161298
116	0xbe2abb85	-0.16673096
117	0x3e00c58d	0.1257536
118	0x3deafa1d	0.114734866
119	0x3e02bc53	0.12767152
120	0xbd67143d	-0.056415785
121	0xbdb6a5dc	-0.08918354
122	0xbd240863	-0.04004706
123	0xbd8e7ebf	-0.06957769
124	0xbcde2741	-0.027118327
125	0x3e0f9fbf	0.14025782
126	0x3db36d46	0.08761077
127	0xbe02b731	-0.12765194

fc.weight f4 [1, 32]
0	0xbe322a97	-0.17399059
1	0xbcff6140	-0.031174302
2	0xbd880d8b	-0.06643208
3	0xbd658a14	-0.056039885
4	0x3e0a3407	0.1349641
5	0x3e2e318e	0.17011091
6	0x3e242942	0.16031364
7	0x3d4c0b9e	0.049815767
8	0xbe1fa26d	-0.15589304
9	0x3e18a5b6	0.14906964
10	0xbe2ad2d6	-0.1668199
11	0x3d603d08	0.054745704
12	0xbdcb6939	-0.09932179
13	0xbdd8cabb	-0.10585543
14	0xbe45e028	-0.1932379
15	0xbcd41e4d	-0.025893355
16	0x3d24aeb1	0.04020566
17	0xbd0d5a17	-0.034509744
18	0xbd104102	-0.035218246
19	0x3dc0815b	0.093996726
20	0xbe14fee3	-0.14550357
21	0x3dad76fc	0.0846996
22	0x3da393ee	0.079872
23	0xbd3a2840	-0.04544854
24	0x3e04c054	0.12963992
25	0x3df6c274	0.12048808
26	0xbd24fd6a	-0.040280737
27	0x3de3084d	0.110855676
28	0xbe3460c2	-0.17615035
29	0x3dce70aa	0.10080083
30	0xbd24936d	-0.04017966
31	0xbdc2eea4	-0.09518173
