models/lstm_drag.pth (torch, 52892 bytes, 5 tensors)

lstm.weight_ih_l0 f4 [128, 64]
00000000: 5e37 5bbd 74b3 263e ab56 1bbd 0437 223e
00000010: ec3b d6bd dc2f b33d 092a 60bd 89a4 153e
00000020: 289f b9bd 499f 1abd 6bfb c5bd c889 f93d
00000030: ead1 843d 76b5 603d f73f 2d3d 7937 72bd
00000040: eecf 8dbd de37 793b edd5 cebc 2949 c6bd
00000050: 3edc 1a3e ecf5 723d 4e87 e0bd be05 2a3c
00000060: b4f8 3d3e 281d 933d 86e5 7b3d 9fa7 7b3d
00000070: f6a8 1dbe fc7e 1b3d 911d 313e 1634 933d
00000080: 6866 0c3d 7a14 ae3d f41a c83d 817a 373d
00000090: 67f4 e1bd a1a9 be3d ae2c 01be ccdd 3dbd
000000a0: 3338 64bd 933a fd3c 1bc8 b1bd f167 0c3e
000000b0: 1448 2e3e 484c 153e 443d 013e 9bb3 24be
000000c0: 42c2 1d3c 9f37 ee3c 2cf7 b0bd 583b b83d
000000d0: bfad 043d 7df7 b33d 2c6b 0dbe dc5c 09be
000000e0: 5815 e63d cf7b e4bd 088b 06be d4c2 83bc
000000f0: a3fd ebbd ca3f 9d3c db44 35be 1fee 0b3e
00000100: cdff fdbd dfcc 343e 3871 9b3d 00e0 ec3d
00000110: c3ab bbbd 1d37 a6bc 7b6b 3e3e 2ea1 133e
00000120: c485 b13c 9475 09bd 59e4 623d 2349 bf3d
00000130: 9002 8bbd 4504 21be a687 44bd a26d 8bbd
00000140: 5e12 e53c d198 b93d 1602 2f3e b28f c93d
00000150: 2d2b f9bd f8d3 18be 5beb 34bc adf5 fcbd
00000160: 1514 803c b18a e1bb 445e d33d c370 f3bc
00000170: b092 61bd 8f23 10be ed10 42bc 973c 693d
00000180: 72b1 22be 6b49 79bd d79b 22be f08e 873c
00000190: bd53 8a3d 1f32 363e 8ec1 20bd d09b 303d
000001a0: c1e3 173d d989 3f3d bbc8 3e3e 8024 03be
000001b0: 0e6b 713d c3dc 24be 51b2 c7bc 4e82 073e
000001c0: fd72 363d ab95 243e 5fc9 c43d e1dd 02be
000001d0: 3070 983d f972 c7bd e33a d13c df26 013e
000001e0: a671 113d 40ff 0dbe 1df6 00be 9b53 ccbc
000001f0: acf8 c53d cecd 8c3d b6ee aa3c 147e ee3c
00000200: 0c00 e4bd f288 0cbe 8e1a 113d 17ca 0ebd
00000210: d586 e9bd baa9 a23d e6df cbbd f5de bf3d
00000220: d822 f3bd b1d2 0cbe fcdf 1d3e 71b3 0dbe
00000230: c3a4 f13d 58a0 b63d 4669 bbba c3ef a5bd
00000240: 7675 20be 6d0f aa3d 88e3 25be 80e0 babd
00000250: 9274 34be 7cb9 dd3d 0a26 24ba f221 173e
00000260: cf85 6c3d 4f7d 07be 60fe d8bb 7eef 27be
00000270: ea1b 1a3e 6f61 d9bb 8782 debd fda8 9abd
00000280: 18e2 a2bc cfcc 033d 3593 143c c6b5 1e3e
00000290: 5f56 1abd 354c d2bd 5bb9 8e3d 98f3 2a3e
000002a0: 695d 143e 05b2 1a3e 6243 cabd 3454 90bd
000002b0: f7c3 fabd 2916 2bbc 374e 77bd c465 2e3e
000002c0: 016a 0c3e d2f6 15be 1367 393e 3c32 3a3e
000002d0: 80b5 4ebd 82cd 353e e394 e03d 181e ec3d
000002e0: 0c9b e1bd a877 14be 40fb a83d d523 0e3e
000002f0: 4bdc efbb 0a47 8c3b 40f3 bfbd fe41 25be
00000300: b2ad c53d c2d9 11be b670 e73d cf71 3c3d
00000310: a8aa 1a3e 9324 273d 3795 c3bd e1fc 0a3d
00000320: 2601 613d 87a3 2d3d f468 c9bd 4cba 18bd
00000330: cbfa eb3d a008 c5bd c719 37be 8b21 6f3c
00000340: d3a2 6abc da8d d5bd 69f0 1a3e 746f 13bd
00000350: 86b2 a5bd 3f9d f7bc 3ab5 b53d 8512 c4bd
00000360: c774 ab3d aa4d 89bd 018c 0c3e c150 9a3d
00000370: 95e5 f03d 07ef 93bd 8cfe 153e fcb4 c3bc
00000380: 88f2 243d 965b e53d 9fdf 183d 963f 81bd
00000390: f8e5 0bbe 9f61 003d 9318 df3d 76ae f63d
000003a0: 9362 023e 6c74 0f3d e6b8 52bd 99f6 aebd
000003b0: eeb0 debd 6ba5 823d f04d 9fbd 049d 8cbc
000003c0: f0da 0ebe d1c7 063e a7de 273e fbf6 25bd
000003d0: 1fa8 ea3c f10e cdbd f020 b43d 0ea9 e3bd
000003e0: df48 2a3d 68f9 11be 1471 183e 2d0b 35be
000003f0: 3676 f4bd d7e1 06be f638 e43d 4a30 093e
-0.0535196 0.16279393 -0.03792445 0.158413 -0.10460648 0.08749363 -0.054727588 0.14613546
-0.0906356 -0.037749562 -0.09667095 0.12184483 0.064853504 0.054860555 0.04229733 -0.059134934
-0.06924425 0.0038027684 -0.025248492 -0.09681923 0.15123078 0.05931656 -0.10963307 0.010377346
0.18551904 0.071832955 0.061498187 0.061439153 -0.15396485 0.0379629 0.17296435 0.07187669
0.03427735 0.08499999 0.09770766 0.044794563 -0.11032944 0.09309698 -0.126147 -0.0463541
-0.05571766 0.03091172 -0.08680745 0.13711525 0.17019683 0.1457988 0.12621027 -0.16084139
0.009628834 0.029079257 -0.08640894 0.08995694 0.03239226 0.08787439 -0.13810414 -0.1341433
0.1123454 -0.11156427 -0.13138974 -0.016084112 -0.11522987 0.019195456 -0.17702048 0.13665055
-0.12402306 0.17656277 0.07589954 0.11566162 -0.0916362 -0.020289952 0.18595688 0.14416954
0.02167023 -0.033559397 0.05539355 0.093401216 -0.06787598 -0.15724285 -0.047980927 -0.0680802
0.02796286 0.090623505 0.1709064 0.09841861 -0.12166438 -0.1492461 -0.011042441 -0.123515464
0.015634576 -0.0068829884 0.10320714 -0.029716855 -0.055071533 -0.14076065 -0.011844856 0.05694255
-0.15888003 -0.060861032 -0.1587976 0.01654765 0.06754253 0.17792557 -0.039247088 0.043117344
0.037082437 0.04676232 0.1863126 -0.12806892 0.058939986 -0.16099839 -0.02437702 0.13233301
0.044543255 0.16072719 0.09608721 -0.12779953 0.07443273 -0.09738726 0.025540775 0.12612484
0.035508774 -0.13866901 -0.12593885 -0.02494221 0.09666571 0.06875192 0.02086578 0.029112853
-0.111328214 -0.13724115 0.035425715 -0.034860697 -0.1140267 0.07942529 -0.099548146 0.093686976
-0.1187188 -0.13752247 0.15417475 -0.13837983 0.11799004 0.08917302 -0.0014298342 -0.081023715
-0.15669808 0.083037235 -0.16200078 -0.09124851 -0.17622593 0.10826394 -0.0006261772 0.14759043
0.057744797 -0.13231395 -0.0066221207 -0.16399953 0.15049711 -0.0066339294 -0.1086474 -0.07551763
-0.0198832 0.032177743 0.0090683 0.15499029 -0.037680026 -0.102684416 0.069689475 0.16694486
0.14488758 0.15106972 -0.098761335 -0.070473105 -0.122444086 -0.010442295 -0.060377326 0.17031008
0.13712312 -0.14644936 0.18105726 0.18183225 -0.05046606 0.17754176 0.10965898 0.115291774
-0.11015901 -0.1449877 0.08251047 0.13880856 -0.007319962 0.0042809295 -0.09372568 -0.16138455
0.096522704 -0.14243224 0.11300795 0.046006974 0.15104163 0.040806364 -0.09549945 0.03393257
0.054932736 0.04239228 -0.09834471 -0.03728704 0.11522444 -0.09620786 -0.17880927 0.0145954
-0.014321047 -0.10427447 0.15130772 -0.03599496 -0.08090691 -0.030226348 0.08872457 -0.09573845
0.08371883 -0.06704266 0.13725282 0.07534934 0.11762539 -0.07223325 0.14647883 -0.023890011
0.04027036 0.11199109 0.037322637 -0.06310956 -0.13661945 0.0313431 0.10893359 0.120449945
0.12732916 0.035023138 -0.051445864 -0.085431285 -0.108735904 0.06379207 -0.07778537 -0.017164715
-0.13950706 0.13162161 0.16393529 -0.040518742 0.02864462 -0.100126155 0.08795345 -0.11116229
0.0415734 -0.14255297 0.14886886 -0.17680044 -0.119366094 -0.13172089 0.11143677 0.13397327

lstm.weight_hh_l0 f4 [128, 32]
00000000: 2656 c93b 84d2 423d b336 8f3d 747c 2c3d
00000010: efde f6bc 5aa8 00be af65 eabb 602b 9cbd
00000020: 853b c83d 95d3 bb3c 79ba a3bd 1a91 b93c
00000030: 8147 503d 4f0f e1bd f9b2 a33d 0093 1cbe
00000040: b536 2c3e f49f d33d c83d 9a3d 1870 e0bc
00000050: 177d 43bd 3f11 50bd 329f 233e 825a d93c
00000060: e53c 8abd 3a61 473e 12c5 d93d e22a e93d
00000070: 156e 9f3d 3603 9dbd 7b8c 593c 6f13 f3bd
00000080: 8256 d9bb cc13 c53c 722f 923d cb3e d8bd
00000090: 0f36 393e 07e4 173d e84c 573d c17a 26bc
000000a0: 8469 8bbd 85dd 073e e36e afbc 1468 8ebd
000000b0: 83c4 233e 3344 133e 3054 f8bb 1fd4 293e
000000c0: 7909 aabb d3ee 823c c8b4 3abc ee9c a23d
000000d0: 6a9b a4bd 56eb 8f3b a8b3 0dbe f061 093e
000000e0: 27bc e73d a4e5 27be 03d4 35be cfb6 fb3d
000000f0: 26e3 24be 854f cc3d 008d 003e 8188 49bd
00000100: 0a93 a9bd dcfe 2e3d dbd3 22be 3760 6dbd
00000110: 478d 23be 8354 9e3d e09f fcbc 06ee ed3d
00000120: 2feb 89bd 4af1 0e3e 9049 07be ba3a 8e3d
00000130: 793d 193e 11d4 2bbc 85e7 13bd 8352 e8bd
00000140: 68f7 26bd 08ca babc 67e1 75bc aedb 273d
00000150: fbd8 2f3e df47 b7bd 5149 bbbb d404 3dbd
00000160: 0b08 43bd 6174 edbc 27e3 82bd 707a 05be
00000170: 921f b4bd 9a8b 123e bfa2 323d 0acb d33d
00000180: acf6 0ebe 6f6a 14be 41da 21bd f5ba b6bd
00000190: 33ef debd dc55 8f3d 709e 2fbc a648 b73d
000001a0: ea25 903d 343a 26be 0fb8 143e a6e9 0dbe
000001b0: 9e00 2b3e add8 0bbe 3649 1a3c f918 ae3c
000001c0: a783 f33d 5824 2b3e fb61 183d 7c5a b43d
000001d0: d760 bbbd 1d3e 9ebd 1090 e73c 384c a9bd
000001e0: 7251 1c3e ca15 213e b715 65bd fe41 0c3e
000001f0: 2d28 183e 37b7 bbbd 16da c53c 7e44 0fbe
00000200: d13c df3a a328 aebc cdba 1bbe 1916 abbd
00000210: 5c4b 38be 2399 fabc 36da 203e 1a6a 68bd
00000220: 65c6 87bd 951d 283e 081d 313d 7526 05be
00000230: 45dd b93d c325 8a3c 7b0c 8ebd 316e ef3d
00000240: 204a 183e 9630 3b3d 192f ddbd ea6f 123b
00000250: 6a8f af3d d7e3 003e 0b3f 58bd b990 043d
00000260: 6740 153e c668 1bbe c31f 05be f003 f4bc
00000270: 758f 933d c0f9 54bc c53d 30be 8d8f 16be
00000280: 5b8e 033d 570f 3fbe 6fcc 183e abc0 cfbd
00000290: b8c9 033e 57bc 823d b437 0bbd e6a3 bb3d
000002a0: 5b27 19be 2e8f e03d 2646 bcbc 69d2 573d
000002b0: ffd3 fe3d 2196 d0bc ebe0 a0bd 7197 2b3c
000002c0: 29bb 9b3d 314e edbd 75ff 51bd 4572 29bd
000002d0: 2509 1f3e 5d14 3a3e fa3d b13c e767 1a3e
000002e0: fa22 18be 68e1 0fbe 856b 27be d38b e0bd
000002f0: d661 e23d 3572 b03d 0f7f 2e3d e66f b1ba
00000300: ed7f 023e 1a93 57bc ee88 043e 56c6 2e3e
00000310: 3f4e 803d b57b 20bd 0a84 053e 6cc2 0bbe
00000320: f270 f3bb 1722 e6bd 68b1 32be e4ed b03d
00000330: 9c55 253e 42df bf3d 6f64 e63d 9840 7abd
00000340: ba6c 1a3e 2e66 c03d 5c1b f7bd c453 113e
00000350: d980 093e 5dba b5bd aab9 803d 6aa7 023e
00000360: c753 3b3e edbe 1abd bbe0 253e b32e 93bc
00000370: 5965 dfbd 5b84 16be c540 babd 0919 16be
00000380: f209 0e3e f15b 83bc 61b3 033e d19b 19be
00000390: f463 ffbc 7973 27bd f3d9 853d aa24 b33d
000003a0: e8c3 08bd 6486 fa3d 67aa a43d 757c 63bd
000003b0: 954e 10bd 3e74 01bd a09f 103e 6074 233e
000003c0: abac a23d 5a3d eb3c bffe 3cbc c158 9dbd
000003d0: ffa5 a83d e02c 3e3e 6a3f b03d c0c0 983d
000003e0: 0168 38be bd9b e73c f597 df3d d622 c43d
000003f0: 8ddc a4bd 7c06 2e3e b668 eebd 3c75 2a3e
0.006144303 0.047564045 0.06992855 0.042110875 -0.0301356 -0.12564221 -0.007153235 -0.076254606
0.097769774 0.022928039 -0.07994551 0.022652198 0.05084944 -0.10989248 0.07993121 -0.15290451
0.16817744 0.10333243 0.07531315 -0.0273972 -0.047726717 -0.050797697 0.15978697 0.026532415
-0.06749896 0.19470683 0.10633291 0.11385132 0.07784668 -0.07666628 0.013278122 -0.11868941
-0.006632627 0.024057291 0.07137956 -0.10558852 0.18087028 0.0370827 0.052563578 -0.010161103
-0.06807235 0.13268097 -0.02141518 -0.06953445 0.15992932 0.14381485 -0.0075783953 0.16584824
-0.0051891175 0.01598302 -0.011395641 0.07940088 -0.080374554 0.004392068 -0.13838065 0.13416266
0.11315184 -0.16396195 -0.17756657 0.12290727 -0.16102275 0.09976105 0.12553787 -0.049202446
-0.082799986 0.04272352 -0.15901129 -0.057953086 -0.15971862 0.07730963 -0.030837953 0.11617665
-0.06734311 0.13959232 -0.13211656 0.06944795 0.14964856 -0.010487572 -0.036109466 -0.11343863
-0.04076329 -0.022801414 -0.015007353 0.040980987 0.17172615 -0.08949255 -0.005715527 -0.046147183
-0.047615092 -0.028986158 -0.06390982 -0.13034987 -0.08795084 0.14311066 0.043612238 0.10341461
-0.13961285 -0.14493726 -0.039514784 -0.08922378 -0.108854674 0.06998798 -0.010718927 0.089494035
0.070384815 -0.1623314 0.14523338 -0.13858661 0.16699454 -0.13656874 0.009416869 0.021252142
0.11890345 0.16713083 0.037202816 0.08806321 -0.0914933 -0.07726691 0.028266937 -0.08266491
0.15265444 0.15730968 -0.055928912 0.13697049 0.14859076 -0.09165805 0.024151843 -0.13990971
0.0017031675 -0.021259611 -0.15207978 -0.08353824 -0.17997497 -0.0305906 0.15708241 -0.05674181
-0.06629638 0.16417535 0.043240577 -0.13002951 0.09075407 0.01686371 -0.06935974 0.11690939
0.14872026 0.045700632 -0.10799999 0.0022344538 0.08572276 0.12586914 -0.052794497 0.03236458
0.14575349 -0.15176687 -0.13000397 -0.029787034 0.07205097 -0.012998998 -0.17211063 -0.14703198
0.032118183 -0.18658195 0.14921735 -0.101441704 0.12869918 0.06383579 -0.03398867 0.091621205
-0.14956419 0.10964809 -0.022982668 0.052690897 0.12442779 -0.025462212 -0.078554 0.010473118
0.07604057 -0.115871795 -0.051269013 -0.04136874 0.15530832 0.1817183 0.021635998 0.15078698
-0.14857092 -0.1405083 -0.16349609 -0.10964169 0.11053817 0.08615533 0.04260164 -0.0013537377
0.12744112 -0.01315763 0.1294286 0.17067847 0.06264924 -0.039180476 0.1303865 -0.13648385
-0.0074292356 -0.11236971 -0.17450488 0.08639124 0.16145939 0.09368755 0.11249625 -0.061096758
0.15080538 0.09394489 -0.12065765 0.1419211 0.13428058 -0.088734366 0.062854126 0.12759176
0.18293677 -0.037779737 0.16199009 -0.017966604 -0.109080024 -0.14698927 -0.09094385 -0.14657988
0.13870981 -0.016035052 0.12861396 -0.15000845 -0.031175591 -0.040881608 0.06535711 0.087472275
-0.033389956 0.12232664 0.08040314 -0.055538613 -0.03523119 -0.031604998 0.14123392 0.15962362
0.0794309 0.028715778 -0.011535346 -0.07682944 0.08234786 0.18571806 0.08605845 0.07458639
-0.18008424 0.028272504 0.109176554 0.09576957 -0.08049879 0.16994661 -0.11641066 0.16646284

lstm.bias_ih_l0 f4 [128]
00000000: fd99 023e fe8a 313e 70f5 003e ad29 033e
00000010: 102e 1e3e 0d8c 2a3e 1f39 c53c 6a93 25bd
00000020: c2d7 33bb a1b9 e1ba 9727 f1bc 8801 89bc
00000030: c68f ddbd 2611 5b3c d418 2dbe 7d39 223e
00000040: 924f d63d 5caa 47bc 803f 053e c6e9 33be
00000050: 1ab9 f83c 3cbb ef3d 8c85 a53d ceff c9bc
00000060: 4e90 023e 747f 56bd 72b6 07be 3265 3b3e
00000070: d77e 07be c736 02be 47b0 cbbb 59be 8dbd
00000080: b5a2 df3d e941 16be b251 593d e011 153d
00000090: 0887 2c3e 5d63 1ebd 12d6 c83d b17c a6bd
000000a0: 2a0e 05be 68ac 9a3d 116a 333d 03f2 40be
000000b0: 5a8b 543d 426f 923d d58e 5abc 45d3 c73d
000000c0: 6c2f 2bbe 49d5 a03c 5fdf 373d 4bfd 65bd
000000d0: aaa7 623d 3fc0 81bd 4726 a0bd 60ae de3d
000000e0: 827f b2bd 405d c3bc 3df1 07bd 20f9 e7bd
000000f0: 3510 bb3c 228a 1fbe a74f 92bb 3f6f f93d
00000100: aa2b 2abe 2c7d 653d 15e7 ca3d 60c9 e9bc
00000110: b815 343e 20ca d23c 8613 bdbd c90a 25be
00000120: 3ab3 36bd b8ab 96bd c15e ccbd ae64 ea3d
00000130: 92cc 2cbe fe40 643c 9b73 8bbd 370f e1bd
00000140: 16b2 1dbe 87b2 333e ed7c 163e 7b68 32be
00000150: 2aa1 463d 587c 873d b7fe 2b3e 1439 873d
00000160: a570 9b3d b031 7abd a075 d43c d865 b1bc
00000170: 42f8 c03d 4ee8 9bbd 9d94 c83d f920 f43d
00000180: fb86 e1bc 8365 e23d 493e 16bd 3c4f d33d
00000190: a9b7 263e 79ea ad3d f23e 993d 26ec 373c
000001a0: e059 6c3c 11f9 ccbb e661 15be d3e4 c93d
000001b0: e43f bfbd 35c2 12be 4eef 3cbe 92ad 033d
000001c0: 3088 7e3d 99a9 16be bd46 5fbd da59 173e
000001d0: a583 14bc 7a76 33bb 0a38 afbd afb7 93bd
000001e0: 7d5b 083e b6c9 1f3d 1647 b4bc 06d9 2abe
000001f0: b7e5 db3d cbf9 f83d 4279 82bd 8f05 72bd
0.12754054 0.17338178 0.12593627 0.12808867 0.15447259 0.16654988 0.024075089 -0.040423788
-0.0027441834 -0.001722146 -0.029437823 -0.016724363 -0.10818438 0.013370788 -0.16904002 0.15842243
0.104643956 -0.012186613 0.13012505 -0.17569646 0.0303617 0.11705634 0.08082113 -0.02465811
0.1275036 -0.052367643 -0.13253191 0.18300322 -0.1323198 -0.12716208 -0.0062160823 -0.069210716
0.10919706 -0.1467358 0.053056426 0.036394 0.16848385 -0.03866898 0.09806456 -0.08129252
-0.12993684 0.07552415 0.043802325 -0.1884232 0.05189071 0.07150127 -0.013339718 0.09757093
-0.16717309 0.019632952 0.044890758 -0.056149762 0.05533568 -0.06335496 -0.07819801 0.10873103
-0.087157264 -0.023848176 -0.033189047 -0.11326814 0.022834877 -0.15580037 -0.0044650617 0.12179422
-0.16618219 0.056027576 0.09907357 -0.028538406 0.1758641 0.025731146 -0.092322394 -0.16117395
-0.044604518 -0.073569715 -0.099790104 0.114449844 -0.16874912 0.013931511 -0.06809159 -0.1098923
-0.15399966 0.17548572 0.14696093 -0.17422669 0.04849354 0.066155136 0.16796385 0.06602684
0.075898446 -0.061082542 0.025934994 -0.021655008 0.094223514 -0.07612668 0.09793971 0.119203515
-0.027530184 0.11054518 -0.036680494 0.10317847 0.16280998 0.08491988 0.07482709 0.011225736
0.014425725 -0.006255277 -0.14588127 0.09858098 -0.09338358 -0.14331897 -0.18450662 0.03214795
0.062141597 -0.14713134 -0.05451082 0.1478037 -0.00906459 -0.002738385 -0.085556105 -0.07212769
0.1331615 0.039010726 -0.022006553 -0.1668435 0.10737174 0.12157019 -0.06370784 -0.059087332

lstm.bias_hh_l0 f4 [128]
00000000: bf91 b2bd 9094 eb3d 4046 92bd 1da7 81bd
00000010: ae3d 54bb dc2c 0ebd bcdc 803d b5fa 083e
00000020: cb4e 193e 761e 113e e527 07bc 4f0b 98bd
00000030: ca7d 03be 77be 25be cd15 32be 8d59 1abe
00000040: d6bb 1e3e b274 9c3c 54b9 bb3d 5bef 5b3d
00000050: ee42 93bc b453 c23d a199 743d b881 a43b
00000060: 509c 243d b1cd 133c ac14 61bd caa4 01be
00000070: 2784 dcbd fd06 ed3c 8f65 d8bd 4efa ec3d
00000080: bd64 7cbd d36b bfbc b622 0d3d ea8a a83d
00000090: de08 d73d 1306 063e eef1 2e3d ad20 163e
000000a0: efe0 c93d a617 08be c660 9bbd 202b 773d
000000b0: 75ce 48bc 5ac8 20be 202a e2bd c1d0 06be
000000c0: 860d baba e926 bfbd 46b5 ba3d 298f 143e
000000d0: 8de9 a2bd 69fd c43c edf1 8dbd cfb9 953d
000000e0: 9890 9b3d e473 743d dba0 c33b 29e3 06be
000000f0: 3c50 afbc f487 b5bd 9359 033e 0e75 86bc
00000100: 6bda 823d 6c68 c93d d213 533b b1ea 1cbe
00000110: 6955 19be dbd5 68bd 4004 103d f9f1 6f3c
00000120: f89a adbd 4cd7 183e 894c d8bd 1b80 10be
00000130: 911a 21bd 47ef 203d 5c27 6f3d 7756 cf3d
00000140: e666 0cbe 93ba ba3b 5aad 553d cd05 1ebe
00000150: 6618 c8bd 2e13 28bd 1864 923c 7272 0c3e
00000160: 1903 a03d 0a94 f03d 2a94 1f3e 706e c73c
00000170: b75f 1f3e 880b 5cbd 3a9a 4fbd 0cf5 77bd
00000180: c506 333e 8cbd 1dbc 39ee 88bd 89de 5a3c
00000190: 2dbb 17bd b6b7 7ebd b7ab f93d aa3b d0bd
000001a0: 960b a03d 1884 243e 58cc 153e 193c 8abd
000001b0: d262 a03d 841a 9f3d 39d8 283e e8fb 5ebd
000001c0: 6f54 1b3e 921a bcbd eb3a aebd ca83 d5bd
000001d0: 41f9 3dbe 1b6d 0abe 4fb8 ecbd 9bb3 1c3e
000001e0: f958 b1bc ae69 233c f504 f83d c4dc 66bd
000001f0: 1b89 ec3d 65a4 193d 2b43 da3d e917 0fbe
-0.08719205 0.115029454 -0.071423054 -0.063307025 -0.0032385397 -0.03471075 0.06292102 0.13376887
0.14971463 0.14171776 -0.008249258 -0.07424032 -0.12840953 -0.16185938 -0.17391129 -0.15073223
0.15501341 0.019098613 0.09166208 0.053695064 -0.01797625 0.09488621 0.059716824 0.0050203465
0.040188134 0.009021209 -0.054951355 -0.12660518 -0.107673936 0.028933996 -0.10566246 0.11571179
-0.06161951 -0.023366844 0.03445693 0.08229621 0.10499738 0.13088255 0.04271119 0.14660902
0.09857356 -0.13290271 -0.075868174 0.06034386 -0.012256254 -0.15701428 -0.11043191 -0.13165571
-0.0014194704 -0.093335934 0.091166064 0.14507736 -0.079547025 0.024046617 -0.06930909 0.07310831
0.075959384 0.059680834 0.005970103 -0.13172592 -0.021400563 -0.088638216 0.12827139 -0.016413238
0.06389316 0.0983437 0.0032207859 -0.15323903 -0.14973988 -0.056844573 0.035160303 0.014645093
-0.084768236 0.14925879 -0.10561473 -0.14111368 -0.039331976 0.039290693 0.058387145 0.10123914
-0.13711128 0.005698511 0.052167274 -0.154319 -0.09770279 -0.041033916 0.017869994 0.13715532
0.07813091 0.11746986 0.15583864 0.024344653 0.15563856 -0.053721935 -0.05068419 -0.06053643
0.17483051 -0.009627711 -0.06686062 0.013358721 -0.03704374 -0.06218692 0.12190955 -0.1016763
0.0781471 0.16066015 0.14628732 -0.06749744 0.078313485 0.07768729 0.16488732 -0.054439455
0.15168928 -0.091847554 -0.085073315 -0.104255274 -0.18552114 -0.13518183 -0.115585916 0.15302889
-0.02164887 0.0099739265 0.121103205 -0.056362882 0.11549588 0.037510294 0.106573425 -0.13973965

fc.weight f4 [1, 32]
00000000: 5afe 083e 4a55 58bc 7cb9 1bbc f021 58bd
00000010: d740 0c3e 1c2e ab39 be29 e6bc 94ab 733d
00000020: dabf d73d fc42 1dbe 8e0c eb3d 6fc9 743d
00000030: 777b ccbc 9371 82bd 78f9 30bc 08e2 03be
00000040: d300 b0bd 6b48 273e e5a8 2bbe 25f7 62bd
00000050: f4f4 10bd 493b b13d 8cfd 123d 743f 3b3e
00000060: 3bb9 0dbe b922 f93d 3960 11bd 02ab b5bd
00000070: 60f3 423d 0c50 aebc 7a08 c23d 878d 133e
0.13378277 -0.013203928 -0.009504672 -0.05276674 0.1369661 0.00032650016 -0.028096076 0.0594898
0.1053464 -0.15357584 0.11477004 0.059762415 -0.024961216 -0.06369319 -0.0108016655 -0.12879193
-0.08593907 0.16336219 -0.16763647 -0.055411477 -0.035389856 0.08653886 0.035886332 0.18285924
-0.13840191 0.12164826 -0.035492156 -0.08870508 0.04759538 -0.021278404 0.09474273 0.14409457
