models/lstm_drag.pth (torch, 335700 bytes, 9 tensors)

lstm.weight_ih_l0 f4 [256, 128]
0	0x3dbb62af	0.09149682
1	0x3c9502ea	0.018189866
2	0x3b8678a0	0.004103735
3	0xbd1114bc	-0.035420164
4	0xbda7f539	-0.082010694
5	0x3d6de7ea	0.0580825
6	0x3de70dbe	0.11281918
7	0xbd9219b8	-0.07133812
8	0x3c8fc301	0.01754904
9	0xbc75bddb	-0.014998878
10	0x3d022c5e	0.031780593
11	0x3cc043ec	0.023469888
12	0x3ddd60f3	0.10809507
13	0x3d23ae32	0.039961047
14	0x3cbcdf08	0.023055568
15	0xbd99caaa	-0.07509358
16	0xbc7d6652	-0.01546629
17	0x3da7aab5	0.08186857
18	0xbd41116a	-0.047135748
19	0xbdca9ab0	-0.098927855
20	0xbd9ab0e8	-0.075532734
21	0xbdb5920a	-0.08865745
22	0xbd9c6620	-0.07636666
23	0xbdd5417e	-0.10412882
24	0xbd9a557d	-0.07535837
25	0x3d1f78ee	0.038933687
26	0xbc5074f8	-0.0127232
27	0xbd16f84a	-0.03685788
28	0xbd68a34e	-0.056796364
29	0xbdac2dbb	-0.0840716
30	0xbd26ecb0	-0.040753067
31	0x3d946c6f	0.072472446
32	0xbd6d00d1	-0.057862107
33	0x3deb1663	0.11478879
34	0xbdd3db0d	-0.10344515
35	0x3a634c9e	0.00086707796
36	0xbbdc2b33	-0.006719017
37	0xbe01b0e6	-0.12665138
38	0xbc82a53a	-0.015947927
39	0xbdebfee2	-0.115232244
40	0xbd14e310	-0.036349356
41	0xbcd6e239	-0.026230918
42	0x3daf3533	0.08555069
43	0x3d96acbd	0.07357166
44	0xbd6dbb8d	-0.05804019
45	0xbdbead9b	-0.09310456
46	0xbddcce32	-0.10781516
47	0xbd05b1eb	-0.03264038
48	0x3d4fad2f	0.05070227
49	0x3db8feaf	0.09032952
50	0x3cda903e	0.026680108
51	0x3db06876	0.08613674
52	0xbcda35e3	-0.026637023
53	0xbd24acc2	-0.040203817
54	0x3d649291	0.05580384
55	0x3db4c345	0.08826307
56	0xbdf6769e	-0.12034343
57	0xbda85a14	-0.08220306
58	0x3cc1acfa	0.023642052
59	0xbd312262	-0.04324568
60	0xbcb37db3	-0.021910524
61	0x3d9416d5	0.07230917
62	0xbd17ac82	-0.03702975
63	0x3d934c47	0.07192283
64	0xbd1d45f4	-0.03839679
65	0x3c864592	0.016390596
66	0x3c69d725	0.014272486
67	0x3da95042	0.08267261
68	0xbda21503	-0.07914164
69	0xbdc1032b	-0.09424432
70	0xbc9e04a3	-0.01928932
71	0x3c18b06e	0.009319408
72	0xbdf43e03	-0.1192589
73	0x3db3bd59	0.087763496
74	0x3db50ada	0.088399604
75	0xbd63212b	-0.055451553
76	0x3df1d81d	0.118087985
77	0xbd7a35c2	-0.061086424
78	0xbd2ef9ed	-0.042718817
79	0x3caafa13	0.020871198
80	0xbc69c6ac	-0.0142685585
81	0xbd89d4ad	-0.06730018
82	0xbc32683d	-0.01088911
83	0x3dee478b	0.116347395
84	0xbd6077f4	-0.054801896
85	0xbdd3e555	-0.10346476
86	0xbcc13399	-0.023584174
87	0xbb75bc8c	-0.0037496416
88	0x3dc87a1c	0.097889155
89	0x3c26bdc3	0.010177079
90	0x3dff4930	0.12465131
91	0x3d854b9e	0.065085635
92	0xbccb5e9c	-0.024825387
93	0xbd339e1b	-0.043851953
94	0xbda4f746	-0.08054976
95	0x3ddc4970	0.107561946
96	0x3df0d8ce	0.11760102
97	0x3dff3b32	0.124624625
98	0x3da2be84	0.07946494
99	0x3de5ac8f	0.112145536
100	0xbd5e6c98	-0.05430278
101	0xbd28eef8	-0.041243523
102	0x3d33cdfa	0.043897606
103	0xbe0046aa	-0.12526956
104	0x3df0c26d	0.11755834
105	0x3ac844b5	0.0015279265
106	0x3dc8e0e1	0.09808517
107	0xbdc8d2d5	-0.09805838
108	0xbd9815e6	-0.07426052
109	0x3df41aab	0.11919149
110	0xbdab70ac	-0.083711
111	0x3dfc8b3d	0.12331245
112	0x3d7f128e	0.062273555
113	0x3cb9679f	0.022632418
114	0x3d87fead	0.066403724
115	0xbbfc631a	-0.0077022435
116	0xbce15096	-0.027504247
117	0x3e01682e	0.12637398
118	0x3d4a1314	0.0493346
119	0x3d91404c	0.07092342
120	0xbde1b459	-0.11020727
121	0xbd48caa8	-0.049021393
122	0xbe0369b9	-0.12833299
123	0xbc79bb2d	-0.01524238
124	0xbcd88d07	-0.026434435
125	0xbd3da73a	-0.046302058
126	0xbc4651b2	-0.012104439
127	0xbdec8dbc	-0.11550471
128	0x3c42900d	0.011875165
129	0xbcbc4972	-0.02298424
130	0xbc8db6f7	-0.017299158
131	0x3c15f32c	0.009152215
132	0xbd7270d2	-0.059189625
133	0xbdde26a1	-0.10847212
134	0x3bae151a	0.005312574
135	0x3d89fab8	0.06737274
136	0x3d05aec4	0.032637373
137	0x3d3276d0	0.04357034
138	0x3c85bcdc	0.016325407
139	0xbdff64f1	-0.12470425
140	0xbd8e3173	-0.069430254
141	0x3d993846	0.074814364
142	0xbde0c97a	-0.109759286
143	0xbd147e2d	-0.036253143
144	0xbd874a33	-0.06605949
145	0xbdb0ffd5	-0.08642546
146	0xbcedbf99	-0.029022025
147	0x3d14252e	0.03616827
148	0x3ca4a3f4	0.02009771
149	0xbc0c1c79	-0.00855171
150	0xbc0e8cdc	-0.008700576
151	0xbdf0456c	-0.11731991
152	0xbd96b5ff	-0.07358932
153	0xbd6aa55b	-0.0572866
154	0xbd880ccc	-0.06643066
155	0x3e06043c	0.13087553
156	0xbc80c8b9	-0.015720712
157	0xbd6a4211	-0.057191912
158	0xbda04e39	-0.0782742
159	0x3d942608	0.072338164
160	0xbdd758a4	-0.10514954
161	0xbd14f523	-0.036366593
162	0xbdbc1903	-0.09184458
163	0x3d0e0230	0.034670055
164	0xbd13b1a2	-0.036058076
165	0xbdd583fb	-0.10425564
166	0x3d9c9e4a	0.07647379
167	0x3de20768	0.11036569
168	0xbe026790	-0.12734818
169	0x3c8bed96	0.017081063
170	0xbd1197c9	-0.035545144
171	0x3d30a452	0.043125458
172	0xbd70f35f	-0.058825847
173	0xbde9e51e	-0.11420654
174	0x3dd434b6	0.10361616
175	0x3d98080d	0.074234106
176	0xbd5473dc	-0.051868305
177	0x3db2dbee	0.087333545
178	0x3d0c726d	0.034288812
179	0x3e094abb	0.13407414
180	0x3de871fd	0.113498665
181	0x3d319260	0.043352485
182	0xbe09d5c1	-0.13460447
183	0xbdbd599f	-0.092456095
184	0xbd72d74d	-0.059287358
185	0xbd6181d7	-0.055055466
186	0xbdd90b33	-0.10597839
187	0xbc2de6f8	-0.010614149
188	0xbde65026	-0.11245756
189	0xba702bfa	-0.00091618265
190	0xbdc0885c	-0.094010085
191	0xbe00f59f	-0.12593697
192	0x3dd68aec	0.10475716
193	0xbd8221c0	-0.063540936
194	0xbdc73429	-0.09726746
195	0x3ddd4ffb	0.10806271
196	0xbd71ba3e	-0.059015505
197	0xbc5a0904	-0.013307814
198	0xbc146859	-0.009058082
199	0x3e01568a	0.12630668
200	0x3dc633ea	0.096778706
201	0xbd9162e1	-0.07098938
202	0x3df1813f	0.1179223
203	0x3caa5a58	0.020795032
204	0xbd83212b	-0.06402811
205	0xbd3ecec4	-0.046583906
206	0x3c567fba	0.013091976
207	0xbe01aea8	-0.12664282
208	0x3d2081b4	0.039186195
209	0x3d9f21a7	0.077700906
210	0xbdb80a4d	-0.0898634
211	0x3dc3d496	0.09562032
212	0x3c99db98	0.018781468
213	0x3d91bc39	0.07115979
214	0x3dd5eb98	0.104453266
215	0x3e04700c	0.12933367
216	0x3de9993b	0.114061795
217	0x3d9c22a0	0.07623792
218	0x3dbc3294	0.091893345
219	0x3de88a09	0.11354453
220	0x3df7cb71	0.1209935
221	0xbddbbafb	-0.10729023
222	0x3d3f503e	0.046707384
223	0x3de87fed	0.11352525
224	0x3d0c3d7b	0.03423832
225	0xbd726217	-0.059175577
226	0xbd61cb23	-0.055125367
227	0x3de34695	0.11097447
228	0x3d4787b0	0.048713386
229	0x3dbfca5f	0.09364771
230	0xbde44fb1	-0.111480124
231	0xbd0d0e5f	-0.034437533
232	0xbdd4c3f2	-0.10388936
233	0xbce824d1	-0.028337868
234	0xbbe96fc5	-0.0071239197
235	0x3c9dc527	0.019259049
236	0xbc21201c	-0.009834316
237	0x3e0094bc	0.12556738
238	0x3d1044c5	0.035221834
239	0xbd4969c4	-0.04917313
240	0xbcbf0c97	-0.023321433
241	0xbdb18d72	-0.08669557
242	0xbc55a20b	-0.013039122
243	0x3d14a44e	0.036289506
244	0x3de9cfbc	0.11416575
245	0x3c423808	0.011854179
246	0xbd63a5db	-0.055578094
247	0x3de6365c	0.11240837
248	0x3d79ec97	0.061016645
249	0xbd08ad45	-0.033368368
250	0x3da1c8af	0.078996055
251	0x3d748c93	0.059704375
252	0xbcc47401	-0.023981096
253	0xbdbea14c	-0.09308109
254	0xbc85bb7b	-0.01632475
255	0xbdfab7af	-0.12242066

lstm.weight_hh_l0 f4 [256, 64]
0	0x3e006443	0.12538247
1	0xbdef9e66	-0.11700134
2	0xbdc53cd5	-0.096307434
3	0xbcebeda9	-0.028799849
4	0xbcea1cae	-0.028578129
5	0xbd1d5be7	-0.038417723
6	0xbd8abb76	-0.067740366
7	0x3d292efd	0.041304577
8	0xbd47ee4d	-0.048811246
9	0x3d3b6f4c	0.045760438
10	0xbdd9c60c	-0.106334776
11	0x3dc897d3	0.09794583
12	0xbd806826	-0.06269865
13	0xbdf50def	-0.11965548
14	0xbda270ba	-0.07931657
15	0x3df57b5c	0.119864196
16	0x3cb84d76	0.022497874
17	0xbd705975	-0.058679063
18	0x3dcb154d	0.09916172
19	0xbc84f0f4	-0.016228177
20	0xbc6adb68	-0.014334537
21	0x3cce33e4	0.025171228
22	0x3d5d00cf	0.05395585
23	0xbdd07c83	-0.10179999
24	0xbbc6eb19	-0.0060705063
25	0xbc861039	-0.016365157
26	0x3d83fffd	0.0644531
27	0x3d996160	0.07489276
28	0xbc4d455d	-0.0125287445
29	0x3da9630b	0.08270844
30	0xbd28ed97	-0.04124221
31	0x3c45bc8e	0.012068881
32	0x3b1e8eab	0.0024193923
33	0xbde96239	-0.113956876
34	0x3c1a0f42	0.009403052
35	0xbd8e526b	-0.06949314
36	0xbdf65746	-0.12028365
37	0xbd4a3379	-0.049365494
38	0xbd9f490d	-0.07777605
39	0xbb72a93a	-0.0037027136
40	0x3d3b2908	0.045693427
41	0xbdc1d5b8	-0.09464592
42	0x3c86ff28	0.01647909
43	0x3c737a32	0.014860677
44	0xbde66d8d	-0.11251364
45	0x3dbccf27	0.09219199
46	0xbd6b1683	-0.057394516
47	0xbab71956	-0.0013969343
48	0x3d3ba9f6	0.045816384
49	0xbdbc7421	-0.09201837
50	0x3db1c58a	0.08680256
51	0x3db17151	0.086641915
52	0xbdbe3233	-0.092869185
53	0x3dff8e5e	0.12478326
54	0xbc538639	-0.012910419
55	0x3dd98b5f	0.10622286
56	0x3dde19f2	0.108447924
57	0xbdc94a46	-0.0982862
58	0x3dd27abb	0.10277315
59	0xbdd2e215	-0.10297028
60	0x3debc8ab	0.11512884
61	0xbd89a6b4	-0.06721249
62	0x3dc8a196	0.09796445
63	0xbd724a99	-0.059153173
64	0x3d96652f	0.07343518
65	0xbd889339	-0.066687055
66	0xbcf5bd67	-0.02999754
67	0xbc7556d8	-0.014974318
68	0xbcf37429	-0.029718475
69	0x3dd6e794	0.10493389
70	0xbdd4041b	-0.103523456
71	0xbda0d75e	-0.07853578
72	0x3d382461	0.04495657
73	0x3d59dd59	0.05318961
74	0x3db9a26a	0.09064181
75	0xbcd39684	-0.025828607
76	0xbdd68908	-0.104753554
77	0x3d9733bf	0.07382917
78	0x3be7db98	0.007075738
79	0xbd8785ae	-0.06617294
80	0x3d799d4a	0.06094102
81	0x3cadb7fd	0.021205897
82	0x3de500ef	0.11181819
83	0xbba2b5b1	-0.004965507
84	0x3d19acd3	0.037518334
85	0x3cadf8c0	0.021236777
86	0xbdb58c90	-0.08864701
87	0x3d30d93f	0.043175932
88	0x3da0f091	0.078583844
89	0x3d2b43b0	0.0418126
90	0xbd289b64	-0.041163817
91	0xbd52cddc	-0.051465854
92	0x3c992dc1	0.018698575
93	0xbc590ac5	-0.013247197
94	0xbdaabf85	-0.08337311
95	0x3d1544f8	0.036442727
96	0x3b4af0ed	0.0030966357
97	0xbd937b59	-0.07201261
98	0x3c2453a2	0.010029705
99	0xbdf341c2	-0.11877777
100	0x3cfa0f14	0.030524768
101	0xbd5e0fc9	-0.054214273
102	0x3de27b0f	0.11058628
103	0x3dba106f	0.09085166
104	0xbd53c840	-0.051704645
105	0xbdb07d12	-0.08617605
106	0xbddd342c	-0.108009666
107	0xbd068933	-0.032845687
108	0xbd899ca3	-0.06719329
109	0xbdd63dc7	-0.10461002
110	0xbca497ff	-0.020092009
111	0xbe0ae019	-0.13562049
112	0x3d8ff049	0.07028253
113	0x3d886861	0.06660534
114	0x398fbd6f	0.00027416224
115	0x3dc473ab	0.095923744
116	0x3df398e9	0.118944
117	0x3c5b4ee8	0.013385512
118	0x3cc28837	0.023746593
119	0xbc8db8cd	-0.017300034
120	0xbd6c9f3f	-0.057769056
121	0x3ce42b39	0.027852641
122	0x3d72a3ba	0.059238173
123	0xbd5d392c	-0.0540096
124	0x3da8fa5d	0.08250878
125	0x3de6412f	0.112429015
126	0x3cfd8953	0.03094927
127	0xbdfd05bb	-0.123546086
128	0xbc444405	-0.011979108
129	0x3d442674	0.047888234
130	0x3c306f52	0.010768728
131	0xbe090bb8	-0.13383377
132	0x3d1d4373	0.038394403
133	0xbcdd41a2	-0.027008835
134	0xbd8ad2fd	-0.06778524
135	0x3d1a6690	0.037695467
136	0x3d8336c4	0.0640693
137	0xbdbc1fab	-0.09185728
138	0xbdcb0194	-0.099124104
139	0xbe07e4e5	-0.1327091
140	0xbd5d839d	-0.054080594
141	0x3d9645c7	0.07337528
142	0xbd90bca3	-0.070672296
143	0x3db5ed3e	0.08883141
144	0xbcfb28a8	-0.030659035
145	0xbda80888	-0.08204752
146	0xbc1cae31	-0.009563015
147	0x3d61e61c	0.05515109
148	0xbd2cb369	-0.042163286
149	0x3dee056b	0.11622127
150	0xbd78ff56	-0.060790382
151	0x3d254cef	0.040356573
152	0xbd990bcf	-0.074729554
153	0x3d22d220	0.039751172
154	0xbe0d5cdf	-0.13804959
155	0xba162635	-0.0005727739
156	0xbd1dedbe	-0.038556807
157	0x3db7eb5e	0.089804396
158	0xbd603288	-0.05473569
159	0x3c439e2a	0.011939565
160	0x3e044f55	0.12920888
161	0x3d89269d	0.06696818
162	0x3d22ea7a	0.039774396
163	0xbdd17fac	-0.102294296
164	0x39b668b3	0.00034791752
165	0x3e01f357	0.12690483
166	0xbd3bb4c5	-0.045826692
167	0x3d947fe9	0.072509594
168	0xbdcbb279	-0.0994615
169	0xbcbf0868	-0.023319438
170	0x3dd05371	0.10172165
171	0xba942978	-0.0011303863
172	0xbe09380a	-0.13400283
173	0xbd982fb4	-0.07430974
174	0xbdfa42d3	-0.12219777
175	0xbd5d7830	-0.054069698
176	0xbd7fad1a	-0.062420942
177	0x3d868645	0.06568579
178	0x3d2f8416	0.042850576
179	0x3dfb417b	0.12268349
180	0x3e13373f	0.14376543
181	0xbda059bb	-0.07829615
182	0x3dcd4d49	0.100245066
183	0x3ad0857c	0.0015908922
184	0xbd1dfc24	-0.03857054
185	0xbe127e68	-0.14306033
186	0x3d2c4037	0.042053428
187	0x3dd4423f	0.10364198
188	0x3d17f05a	0.03709445
189	0xbe00815d	-0.12549348
190	0xbce455b4	-0.027872898
191	0xbd927274	-0.071507365
192	0x3d706649	0.058691297
193	0xbdb6557d	-0.08903024
194	0xbddc5101	-0.10757638
195	0xbdc4360d	-0.09580622
196	0x3a32c8ea	0.00068200997
197	0x3d6dd95d	0.058068622
198	0x3e01eff6	0.12689194
199	0x3d438782	0.047736652
200	0x3de4b0b3	0.11166515
201	0x3c11aecd	0.008891773
202	0xbdb7312d	-0.089449264
203	0xbb1ebe9d	-0.00242225
204	0xbc8bc873	-0.017063355
205	0x3de0bc3d	0.109734036
206	0xbce9073b	-0.02844583
207	0x3c6cb74c	0.014447998
208	0xbd9e3c2b	-0.0772632
209	0xbd28c73b	-0.041205626
210	0xbba1c25a	-0.0049364986
211	0xbe04af67	-0.12957536
212	0x3c99eeb7	0.018790586
213	0x3c8f7648	0.017512456
214	0x3df1ef85	0.11813263
215	0x3d2cbdea	0.042173304
216	0xbc7a5ffd	-0.015281674
217	0xbd810e90	-0.06301606
218	0xbd01f057	-0.031723347
219	0x3d65c9fb	0.056100827
220	0xbd83e151	-0.0643946
221	0x3dca582f	0.09880101
222	0x3bf57f9d	0.0074920193
223	0xbca3f050	-0.02001205
224	0xbdd30f6a	-0.103056744
225	0xbd56ca19	-0.05243883
226	0xbda5cac3	-0.08095314
227	0xbce46146	-0.027878415
228	0x3d42fd39	0.047604773
229	0xbd9b6e41	-0.07589389
230	0x3c06f501	0.008237124
231	0xbdabfb7d	-0.08397577
232	0xbd453f34	-0.04815598
233	0xbdcb09a2	-0.09913947
234	0x3dd709c0	0.104999065
235	0x3bd3490a	0.006447916
236	0x3cf6e571	0.030138703
237	0xbd3430d2	-0.04399187
238	0x3dbbfb0d	0.091787435
239	0xbdb3c94c	-0.08778629
240	0xbdb3c689	-0.08778102
241	0x3c85e53a	0.016344655
242	0x3d50f97e	0.051019184
243	0x3dca7462	0.098854795
244	0x3e033cbf	0.12816142
245	0x3dfe9881	0.124314316
246	0x3b788800	0.003792286
247	0xbd8dcaf6	-0.06923477
248	0x3d837d43	0.06420376
249	0xbe033364	-0.12812573
250	0x3dc5b61f	0.096538775
251	0x3df97278	0.12180036
252	0xbd8860df	-0.06659102
253	0x3d31b4a0	0.043385148
254	0xbc178b4e	-0.009249521
255	0xbd7e7fc0	-0.06213355

lstm.bias_ih_l0 f4 [256]
0	0x3d7b7ac5	0.06139638
1	0x3ac3a39e	0.0014926081
2	0xbdb20d8b	-0.08693989
3	0xbd705a6c	-0.058679983
4	0x3db0447c	0.08606812
5	0x3d6f1125	0.05836596
6	0xbdf1ed2b	-0.11812814
7	0xbd911a7c	-0.070851296
8	0x3dc897e8	0.09794599
9	0x3d470617	0.048589792
10	0xbdfc9b78	-0.12334341
11	0xbd0d3add	-0.034479965
12	0x3c85fc0d	0.016355539
13	0x3d393b31	0.045222465
14	0xbca86593	-0.020556247
15	0x3dd0c4f6	0.10193817
16	0x3d4c2d81	0.049848083
17	0xbde15ef2	-0.110044375
18	0xbbc9368d	-0.006140536
19	0xbd7b1480	-0.061298847
20	0x3b8925c1	0.004185409
21	0x3c5fff7f	0.013671755
22	0x3dd30da5	0.10305337
23	0xbd01856e	-0.03162139
24	0xbd8173f9	-0.06320948
25	0xbdeb2756	-0.11482112
26	0xbd3c4b7c	-0.045970425
27	0x3dd6135c	0.10452911
28	0xbd926227	-0.07147627
29	0x3d30b339	0.04313967
30	0x3dd81a78	0.105519235
31	0xbd2318ed	-0.039818693
32	0x3d6c4270	0.057680547
33	0xbc210e0a	-0.009830007
34	0xbdcbf9cb	-0.099597536
35	0x3cd025b5	0.025408605
36	0xbd8c57c5	-0.06852678
37	0x3dd014fc	0.101602525
38	0x3d8b963e	0.06815766
39	0x3dce42f8	0.10071367
40	0xbcb02a00	-0.021504402
41	0x3de93885	0.11387733
42	0xbd36c623	-0.04462255
43	0x3d21e61e	0.039526097
44	0xbd789457	-0.060688343
45	0x3db2297d	0.086993195
46	0x3d10bcb9	0.03533623
47	0x3973f531	0.00023265627
48	0xbd6bbc57	-0.05755266
49	0xb84e740c	-4.9222304e-05
50	0xbde5dea4	-0.11224106
51	0x3d242c92	0.040081568
52	0x3a1577fe	0.0005701779
53	0xbd85bcfa	-0.06530185
54	0xbd59163c	-0.05299972
55	0xbd2ab308	-0.041674644
56	0xbceeaea8	-0.029136017
57	0xbda356a5	-0.079755105
58	0xbdd7d777	-0.105391435
59	0xbda82b4b	-0.082113825
60	0xbb861ac3	-0.0040925457
61	0x3d4cc195	0.0499893
62	0x3dbb69bb	0.09151026
63	0x3d5c8ca8	0.053845078
64	0xbe01e8ed	-0.1268651
65	0xbcafda4d	-0.021466399
66	0x3d86529f	0.065587275
67	0xbdbd3cf1	-0.09240139
68	0x3d4fb561	0.050710086
69	0x3da7a87b	0.08186432
70	0x3c80b2fd	0.015710348
71	0x3d97f433	0.07419624
72	0xbda9f0a9	-0.082978554
73	0x3ddc49fc	0.10756299
74	0xbdfee84e	-0.12446652
75	0xbb084875	-0.002079514
76	0xbdb411f0	-0.08792484
77	0xbd421923	-0.047387253
78	0xbb431348	-0.0029766131
79	0x3db3ca53	0.08778825
80	0x3cc1581b	0.023601582
81	0x3dd6b0a7	0.104829125
82	0x3d925f16	0.071470425
83	0xbdd6af16	-0.10482614
84	0xbdaa4933	-0.08314743
85	0x3b0909cb	0.0020910378
86	0x3e19f5b7	0.15035139
87	0xbda6412c	-0.08117899
88	0x3d59ee5b	0.05320583
89	0x3d2671a8	0.040635735
90	0xbc3799d7	-0.011206112
91	0xbc108ef4	-0.008823145
92	0xbd9187f4	-0.07106009
93	0xbde4193a	-0.11137624
94	0xbdb13dde	-0.08654378
95	0xbd6991ef	-0.05702394
96	0xbd02f9c5	-0.03197648
97	0x3c2910b1	0.010318921
98	0xbd59e023	-0.05319227
99	0x3d4b61bf	0.049653765
100	0x3dd0a13a	0.101870015
101	0x3dc23569	0.094828434
102	0x3de4927b	0.111607514
103	0xbdbb4835	-0.09144632
104	0xbd0877e4	-0.03331746
105	0xbd6987b9	-0.0570142
106	0xbd89a32d	-0.067205764
107	0x3dad1935	0.084520735
108	0xbd593ce1	-0.053036574
109	0x3d0caca2	0.034344323
110	0x3d980bbf	0.074241154
111	0xbda48b85	-0.08034424
112	0xbd7cc02e	-0.061706714
113	0x3bab91c7	0.005235884
114	0x3d0b9625	0.034078736
115	0xbd9e41d5	-0.077274
116	0xbd389f22	-0.045073636
117	0x3dab0440	0.0835042
118	0xbde17021	-0.11007715
119	0xbd2d727d	-0.042345513
120	0xbcf355c7	-0.029703988
121	0xbd152f0a	-0.036421813
122	0x3cb4c817	0.022068067
123	0xbd975f8a	-0.073912695
124	0xbd911a01	-0.07085038
125	0x3c6c28af	0.014413997
126	0xbdbc2fce	-0.091888055
127	0xbde0a7ca	-0.10969503
128	0xbdc01183	-0.0937834
129	0x3ddc3bad	0.1075357
130	0xbd4b52d7	-0.04963955
131	0xbe052169	-0.13001026
132	0xbdeb8b22	-0.11501147
133	0x3dbf0e3e	0.09328888
134	0xb9996665	-0.00029258724
135	0x3d718a19	0.05896959
136	0x3dc688e0	0.096940756
137	0x3d851303	0.06497767
138	0xbd2794b7	-0.04091331
139	0x3d254bbc	0.04035543
140	0x3d3c551d	0.045979608
141	0xbd419168	-0.04725781
142	0xbdf00b73	-0.11720934
143	0xbd5b6f66	-0.053573035
144	0xbde1d5c8	-0.11027104
145	0x3c279603	0.010228637
146	0xbe02852f	-0.12746118
147	0x3d862617	0.06550234
148	0x3d48b1d3	0.04899771
149	0xbd64e88f	-0.055885848
150	0x3dc7aeaa	0.097501114
151	0x3d8d3c70	0.06896293
152	0x3aa37fa1	0.001247395
153	0xbcbb5dd8	-0.022871897
154	0x3de546fa	0.11195178
155	0xbd8c87d2	-0.06861843
156	0xbbaa8df0	-0.0052049085
157	0x3cea79f2	0.028622601
158	0xbd4cf56c	-0.05003874
159	0x3d80f553	0.06296792
160	0xbdbf4261	-0.09338833
161	0x3d150b9a	0.036388017
162	0xbdd5c04a	-0.10437067
163	0xbd7ba5b1	-0.061437313
164	0xbde6f0d1	-0.11276401
165	0xbccf9554	-0.02533976
166	0x3cc25d91	0.023726257
167	0xbb31edf4	-0.0027149888
168	0x3db40c4a	0.087914065
169	0xbd780ac3	-0.06055714
170	0xbd40ab90	-0.047038615
171	0xbd8a909a	-0.06765862
172	0x3c8d0c9a	0.017217923
173	0x3d98d3ee	0.074622974
174	0xb8cbfdbf	-9.727058e-05
175	0x3b8fc003	0.0043869033
176	0xbd15318f	-0.036424216
177	0xbdcbe71f	-0.09956192
178	0xbd0333b4	-0.03203173
179	0x3c218b2f	0.009859844
180	0xbcef2732	-0.029193494
181	0x3da9a7d3	0.08283963
182	0xbd7d3b33	-0.061824035
183	0xbdcd8794	-0.10035625
184	0xbdf17b3e	-0.11791085
185	0x3dbf84d8	0.0935151
186	0x3d5476e1	0.051871184
187	0x3db07b56	0.086172745
188	0xbd8d7012	-0.06906141
189	0xbe0204a1	-0.12697078
190	0xbd90824e	-0.07056104
191	0x3da6cc7f	0.08144473
192	0xbde1f47f	-0.11032962
193	0xbdd934f7	-0.10605805
194	0xbd164944	-0.036690965
195	0xbd484439	-0.048893187
196	0x3d16c674	0.036810353
197	0xbdd199fa	-0.10234447
198	0x3d95c096	0.073121235
199	0xbddba2a2	-0.10724379
200	0xbd07a0d8	-0.033112377
201	0xbd4c79e2	-0.049920924
202	0x3cc06837	0.023487194
203	0xbcf04105	-0.029327879
204	0xbddec43a	-0.10877271
205	0x3dbe95d9	0.09305925
206	0x3b9cf73a	0.004790214
207	0x3d16d2b0	0.03682202
208	0x3d6fdbce	0.05855923
209	0xbdde8039	-0.108643
210	0x3dcaf200	0.09909439
211	0xbd6a70f8	-0.05723664
212	0xbda5be9c	-0.080929965
213	0x3c64c464	0.013962839
214	0x3cac3344	0.02102054
215	0xbbd9d45b	-0.006647629
216	0xbd8df2a7	-0.06931048
217	0xbb8b0cae	-0.004243455
218	0xb9cbc924	-0.0003886904
219	0x3ca2645e	0.01982325
220	0xbde8d56a	-0.113688305
221	0xbdafe523	-0.08588626
222	0xbdc52d25	-0.09627751
223	0xbd91b8e6	-0.07115345
224	0x3d3eba29	0.046564255
225	0x3dea9e44	0.11455968
226	0x3da5a29a	0.080876544
227	0xbdc0b400	-0.09409332
228	0x3cdd0fea	0.026985127
229	0x3dbd2c31	0.092369445
230	0x3b8b5627	0.0042522135
231	0xbdd652bd	-0.10465
232	0x3d76d84a	0.060264863
233	0x3df310af	0.118684165
234	0x3df4364a	0.11924417
235	0x3daeaed6	0.08529441
236	0xbbb926df	-0.0056503857
237	0xbdaf995e	-0.08574174
238	0xbd7551dd	-0.059892524
239	0x3e0213c4	0.12702852
240	0x3da0bd05	0.078485526
241	0x3cf9a1af	0.030472605
242	0xbdf1122a	-0.11771043
243	0x3d8a29e7	0.067462735
244	0x3cc9f7b9	0.024654256
245	0x3d99e68e	0.07514678
246	0xbcf31d2c	-0.029676996
247	0xbc3242f6	-0.010880223
248	0x3d965ca8	0.073418915
249	0xbbb520b5	-0.0055275806
250	0x3dbadb0f	0.09123813
251	0x3d727973	0.059197854
252	0x3cafa456	0.021440666
253	0xbcf65ccf	-0.030073551
254	0x3db9ecf0	0.09078395
255	0x3d132c08	0.035930663

lstm.bias_hh_l0 f4 [256]
0	0xbdd64cfb	-0.104639016
1	0x3d84b260	0.06479335
2	0xbcc80459	-0.024416136
3	0xbc05f5af	-0.008176251
4	0xbc9a8112	-0.018860374
5	0x3d70fdc1	0.05883575
6	0x3df01bd3	0.11724057
7	0x3ceb6709	0.028735654
8	0x3d91a57e	0.07111643
9	0xbd152fc1	-0.036422495
10	0xbdb3fa08	-0.08787924
11	0xbbb74bdc	-0.00559376
12	0xbd4d7cb2	-0.050167747
13	0x3d15c985	0.036569137
14	0x3d5df6cd	0.054190446
15	0xbd260772	-0.040534444
16	0xbda83ca1	-0.08214689
17	0x3c7e57f0	0.015523896
18	0x3e07cd57	0.13261925
19	0xbdf2cdbb	-0.11855646
20	0xbdd2c424	-0.10291317
21	0xbde8a9f2	-0.113605395
22	0xbdbd6077	-0.09246915
23	0xbd501d82	-0.05080939
24	0xbd2023d2	-0.03909666
25	0x3d059af5	0.03261848
26	0x3de3613e	0.11102532
27	0x3d90afe0	0.070647955
28	0xbdab0ad1	-0.083516724
29	0xbe05684f	-0.13028072
30	0x3dd610b6	0.10452406
31	0xbd931889	-0.07182414
32	0xbd9212f3	-0.071325205
33	0x3d06eed3	0.032942604
34	0x3e01b2e1	0.12665893
35	0xbd2ba535	-0.0419056
36	0x3e004edb	0.12530081
37	0xbd7c07ee	-0.061531
38	0xbcb5ef5b	-0.02220886
39	0x3daf420c	0.08557519
40	0xbcba9548	-0.022776261
41	0xbdb86797	-0.09004133
42	0xbde1e80f	-0.1103059
43	0x3cc213de	0.023691114
44	0x3a0e1d54	0.00054212403
45	0xbd711202	-0.058855064
46	0x3dbf0d1a	0.09328671
47	0xbdc89fd6	-0.09796111
48	0xbd81bfcb	-0.0633541
49	0x3d7fa8d5	0.06241687
50	0xbd4b0834	-0.04956837
51	0xbd1ba5af	-0.037999805
52	0xbce04a03	-0.027379042
53	0x3c7b5c3c	0.015341815
54	0x3db7b152	0.08969368
55	0xbc73fb46	-0.014891451
56	0xbda8e492	-0.08246721
57	0x3d97fcc3	0.07421257
58	0x3d6bc159	0.057557438
59	0x3c6925ff	0.01423025
60	0xbd9b13c5	-0.0757213
61	0x3d489591	0.048970763
62	0xbc024734	-0.007951546
63	0x3d64ff8c	0.05590777
64	0xbc8acaf0	-0.016942471
65	0xbd467280	-0.04844904
66	0xbd2223a6	-0.03958478
67	0xbb75ceaa	-0.0037507215
68	0xbc060908	-0.008180864
69	0x3d4e02e2	0.050295718
70	0x3ddadda8	0.10686809
71	0xbded7b27	-0.11595755
72	0x3d5eafba	0.054366805
73	0xbdeef170	-0.11667144
74	0xbd084b21	-0.033274774
75	0x3de45f2b	0.11150964
76	0xbdab2572	-0.083567515
77	0x3c7b39fa	0.015333647
78	0x3dcc57b1	0.09977663
79	0x3d5a6270	0.053316534
80	0x3dfa43d8	0.122199714
81	0xbdc547a3	-0.09632804
82	0xbd05a252	-0.032625504
83	0x3c2655e2	0.010152312
84	0x3d799c85	0.060940284
85	0x3c0d8303	0.008637193
86	0xbd1bf6ce	-0.03807717
87	0xbd9193b4	-0.0710825
88	0xbcb0dc61	-0.02158946
89	0x3daf33d7	0.085548095
90	0xbca68bc3	-0.020330315
91	0x3d7be845	0.061500806
92	0xbd95492a	-0.072893456
93	0x3df09186	0.117465064
94	0xbd770d6c	-0.060315534
95	0x3d7e8949	0.062142644
96	0x3d519454	0.051166847
97	0xbc72cbe9	-0.014819124
98	0x3d06f887	0.032951858
99	0x3d1a0993	0.037606787
100	0xbdc2d2bc	-0.09512851
101	0xbde26369	-0.11054117
102	0xbcbe0b68	-0.023198798
103	0x3d2fadcc	0.042890355
104	0x3bae16cc	0.005312776
105	0xbd36d8e5	-0.04464044
106	0xbd02951e	-0.03188049
107	0x3d93085d	0.071793295
108	0xbde95e03	-0.113948844
109	0x3d1762b2	0.036959358
110	0xbc17530a	-0.009236107
111	0xbc6e1272	-0.014530765
112	0xbd7b0c9c	-0.061291322
113	0xbbd941d8	-0.0066301636
114	0x3df71a48	0.120655596
115	0x3c18e108	0.009330995
116	0xb8d19f44	-9.995562e-05
117	0xbdea3f28	-0.11437827
118	0xbd5840a0	-0.052796006
119	0xbdd64da9	-0.10464031
120	0xbdb454c5	-0.08805231
121	0x3d31e7ce	0.043433957
122	0x3c8467d7	0.016162796
123	0x3d801162	0.062533155
124	0x3d3c7f39	0.046019766
125	0x3c27f384	0.01025093
126	0x3c839f13	0.016067063
127	0x3d743045	0.059616346
128	0xbd510b61	-0.051036242
129	0x3d8ab551	0.067728646
130	0x3df65c85	0.120293655
131	0xbde9469b	-0.1139042
132	0xbd885528	-0.06656867
133	0xbd24901b	-0.040176492
134	0xbdc87bd9	-0.09789247
135	0xbd7fd263	-0.0624565
136	0x3def25f2	0.11677159
137	0xbd2dac54	-0.042400673
138	0x3dbc28d4	0.09187475
139	0x3d310168	0.04321423
140	0x3d16e229	0.036836777
141	0xbd5c64d4	-0.053807095
142	0x3bfe3ef5	0.00775897
143	0xbdff3d56	-0.12462871
144	0x3b73c2ab	0.0037194889
145	0x3d062d87	0.032758262
146	0x3ddbd69d	0.107342936
147	0x3dbd159e	0.09232639
148	0xbd47e241	-0.048799757
149	0x3c734365	0.014847611
150	0x3dbea45e	0.09308694
151	0x3d8cdf70	0.06878555
152	0x3d37c41a	0.04486475
153	0x3d3d6ab2	0.04624433
154	0xbd32cb28	-0.043650776
155	0xbdd61b68	-0.10454446
156	0x3c820b27	0.015874458
157	0xbdc72bae	-0.09725128
158	0xbd813137	-0.06308215
159	0x3de2087d	0.11036775
160	0xbd08e305	-0.033419628
161	0xbda670a0	-0.0812695
162	0x3dd9411c	0.10608122
163	0xbc92dc95	-0.017927447
164	0x3bde1a57	0.0067780423
165	0x3de34f42	0.110991016
166	0x3d8fe08b	0.0702525
167	0xbc860690	-0.016360551
168	0x3d60f923	0.054925095
169	0xbda2f70d	-0.079572774
170	0xbb325d2e	-0.0027216184
171	0x3d8f56a7	0.069989495
172	0xbdc6cca7	-0.09707003
173	0xbdb1505e	-0.08657907
174	0x3c334f30	0.010944173
175	0xbc76666a	-0.015039066
176	0x3e022ade	0.12711665
177	0x3d8947a1	0.06703115
178	0xbd2f6c88	-0.042828113
179	0x3d89176e	0.06693922
180	0xbd8f86a9	-0.07008106
181	0x3d8aaa19	0.06770725
182	0xbd01267f	-0.031530853
183	0xbdddfc16	-0.10839097
184	0xbd84537c	-0.06461236
185	0x3d791014	0.06080635
186	0xbdf9a947	-0.1219049
187	0x3db34e0c	0.08755121
188	0xbd186cdb	-0.037213188
189	0x3d556f61	0.052108172
190	0x3de3ca26	0.11122541
191	0xbd419047	-0.047256734
192	0xbdd220a1	-0.1026013
193	0xbd8a72fb	-0.06760212
194	0x3d8a98b3	0.06767406
195	0xbc8a439f	-0.016877947
196	0x3a4d5a20	0.0007833559
197	0xbd927d5c	-0.07152817
198	0x3dd1064a	0.10206278
199	0xbd87db82	-0.06633665
200	0xbd0b77f8	-0.034049958
201	0x3d89e1e5	0.06732539
202	0x3dce62ee	0.10077463
203	0x3df57399	0.11984939
204	0xbd909d08	-0.07061201
205	0xbd0f687d	-0.035011757
206	0xbd8b3bbb	-0.06798502
207	0x3d37f7e8	0.044914156
208	0x3d97f5ff	0.07419967
209	0x3bc311c3	0.005953045
210	0x3c9fd90f	0.019512681
211	0x3d7426c8	0.059607297
212	0xbdcbd42e	-0.099525794
213	0xbb29d2b4	-0.0025912942
214	0xbda6fcea	-0.08153708
215	0x3ce7ee59	0.028311895
216	0x3d707f09	0.0587149
217	0xbd3ef2a1	-0.046618108
218	0xbd22cb2f	-0.039744552
219	0x3d8bca80	0.06825733
220	0x3d9c182e	0.076217994
221	0xbd9ab7a3	-0.07554557
222	0x3d1305d2	0.035894223
223	0x3dd67484	0.10471442
224	0xbc68ca9c	-0.014208462
225	0x3dae3e62	0.08507992
226	0x3e008e7b	0.12554352
227	0x3d800c0b	0.06252297
228	0xbdccb9ce	-0.09996377
229	0x3d7d8e38	0.06190321
230	0xbdc4cce0	-0.09609389
231	0x3d36f56b	0.044667643
232	0x3d67a4fd	0.05655383
233	0xbbcb7d74	-0.0062100235
234	0xbd328cae	-0.043591194
235	0xbde3928e	-0.111119375
236	0xbb4d5af5	-0.0031334732
237	0x3da3ab6e	0.07991682
238	0xbdc49110	-0.09597981
239	0x3d05373f	0.03252339
240	0xbd86670f	-0.065626256
241	0x3dffaeca	0.1248451
242	0xbd631084	-0.055435672
243	0x3dde39b6	0.10850851
244	0x3dfddd6d	0.12395749
245	0xba880532	-0.0010377525
246	0xbdc65fff	-0.096862786
247	0x3bfac735	0.007653142
248	0x3d96dc43	0.0736623
249	0xbd22b64a	-0.039724626
250	0xbd18726f	-0.037218507
251	0x3d55b12b	0.052170914
252	0x3ce17d7f	0.027525662
253	0x3da80ad2	0.08205189
254	0xbd39ff35	-0.0454094
255	0x3da415d7	0.08011978

lstm.weight_ih_l1 f4 [256, 64]
0	0xbdbc2b60	-0.091879606
1	0x3d9fc9f9	0.07802195
2	0xbd8121f9	-0.06305308
3	0xbdbb2dff	-0.091396324
4	0x3de8151a	0.1133215
5	0x3c7aed70	0.015315399
6	0xbd0c7140	-0.03428769
7	0xbd0e86e3	-0.034796607
8	0xbc5bee5d	-0.013423529
9	0xbcb5b4d7	-0.022180958
10	0x3d00863c	0.031378016
11	0xbcd7ee37	-0.026358707
12	0xbdaa6117	-0.083193
13	0xbb0b7a61	-0.002128266
14	0xbce074a7	-0.027399374
15	0x3d3955bc	0.04524778
16	0x3b25a48f	0.0025275087
17	0xbd59dbdc	-0.05318819
18	0xbdfaa409	-0.122383185
19	0xbd1a54cf	-0.037678536
20	0xbcc23341	-0.02370608
21	0x3d0a891c	0.033822164
22	0x3dd0e760	0.10200381
23	0xbcfc3489	-0.03078677
24	0xbdf23c68	-0.11827928
25	0xbe072cb0	-0.1320064
26	0x3c174ffc	0.009235378
27	0x3c7772f1	0.015103088
28	0x3d9eb303	0.077489875
29	0x3cd3b07e	0.025840994
30	0x3c057100	0.008144617
31	0xbb97aaa8	-0.004628498
32	0xbd3ecb4f	-0.04658061
33	0xbd36fd8c	-0.044675395
34	0xbd816b8d	-0.06319342
35	0xbd61436a	-0.05499593
36	0xbdb10265	-0.08643035
37	0x3dcc914e	0.09988652
38	0xbde43b31	-0.11144102
39	0x3dc3b08f	0.0955516
40	0x3d93f597	0.07224577
41	0x3dc754a1	0.097329386
42	0xbd7e86e0	-0.062140346
43	0x3d029f3d	0.031890143
44	0x3d55e718	0.05222234
45	0x3c88fd4c	0.016722344
46	0xbde2cbd5	-0.11074034
47	0x3da6b0e9	0.08139212
48	0xbdac3735	-0.084089674
49	0xbd13b867	-0.03606453
50	0x3deb746c	0.11496815
51	0xbd4f0fc5	-0.05055215
52	0x3b042a41	0.0020166787
53	0xbdc18a3a	-0.09450193
54	0x3dadb600	0.08481979
55	0xbdab8705	-0.08375362
56	0x3d9e8f91	0.07742227
57	0xbde6db9a	-0.112723544
58	0xbc9b8874	-0.018985964
59	0x3c87f427	0.016595913
60	0xbd14e3cb	-0.036350053
61	0x3d243cde	0.04009711
62	0x3de8fb68	0.11376077
63	0xbc98399a	-0.018582154
64	0x3dab168c	0.0835391
65	0x3dd869f1	0.10567082
66	0xbe15b4be	-0.14619729
67	0xbd684f80	-0.056716442
68	0xbcb9100c	-0.02259066
69	0x3d9574da	0.07297678
70	0xbe0062f7	-0.12537752
71	0xbdd3bc98	-0.10338706
72	0x3d41b747	0.047293928
73	0xbdccef1b	-0.10006543
74	0xbd9f8635	-0.0778927
75	0x3d9046ed	0.07044778
76	0xbd2f0e5d	-0.042738307
77	0x3ccd39a2	0.025051896
78	0xbad30acb	-0.0016101239
79	0xbdd36274	-0.10321513
80	0xbd045de6	-0.03231611
81	0xbdae0f12	-0.08498968
82	0xbe05a4de	-0.13051173
83	0xbd835285	-0.06412224
84	0xbd6784b8	-0.056523055
85	0xbd5de1fc	-0.054170594
86	0x3cb963fd	0.022630686
87	0xbc716c81	-0.014735342
88	0xbddfbd45	-0.10924772
89	0x3d386ce4	0.04502572
90	0xbc38b92c	-0.011274617
91	0xbdddd6bf	-0.10831975
92	0x3dfd1732	0.1235794
93	0x3da6b62e	0.08140217
94	0xbd0c53aa	-0.034259476
95	0xbd0345bb	-0.032048922
96	0x3d73e773	0.0595469
97	0xbd16d044	-0.03681971
98	0xbb214d3c	-0.0024612686
99	0xbd15e4c7	-0.036595132
100	0x3dec8ad6	0.11549918
101	0xbdba1af9	-0.09087176
102	0x3d537ce2	0.05163277
103	0x3e03c6c1	0.12868787
104	0x3cb180a4	0.021667786
105	0xbcbee520	-0.023302615
106	0x3d35bbce	0.044368558
107	0x3d970c1e	0.07375358
108	0xbd427678	-0.04747626
109	0x3df57760	0.119856596
110	0xbb93261c	-0.004490627
111	0xbd8094a4	-0.06278351
112	0x3dfaa327	0.1223815
113	0x3a7a146f	0.0009539788
114	0xbc6dab54	-0.01450618
115	0xbdbb9f2f	-0.09161221
116	0x3bd2cdd1	0.0064332266
117	0x3deecabd	0.11659763
118	0xbd51d029	-0.051223908
119	0x3b3b1958	0.0028549042
120	0xbde013bc	-0.10941264
121	0x3cfcb2ca	0.030846972
122	0x3d29e5d6	0.041478954
123	0xbc8edcb2	-0.01743922
124	0x3ca80e78	0.020514712
125	0x389a35d4	7.3533185e-05
126	0xbd150fcc	-0.03639202
127	0xbd1624df	-0.036656257
128	0x3d5ef984	0.054437175
129	0x3d2d220e	0.042268805
130	0x3dab015f	0.08349871
131	0xbdf4510e	-0.119295225
132	0x3e0c862a	0.13723055
133	0x3c552506	0.013009315
134	0xbd9e3623	-0.077251695
135	0x3e0a9e1c	0.13536876
136	0x3d2cf9cc	0.042230412
137	0xbc8788c3	-0.016544705
138	0x3dc43a3b	0.09581419
139	0x3de32564	0.11091116
140	0xbdea45c9	-0.11439092
141	0x3db970df	0.090547316
142	0x3d3a5d70	0.045499265
143	0xbc7a5679	-0.015279406
144	0x3df32ec5	0.11874155
145	0x3cd860e0	0.026413381
146	0xbcd497aa	-0.025951225
147	0xbda1fa95	-0.07909123
148	0xbb473bbc	-0.0030400595
149	0xbd6ab93f	-0.05730557
150	0xbd141991	-0.036157195
151	0xbd7dd102	-0.061966904
152	0xbdd0c47a	-0.10193725
153	0x3d8cb649	0.06870706
154	0x3c455b11	0.012045638
155	0x3c9efcdf	0.019407688
156	0x3aaeb797	0.001332986
157	0x3c197fa9	0.009368815
158	0xbd48d796	-0.049033724
159	0xbd225900	-0.03963566
160	0xbdc9cdca	-0.09853704
161	0xbd2ce590	-0.042211115
162	0xbde775be	-0.113017544
163	0x3c4d72e9	0.012539604
164	0xbdb5dfbd	-0.08880565
165	0xbcdeccb7	-0.027197225
166	0xbc9dfa87	-0.0192845
167	0xbd53f022	-0.05174268
168	0x3da150f0	0.07876766
169	0xbb946cf7	-0.004529591
170	0xbd88d8f7	-0.06682008
171	0x3d000a48	0.031259805
172	0x3c87324f	0.016503481
173	0x3c69c1be	0.014267383
174	0xbe0854ab	-0.13313548
175	0xbdab0ff7	-0.083526544
176	0xbca0efbc	-0.019645564
177	0xbdec185c	-0.11528084
178	0xbc40d86d	-0.01177035
179	0xbd82733a	-0.06369634
180	0xbdc4cf45	-0.09609846
181	0x3bcd642e	0.006268046
182	0xbbd6b243	-0.006552012
183	0x3db90fc2	0.09036209
184	0x3cab35e8	0.020899728
185	0xbce7acb1	-0.028280588
186	0x3bfcf118	0.0077191703
187	0xbddda2d9	-0.10822076
188	0x3e0acc36	0.13554463
189	0xbd9cf5e5	-0.07664088
190	0x3d968983	0.07350447
191	0x3da099e7	0.078418545
192	0x3d09fe04	0.033689514
193	0x3e0e3185	0.13886078
194	0x3be2fc6e	0.0069270646
195	0xbc91f260	-0.017815769
196	0x3c39e695	0.011346479
197	0x3d055d72	0.03255982
198	0xbd12c85f	-0.03583562
199	0xbd725699	-0.059164617
200	0xbd71aac4	-0.059000745
201	0xbc897e35	-0.016783813
202	0x3d713be8	0.05889502
203	0xbc4a5c75	-0.012351145
204	0x3dd7baf1	0.10533703
205	0x3c0c3931	0.008558557
206	0xbd2d83f0	-0.042362154
207	0x3d0233ff	0.03178787
208	0x3daf7578	0.08567327
209	0xbdefd1b6	-0.11709921
210	0x3d98a8e2	0.07454087
211	0xbd442bda	-0.047893383
212	0xbddb32e2	-0.107030645
213	0xbc807743	-0.015681868
214	0xbd452f6c	-0.04814093
215	0xbe07698b	-0.13223855
216	0x3c9c67f4	0.019092537
217	0x3d18969b	0.037253004
218	0xbd95e032	-0.073181525
219	0xbc7df79c	-0.015500929
220	0x3d5e3362	0.05424822
221	0xbcc9cfbb	-0.024635186
222	0xbd1c2c92	-0.038128443
223	0xbdc24ab3	-0.09486904
224	0xbdb8a4f4	-0.09015837
225	0xbd12f63d	-0.035879362
226	0x3d482822	0.0488664
227	0x3d972366	0.073797986
228	0x3d26655b	0.040624004
229	0xbdb941f7	-0.09045785
230	0xbde85ada	-0.113454536
231	0x3dcb69a3	0.09932258
232	0x3d0d9e2d	0.034574676
233	0xbd785f62	-0.06063784
234	0xbd85cc08	-0.065330565
235	0x3c3a6d27	0.011378563
236	0xbe106c92	-0.14103916
237	0xbd287b80	-0.041133404
238	0xbdea3a24	-0.11436871
239	0xbdfbfbd5	-0.123038925
240	0x3db1793b	0.08665701
241	0x3e0bd4fd	0.13655467
242	0xbd7bac6a	-0.061443724
243	0xbd1591b0	-0.03651589
244	0xbca3881c	-0.019962363
245	0xbc9b334e	-0.018945362
246	0x3d3f443b	0.04669593
247	0xbd798405	-0.06091692
248	0xbd7e3af0	-0.062067926
249	0xbcc332e3	-0.023827976
250	0xbc90ae27	-0.017661167
251	0xbdc1595c	-0.09440872
252	0x3d140bf9	0.03614423
253	0x3e104712	0.14089611
254	0xbbcee472	-0.006313854
255	0x3dc6bbc6	0.09703784

lstm.weight_hh_l1 f4 [256, 64]
0	0xbdb9b7b1	-0.090682395
1	0xbe0ea2cd	-0.13929291
2	0x3e1313bb	0.14362995
3	0xbcbc2801	-0.022968294
4	0x3bc68a9c	0.006059004
5	0x3e0cbc35	0.1374367
6	0x3d5a2eb4	0.053267196
7	0x3e1ad42d	0.15120001
8	0xbd707c0a	-0.058712043
9	0x3c5637b3	0.013074803
10	0xbe0a8d06	-0.13530359
11	0x3cc395c8	0.023875132
12	0x3c1bb8eb	0.009504537
13	0xbb12e49e	-0.0022414098
14	0xbcead5da	-0.028666425
15	0x3d9d21ca	0.076724604
16	0x3d885460	0.06656718
17	0x3d2e910b	0.042618793
18	0xbd6cfba1	-0.05785716
19	0x3ce79738	0.028270349
20	0xbdba25de	-0.09089254
21	0x3d749924	0.05971636
22	0xbdc75ab3	-0.097340964
23	0x3dbd6f84	0.092497855
24	0x38eb437b	0.000112182424
25	0x3dac5335	0.08414308
26	0x3da7ba38	0.08189815
27	0xbe0729de	-0.13199565
28	0x3da7bee6	0.08190708
29	0x3cba461e	0.022738513
30	0xbe108461	-0.14112999
31	0xbdeb92ae	-0.11502586
32	0x3dd5fef2	0.104490176
33	0xbda22f85	-0.0791922
34	0x3db60e02	0.088893905
35	0xbccafd9e	-0.024779137
36	0x3dde59bf	0.108569615
37	0xbd4dafc0	-0.050216436
38	0x3c5da14b	0.013527225
39	0x3e02ff31	0.1279266
40	0xbbfc9587	-0.0077082547
41	0x3daeb723	0.08531024
42	0xbd3d9d52	-0.04629261
43	0xbd985416	-0.07437913
44	0x3db4a4c4	0.08820489
45	0x3dd1953a	0.10233541
46	0xbda3218a	-0.079653814
47	0xbd915fd8	-0.07098359
48	0xbc8d9253	-0.017281687
49	0x3db39ae8	0.087697804
50	0x3d79ed0a	0.061017074
51	0x3e050b6f	0.12992643
52	0xbdb7a70a	-0.08967407
53	0xbdc7783f	-0.09739732
54	0x3dc197ea	0.094528034
55	0x3c4fe42a	0.012688676
56	0x3da389c3	0.0798526
57	0x3d9703d9	0.07373781
58	0x3be38af8	0.0069440566
59	0x3d787fa0	0.060668588
60	0xbdcd00b3	-0.10009899
61	0xbdda1cde	-0.10650037
62	0x3d807495	0.06272236
63	0xbd3e8561	-0.04651392
64	0x3ce26ce2	0.02763981
65	0xbe022e35	-0.12712939
66	0xbcf40bb0	-0.02979073
67	0xbd39d716	-0.045371138
68	0x3d1c5707	0.038168933
69	0x3da10d6d	0.07863889
70	0x3cc2b527	0.02376802
71	0xbca3c6b5	-0.019992212
72	0xbcae45c0	-0.021273494
73	0xbd5d5694	-0.054037645
74	0xbdbba800	-0.09162903
75	0xbdb90b2d	-0.09035335
76	0x3d84abdf	0.06478094
77	0x3db49f70	0.08819473
78	0x3aa8ac06	0.001286865
79	0x3e0a9975	0.13535102
80	0xbde7b039	-0.11312909
81	0xbe08601b	-0.13317911
82	0x3e01372a	0.126187
83	0xbd10417f	-0.035218712
84	0xbdb672fb	-0.089086495
85	0xbdb40a22	-0.08790995
86	0xbd7c0090	-0.061523974
87	0x3d90e2fc	0.07074544
88	0x3d9fdedf	0.07806181
89	0x3d2b39ec	0.041803285
90	0x3d04b32c	0.032397434
91	0xbc382c86	-0.011241084
92	0x3d7e8862	0.062141784
93	0x3cd2b373	0.025720334
94	0xbce816ec	-0.028331243
95	0xbbbac585	-0.0056998157
96	0xbd8d21bf	-0.06891202
97	0x3dc447ef	0.09584033
98	0x3d052078	0.032501668
99	0xbb9f1c12	-0.004855641
100	0x3dbcc572	0.09217347
101	0x3d8fb43b	0.07016798
102	0xbde22a5f	-0.11043238
103	0x3bde4e82	0.006784261
104	0x3e076982	0.13223842
105	0x3d050bc4	0.032481924
106	0xbd47105f	-0.048599597
107	0xbd5ee1e4	-0.054414645
108	0xbcd9e2c4	-0.026597388
109	0xbd4266e0	-0.04746139
110	0xbd906c5c	-0.07051918
111	0x3d71c513	0.059025835
112	0xbdcfd349	-0.10147721
113	0x3de44857	0.1114661
114	0x3c92f818	0.017940566
115	0x3c947490	0.018121988
116	0xbe10d346	-0.14143094
117	0x3d5c3534	0.053761676
118	0xbe09334f	-0.13398479
119	0xbcfcf5ed	-0.030878985
120	0x3d34fa01	0.044183735
121	0xbe008bab	-0.12553279
122	0xbd9bfa11	-0.07616056
123	0x3cada387	0.02119614
124	0xbe0e7026	-0.13909969
125	0xbcfa02bf	-0.030518888
126	0xbd6424aa	-0.055699028
127	0xbcf9a9eb	-0.030476531
128	0x3d04ecd0	0.032452404
129	0x3c325c29	0.0108862305
130	0x3d89fcf7	0.06737702
131	0xbc688295	-0.014191289
132	0x3c607d1c	0.013701703
133	0x3ddebb4f	0.1087557
134	0xbe020def	-0.12700628
135	0x3cf9c7ef	0.030490844
136	0x3c724d95	0.014789005
137	0xbc9e08f3	-0.019291377
138	0xbd8bc051	-0.06823791
139	0xbdda6acf	-0.10664903
140	0xbddf6133	-0.10907211
141	0xbce34a32	-0.02774534
142	0x3db0d77f	0.086348526
143	0x3c166fd1	0.009181933
144	0x3d5ccd5e	0.05390679
145	0x3dcbba64	0.099476606
146	0x3d7d6bf3	0.061870527
147	0xbdecbf61	-0.1155994
148	0xbdc8adae	-0.09798752
149	0x3bd39a12	0.0064575756
150	0x3cd84947	0.026402129
151	0x3d4e1b20	0.050318837
152	0x3cd5be7c	0.026091807
153	0xbd9e40c7	-0.07727199
154	0xbcae4379	-0.021272408
155	0x3d53845f	0.05163991
156	0xbe03687f	-0.12832831
157	0x3dd4d978	0.10393041
158	0xbc90b004	-0.017662056
159	0x3dd739d5	0.105090775
160	0x3e08a0be	0.13342568
161	0xbe074614	-0.13210326
162	0x3d6d7b8b	0.057979148
163	0x3a86c0cf	0.001028085
164	0x3d851b30	0.06499326
165	0x3c5074d8	0.01272317
166	0xbd3be3ba	-0.045871474
167	0xbd469a52	-0.048487015
168	0xbd926d68	-0.07149774
169	0x3c30e4b1	0.010796712
170	0xbdad1100	-0.08450508
171	0x3ced2271	0.028947087
172	0x3d684ab5	0.05671187
173	0x3d466ae4	0.048441783
174	0xbddd9bd5	-0.10820738
175	0x3d9e9a47	0.0774427
176	0xbd3b8e62	-0.045790084
177	0x3da63aab	0.08116659
178	0xba293ae6	-0.0006455615
179	0x3d4da38d	0.050204802
180	0x3ca27767	0.019832326
181	0xbd5f06bd	-0.054449786
182	0x3dff0652	0.124523774
183	0xbd8cf323	-0.06882312
184	0x3d36cbb1	0.04462785
185	0x3cc161cd	0.023606205
186	0xbdd32706	-0.103101775
187	0xbd13222c	-0.03592126
188	0xbdb9af90	-0.09066689
189	0xbd249617	-0.0401822
190	0xbd17bb49	-0.037043843
191	0xbde3559f	-0.11100315
192	0x3a224e54	0.00061914814
193	0xbdbf43d5	-0.0933911
194	0x3bd253d0	0.0064186826
195	0xbcaf73ab	-0.02141746
196	0xbd2d7688	-0.04234937
197	0x3da27c12	0.07933821
198	0x3d11ac2c	0.035564587
199	0xbd1d0f87	-0.038344886
200	0xbd835d74	-0.06414309
201	0xbdbaaf54	-0.091154724
202	0xbdfd44a7	-0.1236661
203	0xbd0f012a	-0.03491322
204	0xbd90e71b	-0.0707533
205	0x3d14f0d4	0.036362484
206	0x3cc9bca5	0.024626086
207	0xbdeac86f	-0.11464011
208	0x3d84fde6	0.0649374
209	0x3dab243b	0.0835652
210	0xbcfb800a	-0.030700702
211	0xbc68705d	-0.014186946
212	0xbc5a0cc7	-0.01330871
213	0x3be61493	0.0070214956
214	0x3dfefa30	0.12450063
215	0x3d9eb6ee	0.07749735
216	0x3dd405b8	0.10352653
217	0x3dcdc170	0.10046661
218	0xbe140df1	-0.14458443
219	0xbc8e9b8c	-0.017408155
220	0x3e06f795	0.13180383
221	0x3d8e9b9a	0.069632724
222	0x3dc63e36	0.096798345
223	0x3c24ad49	0.01005108
224	0x3c20f621	0.009824307
225	0x3db8406c	0.089966625
226	0xbd96ba69	-0.07359774
227	0x3dac6813	0.08418288
228	0x3d968a64	0.07350615
229	0x3e0117a0	0.12606668
230	0xbdc19e86	-0.09454064
231	0xbda1f5d2	-0.07908215
232	0xbd7443ce	-0.059634976
233	0x3b097d93	0.002097939
234	0x3bb789c1	0.0056011383
235	0x3bd2bb5f	0.006431028
236	0x3ccb2f09	0.024802702
237	0xbdb6ff4a	-0.08935411
238	0xbd300c2f	-0.04298037
239	0xbd09029d	-0.033449758
240	0x3de522b2	0.11188258
241	0xbc4a7cd8	-0.012358867
242	0xbdc68648	-0.09693581
243	0x3d8e86e0	0.06959319
244	0x3d0ebe56	0.034849487
245	0x3c4cade4	0.012492631
246	0x3dca08b7	0.098649435
247	0x3d6ab7d4	0.05730422
248	0xbce4121c	-0.027840666
249	0x3da80e7e	0.08205889
250	0x3ddc0579	0.10743231
251	0x3da4b42c	0.080421776
252	0x3c7cecd8	0.015437327
253	0x3e0077cc	0.12545699
254	0xbd0a428b	-0.033754867
255	0x3d947f06	0.0725079

lstm.bias_ih_l1 f4 [256]
0	0xbdc323eb	-0.09528335
1	0x3d8bcd13	0.06826224
2	0xbb36aef1	-0.002787527
3	0xbd151da7	-0.03640523
4	0x3d5cd8dc	0.05391775
5	0x3c2d6c78	0.010584943
6	0x3db81a3f	0.08989381
7	0xbdd2184d	-0.10258541
8	0x3d6a0506	0.057133697
9	0xbd392156	-0.045197807
10	0xbd8dd589	-0.06925494
11	0xbdf12fbe	-0.11776684
12	0xbd17b9a5	-0.03704228
13	0x3db26e08	0.08712393
14	0x3d394f09	0.04524139
15	0x3c7fc079	0.015609854
16	0xbd76dfa0	-0.06027186
17	0xba0d85f5	-0.00053986843
18	0x3d4be3bb	0.049777728
19	0xbdaf4c79	-0.08559508
20	0x3dc144d7	0.09436958
21	0xbd4c5d55	-0.049893696
22	0x3dd24721	0.10267473
23	0xbd56d1ae	-0.05244606
24	0x3d96239d	0.073310114
25	0xbdc951d4	-0.098300606
26	0x3cdf5e25	0.027266571
27	0x3d9c9f64	0.07647589
28	0x3ded777c	0.115950555
29	0xbd11c308	-0.035586387
30	0xbdb83ad5	-0.08995596
31	0x3cc05421	0.023477616
32	0x3db8ca68	0.09022981
33	0xbd82a179	-0.06378455
34	0x3e016483	0.12635998
35	0x3d54cd48	0.051953584
36	0x3db43039	0.0879826
37	0xbd177725	-0.03697886
38	0x3d4fbe27	0.050718453
39	0xbd3418b5	-0.043968875
40	0xbcae8b6c	-0.021306716
41	0xbd542508	-0.05179313
42	0x3d5508bd	0.052010287
43	0x3ce573c4	0.028009303
44	0xbdece05d	-0.115662314
45	0xbd195f37	-0.03744432
46	0xbdaa777d	-0.08323572
47	0x3c50d801	0.012746812
48	0x3dc1ffe8	0.09472638
49	0x3e022657	0.12709938
50	0x3dd3a0db	0.10333415
51	0x3d17df71	0.037078325
52	0x3d9bd7ee	0.07609545
53	0x3d68d34a	0.056842126
54	0x3de8cc31	0.113670714
55	0x3da63722	0.081159845
56	0x3ddd98c5	0.10820154
57	0x3cc7f88c	0.024410509
58	0xbd8e27f6	-0.06941216
59	0xb9de3a1d	-0.00042386437
60	0xbcd1ae00	-0.025595665
61	0x3ab5800d	0.0013847366
62	0xbd8f508f	-0.06997787
63	0x3c669d32	0.014075564
64	0x3da1387a	0.078721
65	0xbdc00cf1	-0.093774684
66	0x3d3cd730	0.046103656
67	0xbdc861a9	-0.09784252
68	0x3c8f2ba8	0.017476872
69	0xbcb89699	-0.022532748
70	0x3d95a716	0.0730726
71	0x3d960261	0.073246725
72	0x3c58b683	0.013227108
73	0x3d8250a0	0.06363034
74	0x3c7bc857	0.015367589
75	0x3dc61f04	0.096738845
76	0xbe0c5963	-0.13705973
77	0x3df6c2ef	0.120488994
78	0xbe015488	-0.12629902
79	0xbca96959	-0.020680116
80	0xbc8151d7	-0.015786095
81	0x3de68e9b	0.112576686
82	0xbde67e83	-0.11254599
83	0x3d9e4165	0.07727317
84	0xbd2543a3	-0.040347707
85	0xbdd39cf0	-0.10332668
86	0x3dc6c642	0.097057834
87	0x3b8eb248	0.004354749
88	0x3dc2cd91	0.09511865
89	0xbd14d363	-0.036334407
90	0xbd1bce5b	-0.038038593
91	0xbd9bc6c3	-0.0760627
92	0xbe08a3fd	-0.13343807
93	0x3d8cea97	0.06880682
94	0x3d823267	0.0635727
95	0xbdaf369b	-0.08555337
96	0x3c089bd9	0.008337938
97	0x3c29ac30	0.010355994
98	0xbc9bad54	-0.019003548
99	0xbdef7a71	-0.11693276
100	0x3d3f535f	0.04671037
101	0x3d0bfe49	0.034178052
102	0xbcdeb0f1	-0.027183982
103	0xbd62438b	-0.055240195
104	0xbde608fb	-0.11232182
105	0x3dd65d7b	0.10467049
106	0x3df64b69	0.12026102
107	0xbdd9b9f2	-0.106311694
108	0xbdbdbfc4	-0.09265092
109	0xbd38550f	-0.045002993
110	0x3db1e4b4	0.086862
111	0x3bfc0ae2	0.007691727
112	0x3cce4507	0.0251794
113	0x3dbf3f2a	0.093382195
114	0xbca4aeb7	-0.020102842
115	0xbd9e8f9f	-0.07742237
116	0xbc8d25a7	-0.017229868
117	0x3c6446f0	0.013932928
118	0xbda61c6a	-0.08110888
119	0x3dd6c7f6	0.10487358
120	0x3ded9f39	0.11602635
121	0x3cb3fe22	0.021971766
122	0xbd8052e3	-0.062658094
123	0x3de164e8	0.110055745
124	0xbd9c6653	-0.07636704
125	0x3dd903b5	0.1059641
126	0xbcdf0b9b	-0.027227214
127	0xbcb6156c	-0.022227012
128	0xbdae032a	-0.08496697
129	0xbbe2668b	-0.0069091967
130	0x3dfd063d	0.123547055
131	0xbbf11fa1	-0.007358507
132	0x3d827583	0.0637007
133	0x3d9c8372	0.07642259
134	0xbd316cab	-0.043316524
135	0xbe02521d	-0.12726636
136	0x3cb86a41	0.022511603
137	0xbb310603	-0.002701164
138	0x3c19be6c	0.009383779
139	0xbc80701c	-0.015678458
140	0xbdb924d2	-0.09040226
141	0xbdfeaedd	-0.12435696
142	0xbdc46549	-0.09589631
143	0xba9059ca	-0.0011013087
144	0x3cd2cad3	0.02573148
145	0xbd9f1cff	-0.077692024
146	0x3dfc51de	0.123203024
147	0x3da9678a	0.08271702
148	0xbd9f0af4	-0.07765761
149	0xbd695c20	-0.056972623
150	0xbd525618	-0.051351637
151	0x3daaae11	0.08333982
152	0xbdc609af	-0.09669816
153	0xbcc8f5ea	-0.024531323
154	0x3da6a2fa	0.08136554
155	0x3d0594c6	0.032612585
156	0xbda03279	-0.07822127
157	0xbde64ed4	-0.11245504
158	0x3b548a36	0.0032431013
159	0x3d995b7b	0.07488152
160	0x3d1f1622	0.038839467
161	0x3d843aa0	0.06456494
162	0xbbbd9066	-0.005785036
163	0x3db68ac4	0.08913186
164	0xbdcec9e4	-0.10097101
165	0x3dace699	0.084424205
166	0xbdb324ef	-0.08747279
167	0x3df0518e	0.11734305
168	0x3da0f15b	0.07858535
169	0x3caa81ea	0.020813901
170	0xbc9f866e	-0.01947328
171	0xbd4b56ce	-0.04964333
172	0x3c1bc702	0.009507896
173	0x3ce0b4ee	0.027430024
174	0xbc28981b	-0.010290171
175	0xbce71083	-0.028206116
176	0x3af33c81	0.001855746
177	0x3d5e0d6e	0.054212026
178	0x3ddfe579	0.1093244
179	0xbc201a98	-0.009771965
180	0xbd3d942e	-0.046283893
181	0xbd89e4f0	-0.067331195
182	0xbd5842d1	-0.052798096
183	0x3dc8e655	0.09809557
184	0xbd7b1eac	-0.061308548
185	0xbd05a840	-0.03263116
186	0x3dcb37f9	0.09922785
187	0x3b94cb53	0.0045408397
188	0x3d8443b5	0.064582266
189	0xbdb88191	-0.09009088
190	0x3d56002e	0.052246265
191	0xbdec4d55	-0.115381874
192	0xbaa46f2f	-0.0012545342
193	0xbd96cecf	-0.07363664
194	0xbde54cc6	-0.11196284
195	0xbd82b056	-0.0638129
196	0xbd1676dd	-0.03673445
197	0x3e07b419	0.13252296
198	0xbd4f39a6	-0.050592087
199	0xbcc62e59	-0.024192022
200	0x3ca71de9	0.020400004
201	0xbdb4277b	-0.08796593
202	0x3d11f589	0.03563455
203	0xbd9dbab2	-0.07701625
204	0xbdc47a6e	-0.09593664
205	0x3dc5e113	0.0966207
206	0x3d140e3e	0.036146395
207	0x3d7e830e	0.062136702
208	0xbdca7805	-0.09886173
209	0xbd85193f	-0.06498956
210	0x3d73e423	0.05954374
211	0x3cefafd7	0.029258652
212	0xbc17714c	-0.009243321
213	0xbd6bed4c	-0.05759935
214	0xbd5596a5	-0.05214562
215	0x3dac5fad	0.08416686
216	0xbde642b2	-0.1124319
217	0xbd331cdb	-0.04372869
218	0x3d3edd5b	0.04659782
219	0xbdd51be4	-0.1040571
220	0x3e09d857	0.13461433
221	0x3d571c44	0.05251719
222	0x3d857d11	0.06517995
223	0xbcd75b54	-0.026288666
224	0xbde096e0	-0.10966277
225	0x3d37df45	0.04489066
226	0xbd1baf4c	-0.038008973
227	0x3d4ccd59	0.050000522
228	0x3d49e90b	0.049294513
229	0x3dea51c8	0.1144138
230	0x3c580bf0	0.01318644
231	0x3da03bd0	0.07823908
232	0xbcbc9ad3	-0.023023045
233	0x3db904bd	0.09034107
234	0xbdcda5c3	-0.10041382
235	0xbddf75e2	-0.10911156
236	0xbdb1b07a	-0.08676238
237	0x3dc26de2	0.09493615
238	0x3da731c7	0.08163791
239	0xbc48cde5	-0.01225612
240	0x3d145665	0.036215205
241	0x3de69f28	0.112608254
242	0x3cd61a5f	0.026135622
243	0x3d672d31	0.056439582
244	0xbdb7cda0	-0.08974767
245	0x3d614d85	0.05500557
246	0x3c853d5d	0.016264612
247	0xbdcbff74	-0.09960833
248	0xbcfaa7d5	-0.030597607
249	0xbd8a19a9	-0.067431755
250	0xbd0a0cd2	-0.033703633
251	0xbd6e5de8	-0.058195025
252	0x3d855aad	0.06511436
253	0x3d902d84	0.070399314
254	0xbce8eb4b	-0.028432509
255	0x3dac5bcb	0.084159456
