models/lstm_drag.pth (torch, 332636 bytes, 5 tensors)

lstm.weight_ih_l0 f4 [256, 256]
000000 4f 78 2f bc 6a 21 54 bd 29 cd 72 bd bd c3 e3 bd
       -0.010709836 -0.05178968 -0.059277687 -0.111213185
000010 aa 2b 39 bd 39 f0 03 3d 17 fc a6 3c 2a 74 45 bd
       -0.045207657 0.032211516 0.020383878 -0.048206486
000020 75 c7 43 3d be 2c 6b bc 51 79 e7 bd 21 9a 9d bc
       0.04779764 -0.014353929 -0.11302436 -0.019238533
000030 f0 42 bd 3d e1 e1 c1 bc 76 c6 a6 3d 05 a4 bb 3d
       0.09241283 -0.023667278 0.08143322 0.091621436
000040 80 a3 93 3d 64 f0 6d 3d f6 85 be 3d b5 a5 5f bd
       0.072089195 0.058090582 0.09302895 -0.05460139
000050 5f c9 56 bd fb cd b3 bd 81 a5 54 bd 11 89 05 3d
       -0.052438136 -0.08779522 -0.05191565 0.03260142
000060 b6 29 58 bd d1 f2 c0 bd d9 02 5f bb 88 c2 51 3d
       -0.052774154 -0.094213136 -0.0034028797 0.05121091
000070 b9 5d af 3d 89 03 28 3d 51 f4 28 3c a6 10 ff 3c
       0.08562798 0.041018996 0.010312156 0.031135868
000080 5c e3 cf bd c2 c1 a7 bd 10 41 00 3d e1 d0 92 bd
       -0.10150787 -0.08191253 0.03131205 -0.07168747
000090 ed 7a e0 bd 02 59 a2 3d 0c 6b 63 3d f4 8d 6d 3d
       -0.10960946 0.07927133 0.05552201 0.057996705
0000a0 65 eb ed bd 70 ac 49 bd a5 42 7c 3d ae b8 78 bd
       -0.116171636 -0.049236715 0.061586995 -0.060723
0000b0 b9 e9 d4 3d c3 fa ec 3d d1 0b c2 3c fb 28 b0 bd
       0.103961416 0.115712665 0.023687275 -0.086015664
0000c0 f0 e4 b3 3c ba ee a3 3d 37 75 1d 3d 97 32 3c bd
       0.021959752 0.08004518 0.038441863 -0.045946684
0000d0 52 73 aa 3c 45 42 f2 3b 10 fc 1e 3c 64 9a cf bd
       0.020806942 0.007393154 0.009703651 -0.101368695
0000e0 5c 37 14 3d b9 2d 55 bd 6a 3a 20 3d 2c 9a 52 3a
       0.036185607 -0.052045558 0.039118208 0.00080338377
0000f0 0d 5e 9d 3c bb f7 3b bd 63 a4 5f 3d 39 88 ca 3c
       0.019209886 -0.04589055 0.05460013 0.02472316
000100 75 7f 00 3e d3 10 36 bd 56 41 9a bd e9 fc 78 bd
       0.12548621 -0.04444964 -0.07531993 -0.06078807
000110 b4 6d d0 bb 54 2f 7f 3d cd 67 53 bd 07 62 08 3d
       -0.006360734 0.062300995 -0.051612664 0.03329661
000120 e3 da b8 bc 9a 90 b7 bd e1 cd ba 3c b8 29 3d 3d
       -0.02256531 -0.089631274 0.022803249 0.046182364
000130 9a b2 33 bd 53 b1 e7 3c d5 c0 fa bd 2e e2 5b 3d
       -0.0438715 0.028282797 -0.12243811 0.0536825
000140 48 bf e8 bc 37 96 7e 3d 4a 64 f3 bc c4 98 f4 3d
       -0.028411523 0.062154975 -0.029710907 0.119432
000150 c1 3b 86 3d bc 77 b0 3d a3 ab d1 3d a0 49 a5 ba
       0.06554366 0.086165875 0.10237815 -0.0012610443
000160 83 d9 8a 3d dd 27 1f 3d 60 d2 55 bd 2f ca eb 3b
       0.06779768 0.038856376 -0.052202582 0.007195733
000170 06 ea 79 bd 55 cf a7 3d 1e 39 49 bd 6a 4c 34 3d
       -0.061014198 0.08193842 -0.049126737 0.044018187
000180 98 e4 3e 3d 09 b4 e2 3d fa 29 da bc 3a 99 38 bd
       0.046604723 0.11069495 -0.026631344 -0.045068003
000190 7d 4a 88 3d 73 ce ca 3d 43 02 8b 3b 60 7c e1 3d
       0.066548325 0.09902658 0.004242213 0.11010051
0001a0 90 5c b0 bd 6b 8f 5d 3d cd d9 03 bd 0d f0 10 3d
       -0.08611405 0.054091852 -0.032190133 0.03538518
0001b0 ee 40 bb bd 3e db 83 3c 95 41 f7 3d 39 cb e5 3d
       -0.09143244 0.016095754 0.12073056 0.11220402
0001c0 23 90 1b 3d c3 49 4a 3d 6a 61 d0 bd 54 c4 7b 3c
       0.037979256 0.04938675 -0.1017483 0.0153666325
0001d0 cb 65 db bd f9 5f b8 bd cb f4 1f 3c bf 79 14 bd
       -0.10712775 -0.0900268 0.009762953 -0.03624892
0001e0 d4 8d 80 3d fc 9a 45 3d 42 75 53 bc 94 34 ec 3d
       0.062770516 0.048243508 -0.012906374 0.11533466
0001f0 b2 5b d9 3d 74 fc ae 3d 25 1a 81 bc fb d3 a2 bd
       0.106131926 0.08544245 -0.015759537 -0.07950588
000200 10 6e 6f bd 4c 2d 91 bd 66 d9 d3 bd ff e9 5e bd
       -0.058454573 -0.07088718 -0.103442 -0.054422375
000210 70 d3 4e bd f9 9d fc bd 4f 25 57 bd 05 81 4d bd
       -0.05049461 -0.123348184 -0.052525815 -0.05017187
000220 a8 ce d9 3d 07 ed b0 bd 6f 98 c3 bd 3e f3 d1 bb
       0.1063512 -0.086389594 -0.09550559 -0.0064071706
000230 68 1f 3d 3d a0 11 22 bd b7 47 80 3c de 61 3b bd
       0.04617253 -0.03956759 0.015659196 -0.04574763
000240 f9 4a ad 3c 5c ed af 3d 55 b2 df 3c 1c bd e0 3d
       0.021153914 0.085901946 0.027306715 0.1097357
000250 a7 ab f0 3c 43 71 b8 3c 4b 32 b7 bd 9b 0f 00 3e
       0.029378725 0.022514945 -0.089451395 0.12505953
000260 a5 2d 3f 3d 7e 57 b6 bd 83 38 ed bd 73 d9 d4 bd
       0.04667439 -0.089034066 -0.115830444 -0.10393038
000270 76 b7 c3 3c 1a 54 95 3d af 84 0d 3d f1 61 63 3d
       0.023891192 0.07291432 0.034550365 0.055513326
000280 20 db c5 3d 0f 25 a6 bd 7f 95 c0 bc 1e 79 ac bd
       0.096609354 -0.08112537 -0.023508785 -0.08421539
000290 a3 e3 44 bd 38 9e 55 3c c1 e1 04 bd e6 6b d5 bc
       -0.048068654 0.013038211 -0.03244186 -0.026052427
0002a0 8a 34 22 bd 7c d7 54 3d fb 6c 95 bc 80 01 d9 3d
       -0.039600886 0.051963314 -0.018240442 0.10595989
0002b0 3d 91 fc 3d 81 52 0a 3d e6 7c f0 bd c7 93 d3 bd
       0.123323895 0.033770088 -0.117425725 -0.10330921
0002c0 b8 c9 9b bd dc c7 8b 3c 79 76 a8 3d 94 68 8e bd
       -0.07606834 0.017063074 0.08225722 -0.069535404
0002d0 9e dd 92 bd 9a b1 4b bc 12 9c b1 3d 8b 36 92 bd
       -0.071711764 -0.01243248 0.08672346 -0.071393095
0002e0 99 77 cf bd 9d 62 95 3d 9b 6a 8d 3d d3 45 43 3d
       -0.10130233 0.072941996 0.06905099 0.04767401
0002f0 40 f7 ab bd 54 8b 5a 3d 5c 2b 34 3c 5d b8 4f 3d
       -0.083967686 0.05335553 0.010996666 0.050712932
000300 b4 57 b3 bd a5 83 21 3d 3b e0 d2 3d ba 84 6b bd
       -0.087569624 0.039432187 0.10296675 -0.057499625
000310 44 bb cd bd 32 cd 79 3c 41 e8 dc 3d 49 38 cf 3d
       -0.10045484 0.015246676 0.107864864 0.101181574
000320 69 e8 f0 3d be 84 22 bc 1e a8 da 3d 2b 73 af ba
       0.11763079 -0.0099193435 0.10676597 -0.0013385763
000330 ec 3f b8 3d 1f 04 97 3d c3 9d 87 3d 9c ae 06 3c
       0.08996567 0.07373833 0.066218875 0.008220341
000340 25 38 fa bd 23 26 94 bd 6d f6 fc bd c9 8c f9 3d
       -0.1221774 -0.072338365 -0.123516895 0.12185056
000350 bc 67 63 bd fe 25 86 3d b5 2e 24 bd 22 65 c0 bd
       -0.05551885 0.06550215 -0.040083606 -0.093942896
000360 1a 42 db bd f3 a0 8c bd 2c 62 bc bd e5 35 15 bd
       -0.10705967 -0.06866636 -0.09198412 -0.03642835
000370 84 5c e6 3c 92 1d 27 bd 88 68 bd bd 7d a6 f0 3c
       0.028120287 -0.040799685 -0.092484534 0.029376263
000380 12 7d 66 bd f8 4b 4e bd 94 47 a9 3c 67 fe 36 3d
       -0.05627162 -0.05036542 0.020664014 0.04467621
000390 b9 9f a0 3d 13 fb db bd 12 6d 18 bd 53 da d1 3d
       0.07842965 -0.10741248 -0.037213393 0.1024672
0003a0 45 55 77 3d 01 b8 95 bb 48 a9 85 bd d4 08 a9 3c
       0.060384054 -0.004569054 -0.065264285 0.020634092
0003b0 26 f9 34 3d 55 c4 04 3d fe ae 39 3d 53 4c 11 3d
       0.04418292 0.0324138 0.0453329 0.03547318
0003c0 96 73 75 bd 2f c8 53 3d 45 6a b2 3d 10 6e 76 3d
       -0.059924684 0.05170458 0.087116756 0.060163558
0003d0 5e b0 f2 3d df c7 70 bd 6e 25 e9 3d aa c7 33 bd
       0.118500456 -0.058784362 0.11384092 -0.043891586
0003e0 81 06 ca bd 27 e2 a3 bd 79 ac 13 bd bb db e7 3d
       -0.09864522 -0.080021195 -0.036053155 0.11321207
0003f0 e8 ff 0b 3d 15 f5 e2 bb 72 2e c4 3d 7e a7 5e bd
       0.034179598 -0.0069261887 0.09579171 -0.05435895

lstm.weight_hh_l0 f4 [256, 64]
000000 9f 44 e7 3d 61 98 f2 3d a2 a5 78 3c c5 33 97 bd
       0.11292385 0.1184547 0.015176209 -0.07382921
000010 5d c8 df bd 07 9c f7 3d fe 64 ad 3d 7c d8 8b bc
       -0.10926888 0.12090307 0.08466528 -0.017071001
000020 70 35 55 bd 5d 42 73 bc ac 6d eb 3d d4 14 d8 bd
       -0.052052915 -0.014847365 0.114955276 -0.10550848
000030 3f 36 1c 3c ff be e2 3d e0 41 ae 3d a1 07 b3 bd
       0.009534418 0.11071586 0.085086584 -0.087416895
000040 ed 3a ab bd 82 27 cc bd be 5b 8f 3d a4 6e af bd
       -0.083608486 -0.09968473 0.0699992 -0.08566025
000050 95 d4 28 3c 1c c2 fd bd ae 5e a7 bd 7d 11 95 3d
       0.01030459 -0.12390539 -0.081723556 0.07278726
000060 e6 85 40 bd de 2a 90 3d 05 e5 bc 3d e1 38 dd bd
       -0.047002696 0.07039426 0.092233695 -0.108018644
000070 64 10 16 3d 8a 7e e8 3d c4 62 c6 3d e9 d0 6a bd
       0.036636725 0.113522604 0.09686807 -0.05732814
000080 be 73 1d bd 69 20 cc 3d 1d fa da bd 50 71 bb 3d
       -0.03844046 0.09967119 -0.106922366 0.09152472
000090 8a 7f 97 bc 4f 98 86 3d 1c 77 91 bc 10 e1 45 3d
       -0.018493433 0.06572019 -0.017756991 0.04831034
0000a0 7b 03 96 3d 6d 0d c2 3d 77 88 bb bb c5 90 89 bc
       0.073248826 0.09475217 -0.005723055 -0.016792664
0000b0 00 44 9f 3c eb 66 98 3d 04 c7 cf 3d 27 d0 86 bd
       0.019441605 0.07441505 0.10145381 -0.06582671
0000c0 db ff a3 bd 42 e8 2a bd 02 9a c2 bd fa 38 02 3e
       -0.08007785 -0.041725405 -0.09502031 0.12717047
0000d0 26 da 60 bc ad 0e bc bd 9f 41 8f 3d 35 44 45 3c
       -0.013723886 -0.09182487 0.06994938 0.012040188
0000e0 d5 41 45 bc 9c ff 87 3d 29 eb 76 bd 74 86 bd 3d
       -0.012039621 0.066405505 -0.06028286 0.092541605
0000f0 b4 f2 a3 3d 0e 58 e9 bd 34 35 8b 3d 6b 5b b0 3d
       0.08005276 -0.11393748 0.06797257 0.086111866
000100 86 e1 e3 bd 2f 7e 0d 3d ba 06 2b bc 2f cf f2 3d
       -0.111269996 0.034544166 -0.010438615 0.118559234
000110 91 96 d7 3d ce a2 b2 3d 9b 9d 85 3d ff 9f 6b bd
       0.10526765 0.08722459 0.065242015 -0.05752563
000120 1c 02 19 3c 41 4e fd 3d 5e 49 78 3d 80 df 56 bd
       0.009338882 0.123684414 0.060616843 -0.05245924
000130 f1 7a ce bc 5e ad 68 3d ff 60 12 3d 1d 5d 31 bc
       -0.025205107 0.05680596 0.035737034 -0.010825423
000140 1e d7 c6 3c 7d 12 84 bd a6 39 d0 3d 6f ef 9e bd
       0.024272498 -0.06448839 0.101672456 -0.07760512
000150 df c7 ab bd 10 99 dd 3d bc 52 df bd a4 d9 9e bd
       -0.08387732 0.1082021 -0.10904452 -0.077563554
000160 f3 d5 07 bd a0 8c d2 bd 08 cc 8f bc 1f 21 4c 3d
       -0.033163022 -0.10280728 -0.017553344 0.049836274
000170 54 09 f7 3c e6 63 25 bd 8c b7 75 3d 3f ff 55 3d
       0.030155815 -0.040378474 0.059989497 0.052245375
000180 39 9b c4 bd 6b a8 04 3d d5 0b 9c 3c 98 e4 37 3d
       -0.09599919 0.03238718 0.01904861 0.04489574
000190 a3 ef 8e 3d e1 41 90 bd 51 c5 f8 bc 27 e6 ad 3d
       0.06979301 -0.070438154 -0.030367525 0.08491164
0001a0 6a 4c 91 bc fd 56 0b bb cd 8f b1 3d 38 f0 f8 3d
       -0.017736632 -0.0021261566 0.08670006 0.12155193
0001b0 70 a6 cc bd e3 27 bd bd 26 4d 0a bd d9 6d 08 bd
       -0.09992683 -0.092361234 -0.03376498 -0.033307884
0001c0 c4 bd 8f 3d 38 16 bd bd 5a 1c 9c bd 25 b2 f2 3d
       0.07018617 -0.092327535 -0.07622595 0.118503846
0001d0 5b 56 56 3c 6b d9 ba bc 90 72 cb bd 8d d8 06 bd
       0.013082112 -0.022808751 -0.099339604 -0.032921363
0001e0 8f a7 22 3d 6c 5d ed bb 8e 0f 0c bc 06 cd 8d bd
       0.039710578 -0.007243803 -0.00854863 -0.06923871
0001f0 45 46 ae 3c de 97 e2 3a ae 4d 75 bd 24 bc d9 bd
       0.021273741 0.0017287692 -0.059888534 -0.10631588
000200 4a 3b c8 bd 0e ce c7 3d ca ea d9 bd 1f 6c dd bd
       -0.097769335 0.09756099 -0.106404856 -0.10811638
000210 df c5 0c bd 6a 07 e6 3c dc a6 80 bd 48 12 d5 bd
       -0.034368392 0.028079707 -0.06281826 -0.104038775
000220 98 6d e1 bd 9a 59 48 bd 99 4d 35 bc 12 3f 4a bd
       -0.110072315 -0.048913576 -0.011065864 -0.049376555
000230 3c 3e e2 3d d2 8f d7 bd a1 95 b8 bd 16 de 56 3c
       0.110470265 -0.105254784 -0.090129144 0.013114473
000240 72 92 8e 3d 83 66 95 bd ad 11 e2 bd 48 3d 3e 3d
       0.06961526 -0.07294943 -0.11038528 0.04644516
000250 8b db 44 3c 01 d2 3a 3d 16 17 ea bc 52 fc fc 3d
       0.012015234 0.04561043 -0.028575461 0.12352814
000260 29 f8 b1 3d 9f b5 27 bd e4 7b db 3d dd 8c 58 3d
       0.08689911 -0.04094469 0.1071699 0.052868713
000270 41 a6 dd bd 66 33 d5 bd 2c 5b 2d bd e4 45 9e 3d
       -0.10822726 -0.10410194 -0.042323276 0.07728174
000280 58 75 9d 3d b7 76 85 3c c6 d1 ed 3d 5e f3 b2 3c
       0.07688397 0.01629196 0.11612277 0.021844562
000290 45 87 82 bd db 17 a2 3c bd c6 b9 bd e7 5f 9d 3d
       -0.06373457 0.019786766 -0.090711094 0.076843075
0002a0 f7 fd a4 bd 34 7e 9b 3d 46 90 b4 3c 59 09 ce 3d
       -0.080562524 0.07592431 0.022041451 0.10060377
0002b0 ed 25 11 bd 6e 67 8b bd 84 ac ea 3d 93 07 eb bd
       -0.03543656 -0.06806837 0.11458686 -0.11476054
0002c0 e7 2d 7f 3d 9b 26 9b bd d1 dc b6 3c e8 2a bc bd
       0.062299635 -0.07575723 0.02232209 -0.09187871
0002d0 db c9 a9 3d 66 ba e4 3c 05 c4 b4 3d 66 3f 8d 3c
       0.08290454 0.027920913 0.0882645 0.017242145
0002e0 64 1e cf 3d 1b 75 b6 3d 4e 65 d7 bd 3d c9 da 3d
       0.101132184 0.08909055 -0.10517369 0.106829144
0002f0 48 59 e1 bd 79 d9 af bc 5b fe 3f 3d 68 29 f2 3d
       -0.11003357 -0.021466004 0.04687343 0.11824304
000300 1a 09 25 3d 98 93 c9 bc 19 db fb 3d d6 41 6d 3b
       0.040291883 -0.024606511 0.12297649 0.0036202571
000310 5e 53 be bd a3 1b e0 3c a1 2a 30 3c 40 28 0d bd
       -0.09293245 0.027356928 0.010752351 -0.034462214
000320 bc 66 5e bd 10 21 82 bd 04 18 cf 3d 6f 2d bb 3c
       -0.054297194 -0.063539624 0.101120025 0.022848813
000330 29 2f ec 3b 68 61 c0 bd 00 ee 7c bb 68 20 8f bc
       0.0072077704 -0.09393579 -0.0038594007 -0.017471507
000340 49 e7 a8 3d 78 7f 29 bd 87 33 77 3c b1 61 dd 3d
       0.08247239 -0.04138133 0.015087969 0.10809649
000350 9c 64 a3 3c 66 b5 db 3c 15 2e e8 bd 0e 00 76 3d
       0.019945435 0.026819896 -0.113369144 0.060058646
000360 62 bb 01 bc 07 56 15 3c de 57 02 3e f4 13 81 3d
       -0.007918211 0.009114749 0.12728831 0.06302634
000370 43 2c 59 3d 88 2e a1 bd 37 af 91 bd 34 a0 d1 3c
       0.053020727 -0.07870203 -0.07113498 0.025589086
000380 7f 82 3c 3d 62 ae 26 3d 4c 80 fb 3c 7e 48 38 3d
       0.04602289 0.04069365 0.030700825 0.04499101
000390 9e 61 8b bd 3e bb d4 3b 1b 0d d8 bd 75 ef 2c 3d
       -0.068057284 0.0064920476 -0.10549375 0.04222055
0003a0 cc 99 1a bc 70 e4 a6 3d 55 eb c3 bb c9 21 02 be
       -0.009436082 0.0814904 -0.0059789815 -0.127082
0003b0 cf a1 f2 bb ec 8e f8 3d 2c 1e 78 3d 5c c5 f9 3c
       -0.007404543 0.12136635 0.06057565 0.030489616
0003c0 fa a1 35 3c 97 ef a3 3c a4 cb b6 bb e3 77 da bd
       0.0110859815 0.020011706 -0.005578475 -0.10667398
0003d0 df 75 67 3b bc d4 bc bd 7b c9 b5 3d d5 d5 e3 bc
       0.003531806 -0.09220263 0.0887632 -0.027811924
0003e0 f8 e0 ae bd f8 db 58 3d fd d1 22 3b be 70 92 3d
       -0.08539003 0.052944154 0.00248444 0.0715041
0003f0 42 84 fc 3d 58 51 a2 bd b9 43 ab bd c1 d3 27 bd
       0.12329914 -0.07925671 -0.083625264 -0.04097343

lstm.bias_ih_l0 f4 [256]
000000 e1 2d ca bd 7b 41 34 bd d1 d4 e6 3d 7a f4 c1 bd
       -0.09872032 -0.04400776 0.1127106 -0.09470458
000010 b1 f8 15 bc c1 4a c5 bc f0 b4 fa 3d 18 35 ef bd
       -0.009153531 -0.024083497 0.12241542 -0.11680049
000020 b6 1f ea bd 2c 71 42 3d 4a 7c 26 3d 32 8a 20 bd
       -0.1143183 0.04747121 0.040645875 -0.039194293
000030 46 15 26 b8 90 61 b8 3d 3e 37 ea bd 09 1b a4 bb
       -3.9597297e-05 0.090029836 -0.11436318 -0.0050081057
000040 a8 b2 d7 3d 36 10 23 3d 20 fd f6 bd 99 69 a6 bc
       0.10532123 0.03981038 -0.120599985 -0.020314025
000050 a3 b2 c0 3d e4 b0 80 3d 86 47 d0 bc e8 3b c4 3d
       0.09409072 0.06283739 -0.02542473 0.09581739
000060 be 17 bc bd 48 f6 90 bd 26 d2 b8 3d 01 72 22 bd
       -0.09184216 -0.070782244 0.09024458 -0.039659504
000070 32 e5 6a 3a a7 a1 a9 3d f1 00 a9 bd 75 0d 4a bd
       0.00089605444 0.08282786 -0.08252133 -0.04932924
000080 99 05 a6 3d 7d ad 43 3d 7c 5f a3 bd 89 97 f3 bd
       0.081065364 0.047772873 -0.079771966 -0.118941374
000090 6d b1 b3 3d 3b 22 ea bd 39 82 c3 3c 73 16 e8 3d
       0.08774076 -0.1143231 0.023865806 0.11332407
0000a0 4f ee aa 3d 6b df c8 3c 45 8a d4 bb 84 66 c3 3d
       0.08346235 0.024520596 -0.0064862096 0.09541038
0000b0 7c 12 87 bd fb 8b 7b 3d e5 cc 83 bd f1 15 f7 bd
       -0.065953225 0.061412793 -0.06435565 -0.12064732
0000c0 69 f8 e2 bb 75 26 be 3d 6f 51 c7 3d 8e 38 b0 3d
       -0.0069265855 0.09284679 0.09732329 0.08604537
0000d0 81 07 ab bc bf e5 c7 bd af 24 f0 bd 45 d1 cc 3c
       -0.020877602 -0.097606175 -0.11725747 0.025002131
0000e0 bc 65 d5 bd 5b 18 d6 3d ed 0b a1 bd 9c 27 ae 3c
       -0.10419795 0.10453864 -0.07863603 0.021259122
0000f0 b8 ff 40 bb 9d 13 58 bd 54 13 ff 3d 5d 39 93 3d
       -0.0029449295 -0.05275308 0.124548584 0.071886756
000100 a8 24 87 bd 2d 7d 32 3d bf 94 a2 3c 29 15 9e 3c
       -0.065987885 0.04357641 0.019846318 0.0192972
000110 4f 01 a2 bd d8 f0 de 3c b2 bf 55 bc 5d 61 ff bd
       -0.07910406 0.027214453 -0.013046192 -0.124697424
000120 77 86 8a 3d 81 7e 01 bc d1 5a 97 3d 87 e1 71 bd
       0.067639284 -0.007903696 0.07390369 -0.05905297
000130 15 65 17 3d 1e e1 4c bd f3 64 22 3d 0a c2 a5 3d
       0.036961634 -0.050019376 0.039647054 0.08093651
000140 fa 13 e8 bd f3 a6 87 3d 00 b5 e3 bd d5 81 a0 3d
       -0.11331935 0.0662364 -0.111185074 0.078372635
000150 2e aa 38 3d 1c 86 5c 3d 15 52 86 bd d0 d7 07 3d
       0.04508417 0.053838834 -0.06558625 0.0331648
000160 2b b0 07 be 4f 33 e1 bd 2a f9 67 3d 85 e6 ab 3d
       -0.13250796 -0.109961145 0.056634106 0.083935775
000170 dd 32 96 3d 5e 2e f6 3c 37 94 28 bd 4f 67 47 3c
       0.0733392 0.030051406 -0.041156974 0.012170627
000180 4a ab 04 3e 7e 51 b5 3b 40 6e 97 bd 50 c6 de bd
       0.12955967 0.0055333963 -0.073940754 -0.10877669
000190 5a 69 83 bd db a8 a7 b9 96 e2 9d bd f8 1a df 3d
       -0.064165786 -0.0003197853 -0.077092335 0.10893816
0001a0 9a 76 61 bc c5 99 7d bd b0 88 9e 3d 21 ee 9f bd
       -0.013761187 -0.061914224 0.07740915 -0.07809091
0001b0 3f 6c c9 bd eb b2 25 3c 43 2e 5b bd a1 34 78 3d
       -0.098350994 0.010113458 -0.053510915 0.060597066
0001c0 7c 8a 79 3d 81 a6 a6 bd a7 b7 e1 3c 77 82 eb bd
       0.060923085 -0.08137227 0.027553393 -0.114994936
0001d0 ad 87 10 bd 41 9c c7 ba 7e db 03 bd c6 dd cc 3d
       -0.03528564 -0.0015229062 -0.032191746 0.100032374
0001e0 2f f7 5b bd 5d 9b 20 bd 58 02 0d bb f1 92 1b 3c
       -0.05370253 -0.039210666 -0.002151629 0.009495483
0001f0 d6 19 7b 3d e4 03 2c bd aa d9 3d 3d cd b2 29 3c
       0.061303936 -0.041995898 0.04635016 0.010357571
000200 19 2b f8 bd a2 12 32 bd bf 4a 0e 3d de 81 fd 3d
       -0.12117595 -0.0434748 0.034739252 0.12378286
000210 a1 5f b5 3d 9c 5f 67 3d 93 54 79 3d 48 10 c3 bd
       0.088561304 0.056487665 0.060871672 -0.0952459
000220 62 87 bc 3d 4b 56 b6 3c c4 f7 bf 3d 5e 7c 86 bd
       0.0920551 0.022257945 0.093734294 -0.0656669
000230 0e 3e 2c bb 7b 0f ff bc 16 d5 67 3d d4 59 ad bc
       -0.0026282105 -0.031135311 0.0565997 -0.021160997
000240 f2 56 7b bc 0f 06 6a bd a1 f0 29 3d 59 52 b4 bd
       -0.015340554 -0.057134684 0.041489247 -0.08804769
000250 82 36 b3 3c c0 24 ec bd f4 43 e1 bb 95 d3 96 bd
       0.021876577 -0.11530447 -0.0068745557 -0.07364575
000260 1a e0 de 3d 97 17 10 bd 2e db c6 bb f7 69 7f bd
       0.10882588 -0.035178747 -0.0060686087 -0.062356915
000270 ea c7 3c bd cc 7c eb 3d 73 f8 49 3d 6a 52 1a bd
       -0.04608909 0.114984125 0.049309205 -0.037676252
000280 01 aa 94 3d 12 37 e1 3d 17 58 ff bc ea 71 ae bd
       0.07258988 0.10996832 -0.031169934 -0.08517821
000290 f8 53 b8 bd 82 4a 48 bc 24 52 8a bd a6 ca c5 bd
       -0.09000391 -0.012224795 -0.06753948 -0.09657793
0002a0 8f 12 c5 3d 0c 66 cc bb d9 58 45 3c 77 e1 20 3c
       0.096226804 -0.006237751 0.012045109 0.00981938
0002b0 07 2c b3 bd bd 99 ce bd 54 05 e4 3d 89 56 22 bd
       -0.08748632 -0.10087917 0.11133829 -0.039633308
0002c0 b0 9f b3 bc 0e aa 83 bd 32 aa 6d bc 59 34 b3 3d
       -0.02192673 -0.0642892 -0.01450591 0.08750219
0002d0 cb 60 22 bd 6d 9b b4 3d 71 18 3c bd c8 7a 3a bd
       -0.03964309 0.088187076 -0.045921747 -0.04552725
0002e0 1d 62 13 bb 65 6e f7 3d 6d 7c c8 3d ed 10 e0 3d
       -0.00224889 0.12081603 0.09789357 0.10940728
0002f0 8e 78 c3 bc 89 74 fb 3d ab ee c5 3d 48 8d 8d bc
       -0.023861196 0.12278087 0.09664663 -0.017279282
000300 0b db 52 bd 39 6b cc bd 71 ca c7 3d 9f c0 da 3d
       -0.051478427 -0.099813886 0.097554095 0.10681271
000310 f8 bd c3 3d 16 a6 4e bd d4 3f b5 3c 69 f2 02 be
       0.09557718 -0.05045136 0.022125162 -0.12787785
000320 42 53 5a bd 87 57 f2 3d 64 79 f0 bd 53 3e c8 3d
       -0.053302057 0.11833101 -0.117419034 0.097775124
000330 d8 99 5b bc 0a ba 92 3d ad e2 56 bc 27 9e 16 3d
       -0.013403378 0.071643904 -0.013115567 0.03677192
000340 56 40 f6 3c fd 9a d7 bd 09 67 b3 3d f8 0e 00 3e
       0.030059975 -0.105276085 0.08759887 0.1250571
000350 52 d8 f4 bd f5 16 b9 bd 92 4e b7 bc 54 94 ac bd
       -0.11955322 -0.09037582 -0.022376332 -0.08426729
000360 f1 f7 2e 3d 49 88 1f 3d 2d 83 69 3d a1 fe 82 3d
       0.042716924 0.03894833 0.057009865 0.06396223
000370 4c e3 87 bc e1 24 47 bd 29 e8 7c bd 33 6b db bd
       -0.016587876 -0.048619155 -0.061744843 -0.10713806
000380 b1 ab f4 3d b0 b4 d3 bd 6b 46 ef bd 4a 04 01 be
       0.1194681 -0.10337198 -0.11683353 -0.12599292
000390 23 b6 9d bc 07 7f 02 bd 56 bb b7 bd 1b ea b3 bb
       -0.019251889 -0.031859424 -0.08971278 -0.005490554
0003a0 8e 8d 0c bd e9 d9 7b 3c 72 41 7d 3c a6 8b 8d bd
       -0.034314685 0.015371778 0.015457498 -0.069114015
0003b0 f9 61 6b bd cf c2 49 3d d6 c7 6e bd e9 0d 95 bd
       -0.05746648 0.04925805 -0.058296047 -0.07278044
0003c0 b1 52 c3 bc a1 d0 4a 3d c4 c8 69 3d 80 a6 6a bb
       -0.023843141 0.04951537 0.05707623 -0.0035804808
0003d0 fd 09 01 bc 3c cd 2c 3d 22 78 ca bc 65 5c f2 3d
       -0.007875917 0.042187914 -0.024715487 0.11834029
0003e0 e4 fc 7d ba ad f2 d5 3d a7 55 3e 3d 04 b6 15 3c
       -0.0009688868 0.10446677 0.046468403 0.009137634
0003f0 7f a1 d6 bb 6c 3d ee 3d 75 ae 55 3d 02 0f f5 bc
       -0.0065500136 0.11632809 0.05216833 -0.029914383

lstm.bias_hh_l0 f4 [256]
000000 99 89 e1 3d 68 69 bb bd 86 4f 2a 3d 6c 3c c7 3d
       0.11012573 -0.09150964 0.041579746 0.097283214
000010 58 82 6b 3d b7 44 01 be 7c 4f 84 bd 7e 2a 35 bd
       0.057497352 -0.12623869 -0.06460473 -0.044229977
000020 a0 67 ef 3d d8 c4 e2 bd 5e a7 eb 3d 3a 2e 66 3d
       0.11689687 -0.11072701 0.11506532 0.05619643
000030 da b0 d3 3d 60 9e 0b bb 8c 13 89 3d 8e de 99 3c
       0.10336466 -0.0021304116 0.066931814 0.01878288
000040 f8 29 c8 3d 2c e2 42 bc 47 1d e8 3b a9 cb 8b 3d
       0.0977363 -0.011894744 0.0070835683 0.068259545
000050 61 26 91 bd a4 2f e6 3c 34 36 4b bb cc 76 db bd
       -0.07087398 0.028098889 -0.003100765 -0.10716018
000060 8d 4d fc bb 24 3e ea 3d ca b6 16 3d 78 7d c3 3c
       -0.0076996745 0.11437634 0.036795415 0.02386354
000070 b9 9e fe bc 71 e2 a2 3d 81 b9 d6 bd 09 32 b0 3d
       -0.031081544 0.079533465 -0.10484601 0.086032934
000080 65 c8 7f 3d 98 cd dd bb 3d 1b 9c bb 0d 37 c6 3d
       0.06244697 -0.0067688935 -0.0047639892 0.09678469
000090 9e 2e 1b 3d 01 1a 92 bd 3f 3d c8 bd f9 4e af 3c
       0.037886254 -0.07133866 -0.09777307 0.021399962
0000a0 3d 00 aa bc b0 e8 2d bd 73 60 f0 3d c4 c9 e0 bd
       -0.020752067 -0.042458236 0.11737146 -0.10975984
0000b0 73 41 5a bd 02 8c 01 3e 23 89 9d bd 91 8a cd bd
       -0.053285073 0.12651065 -0.076921724 -0.10036195
0000c0 ff ea 83 bd 1b d0 87 3d 83 fc 96 bd 82 d3 b0 3d
       -0.06441306 0.0663149 -0.073723815 0.08634092
0000d0 ec 24 c3 bd 43 39 c0 bc 61 dc 97 3d 84 79 57 3c
       -0.09528527 -0.023464805 0.07415081 0.01315153
0000e0 de 44 f3 3d 91 44 da bd fb bd 87 bd 58 5e 0c 3c
       0.1187837 -0.10657609 -0.06628033 0.008567415
0000f0 d0 9b 0c bc 86 ff a1 bd 3c b5 ef 3d 4b 68 02 be
       -0.0085820705 -0.07910065 0.117044896 -0.12735097
000100 09 f0 f0 bc 23 dc ca bd 8e a8 b3 bd a3 3f 20 bd
       -0.029411333 -0.09905269 -0.08772384 -0.03912319
000110 bb 06 04 bd 0e 5e a2 bd 24 e5 34 3d f2 fe fe bc
       -0.03223298 -0.07928096 0.044163838 -0.031127427
000120 fd 0f e0 bd 69 6a 01 3d 69 1f 82 bd 82 21 ea bd
       -0.109405495 0.03159562 -0.06353647 -0.11432172
000130 6f 94 e0 3d a1 2f bc bd dd e1 2d bd c0 1c 78 3d
       0.109658115 -0.09188772 -0.042451728 0.060574293
000140 aa b1 20 3d 6f 72 bb bd 84 eb dd 3d 93 25 ef 3d
       0.039231934 -0.09152686 0.10835937 0.116770886
000150 92 8e 03 be 95 aa c4 bd a1 09 0d 3d fe d8 00 bd
       -0.12847355 -0.096028484 0.03443301 -0.03145694
000160 1b df 00 bd 4c 1c 5f 3d 77 d5 b8 bc 51 be fb 3d
       -0.03146277 0.054470345 -0.022562725 0.12292159
000170 d4 91 05 3b f1 2d aa 3d 2d ce e2 bd af 02 78 3c
       0.002038111 0.08309544 -0.11074481 0.015137359
000180 85 bc 90 bd 9a 78 96 bd 6c e1 6b 3b c0 5e 78 3d
       -0.07067207 -0.07347222 0.0035992516 0.060637236
000190 dc c2 ce bd 00 e8 f1 3d 39 b1 16 3c 66 cb 53 bb
       -0.1009576 0.118118286 0.009197527 -0.003231728
0001a0 74 04 b8 3d fb 78 b6 bd 25 b7 0c bd cc 19 52 bd
       0.08985224 -0.08909794 -0.034354348 -0.051294133
0001b0 1b 61 30 bb 8c f4 ef bd 4d 86 fe bc 90 28 a5 bd
       -0.0026913348 -0.117165655 -0.031069899 -0.08064377
0001c0 d9 7c 3f 3d 07 1a 5f 3d 8f e9 4b 3d ad f7 e9 bd
       0.046749923 0.05446818 0.049783286 -0.114241935
0001d0 61 70 ec 3c ec a1 dc bd 45 e6 e8 bc 94 a2 da 3d
       0.02886218 -0.10773072 -0.028430114 0.106755406
0001e0 17 95 b9 3d ed 2f de bc 7c fe ff 3d 74 88 0b 3d
       0.0906164 -0.027122462 0.12499711 0.03406568
0001f0 b2 26 f0 3a e5 02 56 bc 9a b0 46 3d ee ae b0 bd
       0.0018322079 -0.013062214 0.048508264 -0.08627115
000200 21 cb 0a bd 2e 43 96 3d f4 b5 5b bc 40 c4 b2 3d
       -0.033885125 0.07337032 -0.01341008 0.08728838
000210 50 98 01 3e 40 30 15 bd 70 da 96 bd 08 b8 af bd
       0.12655759 -0.036422968 -0.073658824 -0.08580023
000220 1f 81 7b 3d a2 71 17 3d ad a2 b7 3c 5e c0 b3 bc
       0.061402436 0.036973603 0.022416437 -0.021942314
000230 73 c5 5d 3d 53 9d 66 bc f8 10 b7 3d f7 fd d7 bd
       0.05414338 -0.014075595 0.089387834 -0.10546487
000240 77 72 e1 bc 49 18 3e 3d ac e9 c5 bc 97 a3 a1 3c
       -0.027520401 0.04640988 -0.024159275 0.019731326
000250 16 e1 fe bd f7 c8 7f 3d 21 98 82 bd 49 fd 0d bd
       -0.124452755 0.062447514 -0.063766725 -0.03466538
000260 a8 25 6c bd a5 8f bb bd 22 e4 40 bd d2 38 cb bd
       -0.0576531 -0.091582574 -0.047092564 -0.09922947
000270 86 9d 07 3d 95 00 e7 3c 83 81 c2 3d 4e b9 66 3d
       0.03310921 0.02819852 0.09497359 0.056329064
000280 55 69 00 bb 81 bb 15 bd ca cc bb bd d4 42 d5 bd
       -0.0019594033 -0.03655577 -0.0916992 -0.10413137
000290 4a 68 a1 bb f8 76 0b 3d c3 f1 76 bd e9 cc 86 bd
       -0.0049257623 0.034049004 -0.060289156 -0.06582052
0002a0 8a 18 99 bc b5 ba d6 bc fd 9c 8b bd 29 11 d5 bd
       -0.018688459 -0.026212076 -0.068170525 -0.10403664
0002b0 51 13 f4 3d 20 ac 4c 3d 0e d0 70 3d a9 79 f3 bd
       0.11917747 0.04996884 0.058792166 -0.11888439
0002c0 cb a4 99 bb 69 99 14 3c c5 6d b4 bd 59 25 bc bd
       -0.0046888343 0.009069779 -0.088099994 -0.09186811
0002d0 29 04 8d bd 24 aa 3a bd 58 3c 94 bc c4 f9 88 3d
       -0.06885559 -0.045572415 -0.01809518 0.06688264
0002e0 1d 5e d3 bd 14 75 48 3d bb 38 dd 3d 6c 45 02 be
       -0.10320685 0.04893978 0.10801836 -0.12721795
0002f0 a2 5e 33 bc 53 65 bb 3d 4b b9 f2 3c 54 88 02 bd
       -0.010947855 0.091501854 0.02962937 -0.031868294
000300 9f e3 e9 bd 33 62 dd 3d f7 b5 87 bd 53 40 79 bc
       -0.114203684 0.10809746 -0.06626504 -0.01521309
000310 b3 59 d8 bc 9f 92 d9 3d 3e 61 0b bd 0f 47 59 bd
       -0.02640996 0.10623669 -0.034028284 -0.053046282
000320 7e c7 ab bd 1f 00 b9 3c 9e 0d 8c 3d 1d e0 cc bd
       -0.083876595 0.022583066 0.06838535 -0.10003684
000330 c6 94 43 bd e0 21 9a 3d 3e 86 a1 bd b8 1d b6 bd
       -0.047749303 0.075259924 -0.07886933 -0.08892387
000340 aa be 32 bc f1 18 1a 3c 7f 4f d5 3d bf 68 a7 3d
       -0.010909716 0.009405361 0.10415553 0.081742756
000350 30 82 02 be d5 6f b8 bc 77 e0 cc 3d 7a 3a 81 bc
       -0.12744975 -0.022514263 0.10003751 -0.015774954
000360 5e e9 ae bc a3 a3 b6 3d df f7 9a 3d 82 a4 0d 3d
       -0.021351513 0.0891793 0.07566809 0.034580715
000370 1e 9a 5e 3d 01 a1 8f 3c 39 44 bb 3d 5f cb 8f bd
       0.054346196 0.017532827 0.09143872 -0.07021212
000380 ef f0 69 3d 86 18 dc bd cb 29 9a 3d 78 b7 ce 3d
       0.057114538 -0.10746865 0.075275026 0.10093588
000390 bf 8f dd bd 9c dd e9 bd c6 e3 b9 bd 09 8f f7 3c
       -0.10818433 -0.11419222 -0.090766475 0.030219572
0003a0 5a c3 16 3d 93 77 b4 bc 2d 49 92 3d 3c 4f 94 3d
       0.036807396 -0.022029674 0.071428634 0.07241675
0003b0 a0 6b 8a 3d 3f 16 9d 3c 7f d8 de 3d ed 2c 01 be
       0.06758809 0.019175647 0.10881137 -0.12614794
0003c0 d1 08 dd bc 47 73 35 bd 40 8e 57 bd d0 fa ca 3c
       -0.026981743 -0.04429939 -0.052625895 0.0247778
0003d0 da 63 85 3d 2c 7b fc 3c fd 6d 5d 3d 63 dc 93 bd
       0.06513186 0.030820452 0.05405997 -0.0721977
0003e0 21 8c 00 3e e7 35 75 3c 2e 18 82 3c 56 36 38 3d
       0.12553455 0.014966465 0.01588067 0.044973694
0003f0 ff d6 9f 3d 8e 13 ad 3a d2 bd ba 3d 68 d2 eb bd
       0.07804679 0.001320468 0.091182366 -0.11514741

fc.weight f4 [1, 64]
000000 2d bd d8 3c 60 07 f1 3c 6b c6 aa bd 06 a0 dc 3d
       0.026457394 0.029422462 -0.083386265 0.107727095
000010 dd 46 11 bd b8 5f 3f 3d ce 1f 4d bd 23 e1 7d 3b
       -0.03546797 0.046722144 -0.05007916 0.0038738928
000020 29 34 5b 3c 99 bc 2d 3c e9 a6 05 3c 48 70 46 bd
       0.013379135 0.010604047 0.00815747 -0.048446923
000030 ba 62 17 3d 52 39 31 bd 8b 01 78 bd 98 b6 cb bd
       0.036959387 -0.043267556 -0.060548346 -0.09946936
000040 29 3c 9e 3d 66 59 a1 3d f9 ee f1 bd a0 ba 49 bd
       0.077263184 0.078783795 -0.118131585 -0.049250245
000050 b0 a7 9c 3d 90 91 eb 3d 85 05 8b bd 45 a3 77 3d
       0.07649171 0.11502373 -0.06788162 0.06045844
000060 ce 5e b6 3d 88 c7 b7 bd 24 ed fd 3d bf 8d c0 bd
       0.08904801 -0.089736044 0.123987466 -0.09402036
000070 b6 e8 86 3d 44 d9 89 bd 7f 13 00 be 2a 39 d4 3b
       0.06587355 -0.06730893 -0.12507437 0.006476541
000080 91 3c 00 bd f3 5b 61 3d 51 4b ab 3d f0 71 00 3c
       -0.03130776 0.05501933 0.08363975 0.007839665
000090 d4 8a bd bd e1 56 b2 3d 45 e6 ae 3b d1 a5 05 3d
       -0.09254995 0.08707977 0.005337509 0.032628838
0000a0 29 69 6e bd a7 51 e1 3c b1 39 ad 3d c4 cd f9 3d
       -0.058205757 0.027504755 0.084582694 0.1219745
0000b0 06 7a bf bc 37 fe 8a 3d 97 df 9b bd ea cc 8e bd
       -0.023373615 0.06786769 -0.07611006 -0.06972678
0000c0 10 df 9e 3c e2 b4 67 3d 39 f6 3f 3c c5 41 ca 3d
       0.019393474 0.056568988 0.011716419 0.09875826
0000d0 be 6b 42 3d 5a 76 59 bd f3 d9 30 bd 1c f2 cb bd
       0.047466032 -0.053091384 -0.043176603 -0.09958288
0000e0 f9 fd bd 3d f6 4c 28 bc 1a 51 a1 bd c0 c9 01 3c
       0.09276957 -0.010272255 -0.07876797 0.007921636
0000f0 81 a2 b8 3d e3 45 90 bc b8 e8 26 bc c7 cd 23 3d
       0.0901537 -0.01761145 -0.01018732 0.039991166
