models/lstm_drag.pth (torch, 52892 bytes, 5 tensors)

lstm.weight_ih_l0 f4 [128, 64]
0	0xbd3abbc5	-0.045589227
1	0xbdb48541	-0.08814479
2	0xbda28a57	-0.079365425
3	0x3e1465d7	0.14491974
4	0x3e2a8d48	0.16655457
5	0xbd32a6c5	-0.043616075
6	0x3dc8deb2	0.09808101
7	0x3e217830	0.15768504
8	0xbdef7542	-0.11692287
9	0xbda55986	-0.08073716
10	0x3db97cc5	0.09057001
11	0xbdf1e1a5	-0.118106164
12	0x3e155b33	0.14585571
13	0xbdf04b77	-0.11733144
14	0xbd8cde68	-0.06878358
15	0xbcf4d096	-0.029884618
16	0x3d1726fc	0.036902413
17	0xbdbb2b0b	-0.09139069
18	0x3defed6d	0.11715207
19	0xbd4a0550	-0.049321473
20	0xbd23433b	-0.039859038
21	0xbd438b49	-0.047740255
22	0x3d75092d	0.059823204
23	0x3e0ab1dd	0.13544412
24	0xbde74788	-0.112929404
25	0xbdbc589d	-0.09196589
26	0x3dcbfb34	0.099600226
27	0x3dfeaaf0	0.124349475
28	0x3d8a8311	0.0676328
29	0x3def1bef	0.1167525
30	0xbdcdaab0	-0.10042322
31	0x3e04a929	0.12955154
32	0x3e19c70c	0.15017337
33	0x3e3abddd	0.1823649
34	0x3d3fec6b	0.046856325
35	0x3e02890e	0.12747595
36	0xbd76282a	-0.060096897
37	0xbd386f67	-0.045028117
38	0x3d08d8c4	0.03340985
39	0xbdea4162	-0.11438252
40	0x3db63b09	0.08897979
41	0xbda43168	-0.08017236
42	0xbcba9864	-0.022777744
43	0xbe0c70d5	-0.13714917
44	0xbd890733	-0.06690826
45	0xbde06c60	-0.10958171
46	0xbe1b0b03	-0.1514092
47	0x3da6a585	0.08137039
48	0x3c615c1b	0.01375487
49	0xbdbb59d5	-0.091479935
50	0x3daef39a	0.08542557
51	0x3db38b69	0.08766825
52	0xbdd55c3e	-0.104179844
53	0x3e070a8f	0.13187622
54	0xbe348636	-0.17629322
55	0xbce2d87a	-0.027691115
56	0x3dd540db	0.10412761
57	0xbd6b2264	-0.057405844
58	0xbcaa8f6c	-0.020820342
59	0x3da65895	0.081223644
60	0x3dc7f517	0.09763544
61	0x3dafdda4	0.085871965
62	0xbd2f1c42	-0.042751558
63	0x3e0f9099	0.14020003
64	0x3e2bdfa6	0.16784534
65	0xbe00c8e1	-0.12576629
66	0x3dd9bf35	0.10632173
67	0x3e2c6e13	0.16838865
68	0xbcb690de	-0.022285875
69	0xbd478242	-0.048708208
70	0x3e08f570	0.13374877
71	0x3e0df57b	0.13863175
72	0xbd95c8b1	-0.073136695
73	0xbd857b0a	-0.065176085
74	0xbe33a028	-0.17541564
75	0x3cf4accd	0.029867554
76	0x3dec7849	0.1154638
77	0xbdd3dc72	-0.10344781
78	0x3d872fdc	0.06600925
79	0xbca0a153	-0.019608175
80	0xbdb35320	-0.08756089
81	0x3d8b7547	0.06809478
82	0xbde50683	-0.11182883
83	0x3bcbb874	0.006217057
84	0xbe120e4c	-0.14263266
85	0xbe23801d	-0.1596684
86	0xbb9f9f0b	-0.0048712543
87	0xbdd2de5e	-0.102963194
88	0xbe3890b7	-0.18023954
89	0xbe226233	-0.15857773
90	0x3db5aba9	0.08870632
91	0xbd1f43f4	-0.038883165
92	0xbc0b0847	-0.00848586
93	0x3d70168b	0.05861525
94	0xbe1c1716	-0.15243182
95	0xbe14216f	-0.14465879
96	0x3d84db5d	0.06487153
97	0xbe0ff18e	-0.1405699
98	0x3dae04a0	0.08496976
99	0x3e19ced4	0.15020305
100	0x3d7632cd	0.06010704
101	0xbdbdac29	-0.092613526
102	0x3d70d814	0.05879982
103	0xbd12b29c	-0.035814866
104	0x3e2ec09a	0.17065659
105	0xbe029f9d	-0.127562
106	0xbe35cc26	-0.17753658
107	0xbdeccf45	-0.11562971
108	0xbd917cb8	-0.07103866
109	0x3e16012a	0.14648882
110	0x3da9b330	0.082861304
111	0x3dcafb3e	0.09911202
112	0xbe1eb578	-0.15498912
113	0x3e1e1fa2	0.15441754
114	0xbd57ec20	-0.05271542
115	0x3e19bf23	0.15014319
116	0xbde1f038	-0.11032146
117	0xbde75e89	-0.11297328
118	0xbd98bbc7	-0.07457691
119	0x3badabdc	0.0053000282
120	0x37ad8dbe	2.0689211e-05
121	0xbdc0a737	-0.09406894
122	0xbde35243	-0.110996746
123	0x3e2450ae	0.16046402
124	0xbd621fdd	-0.05520617
125	0x3e453e08	0.19261944
126	0x3dff9cb0	0.12481058
127	0x3ddc19aa	0.107470825
128	0xbe0a1550	-0.13484693
129	0x3d9cc9b5	0.0765566
130	0x3c3e23f4	0.011605252
131	0xbd614c1e	-0.05500423
132	0x3e11b57d	0.14229389
133	0x3e1f5709	0.15560545
134	0xbd28bfb1	-0.041198436
135	0xbe45e83f	-0.19326876
136	0xbdf8d4ef	-0.12149989
137	0x3d188ba7	0.037242558
138	0x3e166a75	0.14689048
139	0xbe263613	-0.16231565
140	0x3dacf5dd	0.08445332
141	0xbd1fdcd6	-0.039028965
142	0xbe2a8e6e	-0.16655895
143	0xbe0397bb	-0.1285085
144	0x3d875c99	0.066094585
145	0x3c8dec9a	0.017324734
146	0xbba7dfc0	-0.0051231086
147	0x3e28a2d4	0.16468364
148	0x3e294c62	0.16533044
149	0x3e104fbd	0.14092918
150	0x3dd66543	0.10468533
151	0xbdae69b1	-0.08516253
152	0x3db9b73e	0.09068154
153	0xbe287df1	-0.16454293
154	0xbe09efb8	-0.13470352
155	0xbc4460f3	-0.011986005
156	0xbdae86c4	-0.08521798
157	0xbdcd0920	-0.10011506
158	0xbe4b60bf	-0.19861124
159	0xbe29beb8	-0.1657666
160	0x3d84abde	0.064780936
161	0xbd4563ea	-0.04819099
162	0xbdb027d1	-0.086013444
163	0xbde5b5cb	-0.11216315
164	0xbe186ee7	-0.14886056
165	0x3d2b3b48	0.041804582
166	0x3d1c2663	0.038122546
167	0x3e2cd98f	0.16879867
168	0xbce1f562	-0.027582828
169	0x3b26dcf0	0.002546128
170	0x3d801a13	0.06254973
171	0x3de4ce54	0.111721665
172	0x3e404550	0.1877644
173	0x3e17d58e	0.14827558
174	0xbe22c1b7	-0.15894209
175	0x3d82055b	0.06348678
176	0x3d9ce0b0	0.07660043
177	0xbe2f9098	-0.17145002
178	0xbdc197b5	-0.09452764
179	0xbda180ed	-0.07885919
180	0xbd87a023	-0.066223405
181	0x3d7dd205	0.06196787
182	0xbe4b947f	-0.19880866
183	0xbdceddff	-0.10100936
184	0x3e2de503	0.16981892
185	0xbdd20043	-0.10253956
186	0x3e2a70c7	0.16644584
187	0x3e12a182	0.14319423
188	0x3e105b23	0.14097266
189	0xbe2b4db8	-0.16728866
190	0x3db4aebb	0.0882239
191	0xbe08ab77	-0.13346659
192	0x3b808b70	0.0039228722
193	0xbdce63d2	-0.10077633
194	0xbe064fe4	-0.13116413
195	0x3e3ebee2	0.18627504
196	0xbd9bb125	-0.07602147
197	0x3da0601c	0.078308314
198	0x3de11200	0.10989761
199	0x3deef647	0.116680674
200	0x3d6189a0	0.05506289
201	0x3e255499	0.16145553
202	0x3decee06	0.11568837
203	0x3dfa4032	0.122192755
204	0x3d398a36	0.045297824
205	0xbc6c4d12	-0.014422672
206	0x3d713eb5	0.058897693
207	0xbe148b13	-0.14506178
208	0x3d4cde75	0.05001684
209	0xbd1e4672	-0.0386414
210	0x3d9292f6	0.07156937
211	0x3d873a9f	0.06602978
212	0xbc9cebe1	-0.019155445
213	0xbd0c7d38	-0.034299105
214	0x3e085754	0.13314563
215	0x3c68afaf	0.0142020425
216	0xbddb83a9	-0.107184716
217	0x3e11581b	0.14193766
218	0xbcf32514	-0.029680766
219	0x3e3a49e1	0.18192245
220	0x3e29e134	0.16589814
221	0xbd25b620	-0.04045689
222	0x3e1ec801	0.15505983
223	0xbd9c673a	-0.076368764
224	0xbc6d1b3f	-0.014471828
225	0xbdd2c9e2	-0.10292412
226	0xbd8edf7b	-0.06976219
227	0x3df94152	0.12170662
228	0xbd207660	-0.03917539
229	0x3cb3c3e7	0.021944
230	0x3dbc262e	0.0918697
231	0xbe0e4beb	-0.13896148
232	0x3d7dcadd	0.061961044
233	0xbe0c3c54	-0.13694888
234	0x3cdf30f8	0.02724503
235	0x3e0d83b9	0.1381978
236	0x3cac87c0	0.021060824
237	0x3bbe7797	0.005812596
238	0xbdbccf17	-0.09219187
239	0x3ddafbab	0.10692533
240	0xbe2a678b	-0.16641061
241	0x3d1a82bf	0.037722345
242	0x3d73c687	0.059515502
243	0x3e1a938c	0.15095347
244	0x3dd4982a	0.103805855
245	0x3d169528	0.03676334
246	0x3dd6e8cf	0.104936235
247	0x3d6921a8	0.056916863
248	0xbe08596a	-0.13315359
249	0xbdf92506	-0.12165265
250	0x3def1f3d	0.1167588
251	0x3d800a02	0.06251909
252	0x3e07e4c3	0.1327086
253	0x3d71b143	0.05900694
254	0x3d91e3a4	0.07123497
255	0xbd918e1e	-0.07107185

lstm.weight_hh_l0 f4 [128, 32]
0	0x3dc533fd	0.096290566
1	0x3d909eab	0.070615135
2	0xbe0333a7	-0.12812673
3	0xbdbe07c5	-0.09278826
4	0xbe00a168	-0.12561572
5	0x3e243471	0.1603563
6	0xbc904c1c	-0.017614417
7	0xbdb6722b	-0.089084946
8	0x3e26e0af	0.16296647
9	0xbd9b4ebf	-0.07583379
10	0x3d8cf023	0.0688174
11	0xbdb778de	-0.089586005
12	0x3c827e46	0.015929352
13	0xbc6c986c	-0.014440637
14	0x3e08fddd	0.13378091
15	0xbd6739b9	-0.056451533
16	0xbd2f7d76	-0.04284426
17	0x3dc1c5bf	0.09461545
18	0x3da2fa84	0.07957938
19	0xbe1e2106	-0.15442285
20	0xbdcb3278	-0.099217355
21	0xbe33a63d	-0.17543884
22	0x3d113e23	0.03545965
23	0xbda901dc	-0.08252308
24	0x3d0af2d6	0.033922993
25	0x3dbaf162	0.09128071
26	0xbd0686bf	-0.032843348
27	0xbd7dc78f	-0.061957892
28	0xbc1e0a4d	-0.009646011
29	0xbc6f12a5	-0.014591848
30	0xbdb7702c	-0.08956942
31	0xbe254b1a	-0.1614193
32	0xbcdab3c1	-0.026697041
33	0xbd5390ac	-0.05165164
34	0xbe3ff614	-0.18746215
35	0xbd3d511b	-0.046219926
36	0xbddf9a56	-0.10918109
37	0xbe1888a4	-0.14895874
38	0x3d7e6d16	0.06211575
39	0xbdd3b7e2	-0.10337807
40	0xbe313f42	-0.17309287
41	0xbd8a377d	-0.06748865
42	0x3e1a9697	0.15096508
43	0x3e298ce5	0.16557653
44	0xbd8006c0	-0.062512875
45	0xbdf937b3	-0.12168827
46	0x3e3a4d98	0.18193662
47	0x3da06a5c	0.078327864
48	0xbd8e66ec	-0.069532245
49	0xbe05f3ac	-0.13081235
50	0x3e37496c	0.17899102
51	0xbc5b872d	-0.013398928
52	0xbace0edc	-0.0015720981
53	0xbdf8f545	-0.121561565
54	0xbcb1d178	-0.021706328
55	0xbdff06a0	-0.124524355
56	0x3e211bf2	0.15733317
57	0x3e198bf9	0.14994802
58	0xbd8bde9d	-0.068295695
59	0xbdb7e9ec	-0.08980164
60	0x3e038ef3	0.128475
61	0x3e14a452	0.14515808
62	0xbd12fdda	-0.035886623
63	0x3e149234	0.14508897
64	0xbc30b6a8	-0.010785736
65	0xbdc4caa4	-0.09608963
66	0x3cc39432	0.023874376
67	0x3e12539e	0.1428971
68	0xbcb2cbf7	-0.021825774
69	0x3d4ae199	0.049531553
70	0x3cea5de1	0.028609218
71	0xbdfe0a62	-0.12404324
72	0x3e08a8f0	0.13345695
73	0xbd66d1e9	-0.05635253
74	0xbd62a123	-0.055329453
75	0xbc917b7f	-0.017759083
76	0xbe1a1cba	-0.15050021
77	0xbdf3c3ca	-0.11902578
78	0xbd7a7273	-0.061144304
79	0x3db57ad8	0.08861321
80	0x3d7a9325	0.061175484
81	0xbdcf100e	-0.10110484
82	0xbca2b0ae	-0.019859638
83	0x3dc92285	0.09821037
84	0x3d2df5b7	0.04247066
85	0x3e0b5364	0.1360603
86	0xbe064d91	-0.13115527
87	0xbd5e40b3	-0.05426092
88	0xbda72bab	-0.08162626
89	0xbe1154f9	-0.14192571
90	0x3ce4a2fc	0.027909748
91	0x3dc6458f	0.09681236
92	0x3defb175	0.11703769
93	0xbdb447c6	-0.08802752
94	0xbe1a4c0e	-0.15068075
95	0x3df887b0	0.12135255
96	0x3e09f951	0.13474013
97	0xbe2d69c5	-0.16934879
98	0x3e230a7b	0.15921967
99	0xbd02a493	-0.03189523
100	0xbda4b47c	-0.08042237
101	0x3dfc7840	0.12327623
102	0xbe044da7	-0.12920247
103	0x3d3fd307	0.04683211
104	0x3cd425d4	0.025896944
105	0xbbdb1f7b	-0.0066871024
106	0x3da36fe6	0.07980327
107	0xbc04ec98	-0.008113049
108	0xbe062422	-0.13099721
109	0x3e0b9e4a	0.13634601
110	0x3e0bcb4c	0.1365177
111	0xbcdb9179	-0.026802765
112	0x3e38eb34	0.18058473
113	0x3d9bac2c	0.076011986
114	0x3d00cf6d	0.031447817
115	0x3e0b0095	0.13574441
116	0x3e0f9c1f	0.14024399
117	0x3d02913d	0.03187679
118	0xbdbc9639	-0.0920834
119	0xbe1c6ea2	-0.15276578
120	0x3d9357c8	0.07194477
121	0xbd26b6d9	-0.04070172
122	0x3de59e3a	0.1121182
123	0xbe2ed6b0	-0.17074084
124	0xbe0e89d5	-0.13919766
125	0xbd9db93b	-0.077013455
126	0x3d013ee1	0.031554107
127	0xbc135d0f	-0.008994355
128	0x3d774509	0.06036857
129	0xbe03bdf8	-0.12865436
130	0xbd99340d	-0.07480631
131	0x3e2f488c	0.17117518
132	0xbde9ba8d	-0.11412535
133	0x3e0f2320	0.13978243
134	0x3e162ee8	0.14666331
135	0x3d833890	0.06407273
136	0xbd0c0dab	-0.034192722
137	0x3d1b8a9b	0.03797398
138	0xbd58bded	-0.052915502
139	0x3d80012b	0.06250223
140	0xbe0e1734	-0.13876039
141	0xbba06fbf	-0.0048961337
142	0xbe08363d	-0.1330194
143	0x3d45963d	0.04823898
144	0x3cdc8f1d	0.02692371
145	0x3d021d97	0.0317665
146	0xbd8c6002	-0.068542495
147	0xbe0b3593	-0.13594656
148	0x3dc5711c	0.096407145
149	0x3d39487a	0.045235135
150	0xbd937c2d	-0.07201419
151	0xbe25dc83	-0.161974
152	0xbb71f008	-0.0036916751
153	0xbc6b3330	-0.014355466
154	0xbdbdf501	-0.092752464
155	0xbe3067f3	-0.17227153
156	0x3cb6acc5	0.02229918
157	0x3e2ff416	0.17182955
158	0x3d3efd37	0.046628203
159	0xbe2d9978	-0.16953075
160	0x3e02fa56	0.12790808
161	0x3d8a80dc	0.06762859
162	0x3dbb40be	0.09143208
163	0xbe043404	-0.12910467
164	0x3ce6f4e0	0.028192937
165	0xbd1bf58b	-0.038075965
166	0x3d2e9b83	0.042628776
167	0xbc841155	-0.016121546
168	0xbd935af2	-0.07195081
169	0xbe1281c7	-0.14307319
170	0xbda021f6	-0.078189775
171	0x3e0af911	0.13571574
172	0xbcf8f628	-0.030390814
173	0x3e20f9ba	0.15720263
174	0xbe20a06e	-0.15686199
175	0xbde07b18	-0.10960978
176	0x3da3bc78	0.07994932
177	0xbe06b4fa	-0.13154975
178	0xbddbdec7	-0.10735851
179	0x3db953f8	0.09049219
180	0x3c58bec7	0.013229079
181	0x3e098870	0.13430953
182	0x3c87d6cf	0.01658192
183	0xbd8acb46	-0.067770526
184	0xbdf4cef7	-0.11953538
185	0xbd9ac96d	-0.0755795
186	0xbd248e45	-0.04017474
187	0xbd966bd4	-0.07344785
188	0xbdef9fb9	-0.117003866
189	0x3be6dce5	0.0070453756
190	0xbe163937	-0.14670263
191	0x3e0acdd9	0.13555087
192	0xbd9fb2c0	-0.07797766
193	0xbd862c5b	-0.06551429
194	0xbd72ddb2	-0.059293456
195	0x3d236f87	0.039901283
196	0x3e1ad6e6	0.1512104
197	0x3d86e857	0.06587284
198	0x3e17ae71	0.14812638
199	0xbdc6ea1e	-0.09712623
200	0xbe0604cb	-0.13087766
201	0x3cf17e7d	0.02947926
202	0xba440ce8	-0.000747873
203	0xbdaa2d46	-0.083094165
204	0xbd0f61cf	-0.035005387
205	0x3da024bf	0.07819509
206	0xbd2feb6f	-0.042949136
207	0x3e28ac7a	0.16472045
208	0xbd3c7c90	-0.04601723
209	0xbdb954c0	-0.09049368
210	0xbd93e6b2	-0.07221736
211	0x3e24bd38	0.16087806
212	0x3dbe2e85	0.09286217
213	0xbe1b087b	-0.15139954
214	0xbd86695b	-0.06563064
215	0x3c3a94ba	0.011387998
216	0xbc6cb408	-0.01444722
217	0xbc9c3239	-0.019066917
218	0xbd97501d	-0.07388327
219	0x3dbbc1b7	0.091678075
220	0x3dc87eaa	0.09789784
221	0x3d290149	0.04126099
222	0xbe22a00a	-0.15881363
223	0x3c6d0f0b	0.014468919
224	0x3b56a103	0.003274978
225	0xbd8f26b5	-0.06989805
226	0x3d991b56	0.07475917
227	0xbd85aa84	-0.06526664
228	0xbda7d31c	-0.08194563
229	0x3d2770c6	0.040879034
230	0xbe0f8c79	-0.1401843
231	0xbd8244ed	-0.06360803
232	0x3dc91699	0.09818763
233	0x3dbcafc2	0.09213211
234	0x3ddbe2ff	0.107366554
235	0x3c135299	0.008991861
236	0x3c946154	0.018112816
237	0xbc677029	-0.014125862
238	0xbdd567a7	-0.10420161
239	0x3dbeaee1	0.09310699
240	0x3dce8ad9	0.10085077
241	0x3bb1a316	0.0054210527
242	0x3d9af562	0.07566334
243	0xbe34f891	-0.17672946
244	0xbe2f7cdb	-0.17137472
245	0xbba2b466	-0.004965353
246	0xbe00a2a5	-0.12562044
247	0x3dcf3627	0.101177506
248	0xbde09dbe	-0.10967587
249	0xbdb817dc	-0.08988926
250	0xbe38fc94	-0.18065101
251	0xbd376183	-0.04477073
252	0x3d5d6c55	0.05405839
253	0x3d7b1aaa	0.061304726
254	0x3d8c9371	0.0686406
255	0xbdc60345	-0.09668592

lstm.bias_ih_l0 f4 [128]
0	0xbe25f896	-0.1620811
1	0x3be9005f	0.00711064
2	0xbd23a099	-0.03994808
3	0xbd99bdfe	-0.07506941
4	0x3c428956	0.011873564
5	0x3d3f823b	0.046755057
6	0x3df77fd2	0.12084927
7	0xbd2dbf1c	-0.042418584
8	0xbd6b0d9d	-0.05738603
9	0xbe1dfad4	-0.15427715
10	0x3de51f31	0.1118759
11	0xbd3aec8c	-0.045635745
12	0x3d69dba2	0.057094224
13	0x3d445f50	0.04794246
14	0xbc0276fc	-0.007962938
15	0x3e2c552f	0.1682937
16	0x3d907eb9	0.070554204
17	0x3dd3db37	0.10344546
18	0x3de29149	0.11062867
19	0x3cf7d6b8	0.030253753
20	0x3cde6ae2	0.027150575
21	0x3d250c13	0.040294718
22	0xbdf9acf0	-0.12191188
23	0xbdd412f2	-0.10355176
24	0x3dcef18e	0.10104667
25	0x3dca85cd	0.09888802
26	0xbb79831b	-0.003807253
27	0x3d1d3a8f	0.038385924
28	0x3d99f9b0	0.07518327
29	0xbd89ec24	-0.067344934
30	0xbdf3eebb	-0.119107686
31	0xbda18bf7	-0.07888024
32	0x3d8a13fd	0.06742094
33	0xbdf901b0	-0.12158525
34	0xbd7e33f9	-0.062061284
35	0x3e129efb	0.14318459
36	0xbdf64e6c	-0.120266765
37	0xbe3144b2	-0.17311361
38	0x3dd57e80	0.104245186
39	0x3ddcd86b	0.10783466
40	0xbd3fa16b	-0.0467848
41	0x3dbd035d	0.09229157
42	0x3d53ac1c	0.05167781
43	0x3e061718	0.13094747
44	0xbbcea620	-0.0063064247
45	0xbe102546	-0.14076719
46	0xbc63c14d	-0.013901067
47	0xbd09fe19	-0.033689592
48	0x3e1c5239	0.1526574
49	0x3e025565	0.12727888
50	0x3dea2cb3	0.11434307
51	0x3d274bce	0.040843777
52	0xbd86f90c	-0.06590471
53	0xbded0d4c	-0.11574802
54	0x3c57e7a6	0.013177788
55	0x3e1bf366	0.15229568
56	0xbd9b8bb7	-0.07595008
57	0xbe23547d	-0.15950198
58	0xbe053dce	-0.13011858
59	0xbe017e39	-0.12645806
60	0x3ae82b87	0.0017713167
61	0xbcb56960	-0.022144973
62	0x3e37e714	0.17959243
63	0x3dc85e65	0.09783629
64	0xbe04d878	-0.12973201
65	0xbe1a431e	-0.15064666
66	0xbe09b640	-0.13448429
67	0x3dd80dcb	0.10549506
68	0x3d7c4b7b	0.06159542
69	0x3d533a6b	0.051569384
70	0xbd56bad3	-0.052424263
71	0x3cce8248	0.025208607
72	0x3e13ec92	0.14445713
73	0xbdfe8610	-0.12427914
74	0x3d957106	0.07296948
75	0xbd882672	-0.06647958
76	0x3e079a8d	0.1324255
77	0xbc140816	-0.009035131
78	0x3dd80d23	0.10549381
79	0x3bc71d40	0.006076485
80	0xbdaf610f	-0.08563434
81	0x3d218690	0.03943497
82	0xbd843ca6	-0.0645688
83	0x3dfe61e2	0.124210134
84	0xbd90e36b	-0.070746265
85	0x3df116eb	0.117719494
86	0xbded74bf	-0.11594533
87	0xbd6264ff	-0.0552721
88	0xbd5091b4	-0.050920203
89	0xbda865ee	-0.082225665
90	0x3da684fd	0.08130834
91	0x3e24fdd8	0.16112459
92	0x3e2437e7	0.1603695
93	0xbdf26ad1	-0.1183678
94	0x3dbe19a6	0.09282236
95	0xbcf312c2	-0.02967203
96	0x3e0085be	0.12551019
97	0x3e125d72	0.14293459
98	0xbe0e474f	-0.1389439
99	0x3e277d8e	0.16356489
100	0x3ce67b91	0.028135093
101	0x3ddd9bae	0.10820709
102	0x3df4452b	0.11927255
103	0x3cb57fee	0.022155728
104	0x3de7dfbc	0.11321971
105	0x3e264529	0.1623732
106	0xbdeec841	-0.11659289
107	0xbde65072	-0.112458125
108	0xbdc3b430	-0.095558524
109	0xbd79d3bd	-0.060992945
110	0xbe2e8a99	-0.17045058
111	0x3e02d42e	0.12776253
112	0x3d81762a	0.06321366
113	0x3dd3602f	0.1032108
114	0xbe031b15	-0.128033
115	0xbbd2b175	-0.006429846
116	0x3e148f70	0.14507842
117	0x3e356da2	0.17717603
118	0xbdaf2341	-0.08551646
119	0x3e3a17b9	0.18173112
120	0xbd891522	-0.06693484
121	0x3d80039f	0.06250691
122	0x3e2c4290	0.16822267
123	0xbd7f391f	-0.062310334
124	0xbd10c777	-0.035346474
125	0xbe07abce	-0.13249132
126	0xbabde0dc	-0.0014486569
127	0x3e173507	0.14766322

lstm.bias_hh_l0 f4 [128]
0	0xbdce50e9	-0.10074026
1	0xbe121dc7	-0.14269172
2	0xbdadc543	-0.0848489
3	0xbe17d27a	-0.14826384
4	0x3d7fcd3f	0.062451597
5	0xbe14a2b4	-0.14515191
6	0x3d2b9f5d	0.041900028
7	0xbcc9d0f5	-0.024635771
8	0x3e235473	0.15950184
9	0xbda30a3f	-0.07960939
10	0xbe2ff4c4	-0.17183214
11	0xbe1330a2	-0.1437402
12	0xbd9df15b	-0.077120505
13	0x3e0b602b	0.13610904
14	0xbe207f52	-0.15673569
15	0xbd21397f	-0.039361473
16	0xbe2c5f3b	-0.16833203
17	0x3d8e82ca	0.0695854
18	0x3de956e5	0.11393527
19	0x3df85c7e	0.121270165
20	0xbd4e7dd4	-0.050412968
21	0xbda84810	-0.0821687
22	0xbc1482ed	-0.009064418
23	0xbcfbaef8	-0.03072308
24	0xbcd884ed	-0.026430571
25	0x3e3f406d	0.1867692
26	0xbd915719	-0.07096691
27	0xbd4d3c25	-0.050106186
28	0x3dd09afa	0.101858094
29	0x3e25ca7c	0.16190523
30	0xbdcf1061	-0.10110546
31	0x3d1e82dc	0.038699016
32	0x3c0dce6f	0.008655175
33	0xbe2bc865	-0.16775663
34	0x3e155351	0.14582564
35	0x3dfe46a6	0.12415819
36	0xbcf73501	-0.030176641
37	0xbd5b66fe	-0.053565018
38	0xbccd9044	-0.025093205
39	0x3d112a23	0.035440575
40	0x3e2008a6	0.15628299
41	0x3cd40c8e	0.025884893
42	0x3d3c517c	0.045976147
43	0xbd577f8b	-0.05261187
44	0xbc8a1c29	-0.016859131
45	0xbc4582d2	-0.012055116
46	0xbdaf38d9	-0.08555765
47	0xbe2c3c83	-0.16819958
48	0xbde523c9	-0.11188466
49	0xbd51f976	-0.051263295
50	0x3db38e6f	0.087674014
51	0xbe34da5b	-0.17661421
52	0x3d69b751	0.05705959
53	0x3d854ff5	0.06509391
54	0xbdf7cd6a	-0.120997265
55	0xbe149f96	-0.14514002
56	0x3daaa827	0.08332854
57	0x3d422874	0.04740186
58	0xbd15e5c3	-0.03659607
59	0x3df7ba26	0.12096052
60	0xbe310ae3	-0.17289309
61	0x3dc11180	0.09427166
62	0xbd2c56b9	-0.042074893
63	0xbdb9382e	-0.090439186
64	0xbda63a3c	-0.08116576
65	0x3e08a5f5	0.13344558
66	0xbe302010	-0.17199731
67	0xbd62f17c	-0.05540608
68	0x3b88cbac	0.00417467
69	0xbb604547	-0.003422098
70	0xbd9db1ad	-0.076999046
71	0xbe06d18d	-0.13165875
72	0xbdc9a115	-0.09845177
73	0xbe179d88	-0.14806187
74	0x3df97718	0.121809185
75	0xbdb728e2	-0.08943345
76	0xbd0b3d57	-0.033994045
77	0xbd97e20a	-0.074161604
78	0x3c02953d	0.0079701515
79	0x3e10d7f9	0.14144887
80	0xbc867fce	-0.016418364
81	0xbe179b6c	-0.14805382
82	0xbe35d1c7	-0.17755805
83	0xbe0d7aec	-0.13816422
84	0x3e26bded	0.16283388
85	0xbe199644	-0.14998728
86	0x3c3544a4	0.0110637285
87	0x3d28fd15	0.041256983
88	0xbe1508d5	-0.1455415
89	0xbe171594	-0.14754325
90	0xbde332d9	-0.11093683
91	0x3e25f7d0	0.16207814
92	0x3e31cf75	0.17364295
93	0x3c94fab8	0.018185958
94	0xbcb47350	-0.022027642
95	0x3e168cd0	0.14702153
96	0xbe24cefd	-0.16094585
97	0xbd2de68d	-0.0424562
98	0x3d8ddb36	0.06926577
99	0xbe1a2b25	-0.15055521
100	0x3d84c6e1	0.06483246
101	0xbd107438	-0.035267085
102	0x3d5fe29c	0.05465947
103	0x3de2ecfe	0.11080359
104	0xbd93d84f	-0.07218992
105	0x3e23fdb9	0.16014756
106	0xbe26a69a	-0.16274491
107	0x3c9521a6	0.018204521
108	0x3dbbc204	0.09167865
109	0x3e321c84	0.1739369
110	0x3e221e82	0.1583195
111	0xbe39fe13	-0.18163328
112	0xbd322d75	-0.043500382
113	0xbd340ab1	-0.04395551
114	0x3d184f9b	0.037185293
115	0xbd9754be	-0.0738921
116	0x3d427270	0.047472417
117	0x3e0aea0d	0.13565846
118	0x3d7dcf58	0.061965317
119	0xbd321183	-0.04347373
120	0x3dc2cd23	0.09511783
121	0x3d7911e6	0.060808085
122	0x3d0d79c8	0.034539968
123	0x3e202009	0.1563722
124	0xbe08fcbb	-0.13377659
125	0xbc0847c8	-0.008317895
126	0x3e42e0dd	0.19031091
127	0xbdca76f7	-0.09885972

fc.weight f4 [1, 32]
0	0xbb676201	-0.0035306218
1	0x3dcae41a	0.09906788
2	0xbe180a1c	-0.14847606
3	0x3da2201e	0.07916282
4	0xbe16c818	-0.14724767
5	0x3cebce5a	0.02878492
6	0x3c9b77a9	0.018977957
7	0xbe13a4f8	-0.144184
8	0xbdc6b108	-0.09701735
9	0xbe2e3d74	-0.1701563
10	0x3d85270b	0.065015875
11	0xbda8b9cd	-0.08238564
12	0x3da44f16	0.08022897
13	0xbd282817	-0.041053858
14	0xbe37c6ab	-0.1794688
15	0xbdc6aac2	-0.09700538
16	0x3d813148	0.06308228
17	0xbd58314d	-0.052781392
18	0xbd7614ce	-0.060078435
19	0xbe0e896e	-0.13919613
20	0xbd904769	-0.070448704
21	0x3e1545e0	0.14577436
22	0xbd84fc8d	-0.06493483
23	0xbd398877	-0.04529616
24	0xbe1c24a6	-0.15248355
25	0x3e3bbc0a	0.1833345
26	0x3d588424	0.052860394
27	0xbde0e620	-0.10981393
28	0xbd53a75e	-0.051673286
29	0xbde705c4	-0.112803966
30	0xbd714fba	-0.058913924
31	0x3ce61517	0.028086228
