models/lstm_drag.pth (torch, 335700 bytes, 9 tensors)

lstm.weight_ih_l0 f4 [256, 128]
0	0x3c28f5d5	0.010312517
1	0x3d87305e	0.06601022
2	0xbdb4520f	-0.08804714
3	0x3dd9ce1a	0.10635014
4	0x3c9334d5	0.017969528
5	0xbdc2fd4d	-0.095209695
6	0x3deba660	0.11506343
7	0xbbe87adf	-0.0070947255
8	0xbda0bfbe	-0.07849072
9	0xbd2c54cf	-0.042073067
10	0x3cd09e7f	0.025466202
11	0xbc0fbe31	-0.0087733725
12	0xbc951977	-0.01820062
13	0x3c44559d	0.011983302
14	0xbd392866	-0.045204543
15	0xbd61d8f4	-0.055138543
16	0xbd29f02e	-0.04148882
17	0xbd7d101d	-0.061782945
18	0x3c78b616	0.015180131
19	0x3d7e0f59	0.062026355
20	0x3d973383	0.07382872
21	0xbd04093e	-0.032235377
22	0x3dabc158	0.08386487
23	0xbdd21f58	-0.102598846
24	0x3d9a57a5	0.07536248
25	0x3dcaedd7	0.099086456
26	0x3e03eb95	0.12882836
27	0xbd45733c	-0.0482056
28	0xbd2307c5	-0.03980233
29	0xbcc3e44e	-0.023912575
30	0xbc96a5c1	-0.018389584
31	0xbdf90aa3	-0.12160232
32	0xbc30b69c	-0.010785725
33	0xbbf564ed	-0.007488838
34	0x3c2053d7	0.009785614
35	0xbd4c0412	-0.04980857
36	0x3c0fb8de	0.008772103
37	0x3d4b09f3	0.049570035
38	0x3d3f297c	0.046670422
39	0x3da35056	0.07974307
40	0x3d6ed53e	0.058308832
41	0x3cadd42d	0.021219337
42	0x3c4f0543	0.012635532
43	0xbd138e9c	-0.036024675
44	0xbcdf910d	-0.027290845
45	0xbd786bf2	-0.06064982
46	0x3de962c2	0.1139579
47	0xbd641e53	-0.055692982
48	0xbd6350b4	-0.055496886
49	0xbcf272c8	-0.029595748
50	0xbcc5717b	-0.024101963
51	0x3c6621e4	0.014046166
52	0x3dbaef54	0.091276795
53	0x3d968974	0.07350436
54	0x3dcdd0eb	0.100496136
55	0xbdd92098	-0.1060192
56	0x3dd3ea46	0.103474185
57	0x3d949f22	0.07256915
58	0x3d87ae88	0.06625086
59	0xbde36b60	-0.111044645
60	0x399b5463	0.00029626777
61	0x3dc2d9c0	0.09514189
62	0x3d1d78ce	0.038445286
63	0x3df2a6ca	0.11848219
64	0x39b6fd7d	0.0003490261
65	0x3d8744d3	0.06604924
66	0xbde1d361	-0.110266455
67	0x3bda7e0f	0.0066678594
68	0x3c142136	0.009041121
69	0x3d6b7ec0	0.057493925
70	0xbdd1999b	-0.10234376
71	0xbdceeef8	-0.101041734
72	0xbdf42049	-0.119202204
73	0xbdd9e156	-0.106386825
74	0x3d36eb17	0.044657793
75	0x3c69e0c2	0.014274778
76	0xbdc1b854	-0.09458986
77	0xbc116b67	-0.008875704
78	0xbbeaa5f7	-0.007160898
79	0x3e00913e	0.12555405
80	0xbdd8fff2	-0.10595693
81	0xbc1a7c18	-0.009429
82	0x3d6f7639	0.058462355
83	0x3dd2c3d3	0.10291257
84	0xbb90e0bd	-0.004421322
85	0x3e00d8f1	0.12582757
86	0xbdbc4007	-0.091919
87	0xbcbdb6b5	-0.02315841
88	0x3d01a95b	0.03165565
89	0x3dad8f8c	0.08474645
90	0xbd180101	-0.037110332
91	0xbdc0b46b	-0.09409412
92	0x3d3b8675	0.045782525
93	0xbdc5a9a0	-0.09651494
94	0x3d89d317	0.06729715
95	0x3d99d158	0.07510632
96	0x3d86d9dc	0.06584522
97	0xbde9b5d4	-0.11411634
98	0x3df1b8b5	0.11802808
99	0xbdf39e1f	-0.118953936
100	0xbdf31a6a	-0.118702725
101	0x3d83e38f	0.06439888
102	0x3b1f1735	0.0024275307
103	0x3dba1c59	0.09087438
104	0xbcfe937e	-0.03107619
105	0x3d9d53eb	0.07682022
106	0xbd17974f	-0.037009533
107	0xbc0a67cb	-0.008447598
108	0x3d784c4b	0.060619634
109	0x3de38f27	0.111112885
110	0xbd7253dc	-0.059162006
111	0x3dbf0da2	0.09328772
112	0xbbf89bc7	-0.0075869295
113	0x3dcd6d6f	0.100306384
114	0xbbb73ce5	-0.005591976
115	0xbcf854bd	-0.030313844
116	0x3d786341	0.06064153
117	0xbdc311ea	-0.09524901
118	0xbd8c98b1	-0.06865061
119	0x3d93465e	0.07191156
120	0x3c7c2bbf	0.015391289
121	0xbd5ea034	-0.054352
122	0x3dce0978	0.100604
123	0x3d42adb5	0.04752894
124	0xbdf6109f	-0.12014889
125	0xbdcaa1d0	-0.098941445
126	0x3dc0954f	0.09403478
127	0x3dc96cb3	0.09835186
128	0x3dc71d38	0.0972237
129	0xbdb52a2b	-0.088459335
130	0x3d2e669d	0.04257833
131	0x3c891bd8	0.01673691
132	0xbc0fad38	-0.008769326
133	0x3d2aadca	0.041669644
134	0xbcf20aa5	-0.029546091
135	0xbe077e57	-0.13231789
136	0xbd4de064	-0.050262824
137	0xbd1ac578	-0.037785977
138	0xbdee27df	-0.116286986
139	0x3d86b70d	0.06577883
140	0x3d9fe06c	0.07806477
141	0x3d37f387	0.04490998
142	0x3dbb1574	0.09134951
143	0xbd62c481	-0.055363182
144	0xbdd486fd	-0.103773095
145	0xbb97bfb1	-0.0046310057
146	0x3e0711be	0.13190362
147	0x3cf15386	0.029458772
148	0x3d737bf7	0.059444394
149	0xbd12b522	-0.035817273
150	0x3d2484e7	0.040165808
151	0xbdfe06e1	-0.12403656
152	0xbdcad811	-0.09904493
153	0xbdc2a386	-0.09503846
154	0x3d440456	0.047855698
155	0x3d13ba5d	0.0360664
156	0x3d0f84c5	0.03503873
157	0xbe01f026	-0.12689266
158	0x3c78f560	0.015195221
159	0xbda45761	-0.08024479
160	0x3e073954	0.13205463
161	0xbd33d31e	-0.04390251
162	0x3c13de23	0.0090251295
163	0x3cc0330f	0.023461847
164	0xbd160c87	-0.03663304
165	0x3de61afe	0.11235617
166	0x3def2ff1	0.11679066
167	0xbd408fdf	-0.047012206
168	0x3d3191e1	0.04335201
169	0xbddd2968	-0.10798913
170	0x3daba35a	0.08380766
171	0xbddc5c67	-0.10759812
172	0xbe017a93	-0.12644415
173	0xbd8a585c	-0.067551345
174	0xbdc29fa3	-0.095031045
175	0x3dd1e559	0.10248823
176	0xbd58c093	-0.052918028
177	0xbd4c7a09	-0.04992107
178	0xbd31897a	-0.043344
179	0xbda9e029	-0.08294708
180	0xbd9ccd44	-0.07656339
181	0x3b5815d5	0.0032971997
182	0x3b021f0a	0.0019854927
183	0x3be8af5c	0.0071009826
184	0x3db04818	0.08607501
185	0xbe0181c8	-0.12647164
186	0xbd0729cb	-0.03299884
187	0x3da43344	0.08017591
188	0xbd403e96	-0.046934687
189	0x3d8e9249	0.069614954
190	0x3cff5a2a	0.031170923
191	0x3dc0bdcd	0.094112016
192	0xbdcb23cb	-0.09918936
193	0xbd5a775f	-0.053336497
194	0xbd75fde8	-0.060056597
195	0x3d49851c	0.04919921
196	0xbdb5d728	-0.088789284
197	0x3de8dd46	0.113703296
198	0x3d831e32	0.06402244
199	0x3c84cec2	0.016211871
200	0xbda8b527	-0.08237677
201	0xbcb756e7	-0.022380305
202	0x3cf00156	0.029297512
203	0x3d9aba5e	0.07555078
204	0xbd46c3a5	-0.048526425
205	0xbd5295ca	-0.05141238
206	0xbd4f4eef	-0.050612386
207	0x3dc4155b	0.09574386
208	0x3da73806	0.081649825
209	0xbdaef1c3	-0.08542206
210	0x3c2bb032	0.01047902
211	0x3ca94caf	0.020666448
212	0x3ccb38f8	0.024807438
213	0x3de697ac	0.11259398
214	0xbddcca26	-0.10780744
215	0x3d06dc00	0.032924652
216	0x3dccfcd9	0.10009164
217	0xbd1ce24d	-0.038301755
218	0x3d992e1d	0.074794985
219	0x3dad5e64	0.08465269
220	0x3d4ac6bb	0.04950593
221	0x3d90a17d	0.070620514
222	0x3d91e8be	0.0712447
223	0xb993efba	-0.00028216635
224	0x3d9d3c0f	0.07677471
225	0xbd9c79be	-0.07640408
226	0x3da77e29	0.0817836
227	0xbd578143	-0.052613508
228	0xbce25387	-0.02762772
229	0xbdcc4dc5	-0.09975771
230	0x3c46f5ee	0.012143595
231	0x3cea5fd9	0.028610157
232	0x3d7a0c94	0.06104715
233	0x3d3539a7	0.044244435
234	0xbd053db5	-0.03252955
235	0x3dcfa29f	0.101384394
236	0x3c96c40b	0.018404027
237	0x3ce9dd20	0.028547823
238	0xbd66e279	-0.056368325
239	0x3db7eddc	0.08980915
240	0xbb8119ef	-0.003939859
241	0x3dad4095	0.08459584
242	0xbb832361	-0.00400202
243	0x3d3fc1d3	0.046815705
244	0xb9e3549f	-0.00043359862
245	0x3d4e3ead	0.05035274
246	0x3d831976	0.06401341
247	0xbde20370	-0.11035812
248	0xbd1c5447	-0.03816631
249	0x3cc420a8	0.023941353
250	0x3d936ba7	0.071982674
251	0x3da17e8e	0.078854665
252	0xbdabca0f	-0.08388149
253	0x3d9217a2	0.07133414
254	0xbda6c1c7	-0.08142429
255	0x3c6bc9a3	0.014391336

lstm.weight_hh_l0 f4 [256, 64]
0	0xbdd24de8	-0.10268766
1	0xbda59bec	-0.0808638
2	0x3d710d76	0.058850728
3	0xbd47e810	-0.048805296
4	0x3c9e30c2	0.019310359
5	0x3d424467	0.047428515
6	0xbcab72d5	-0.02092878
7	0x3ce08dbe	0.027411338
8	0x3de31da7	0.1108964
9	0x3d9f7f8f	0.07788002
10	0xbd2c29b4	-0.04203196
11	0x3dd3a06c	0.103333324
12	0xbcd1bf80	-0.02560401
13	0xbd867240	-0.0656476
14	0x3c94746f	0.018121926
15	0x3ce63dae	0.028105583
16	0xbcba7866	-0.022762489
17	0x3d11bf67	0.035582926
18	0xbd9db267	-0.07700043
19	0x3de052d5	0.10953299
20	0x3dade5c3	0.08491089
21	0xbcf32257	-0.02967946
22	0xbd56a4f8	-0.05240342
23	0x3cceea71	0.025258275
24	0xbd8e9c21	-0.06963373
25	0x3af3ab5b	0.0018590497
26	0xbc39bb65	-0.011336182
27	0x3d00d9cf	0.03145772
28	0x3dc8a206	0.097965285
29	0x3de8b7ff	0.113632195
30	0xbda84ffb	-0.0821838
31	0xbde468a2	-0.111527696
32	0x3d8ba6bf	0.06818914
33	0x3b35a885	0.0027718854
34	0x3cc38cc8	0.02387084
35	0xbc8ac299	-0.016938495
36	0xbdbb4788	-0.09144503
37	0x3d9488f2	0.07252683
38	0x3e01c45d	0.12672563
39	0xbd1cc9b0	-0.03827828
40	0xbd99714e	-0.07492314
41	0x3cb38438	0.021913633
42	0xbd5a1525	-0.05324282
43	0xbda63ec5	-0.08117441
44	0xbdf12c35	-0.1177601
45	0x3dc39eac	0.09551749
46	0xbcbd0fd6	-0.02307884
47	0x3d3bdaa9	0.045862827
48	0xbdbb68ca	-0.09150846
49	0xbdcba862	-0.09944226
50	0x3dccae50	0.09994185
51	0x3c8fd9c6	0.017559897
52	0xbcdc1a07	-0.02686788
53	0xbd87b4c3	-0.066262744
54	0x3c8d8b32	0.017278288
55	0x3cb51795	0.022105971
56	0x3dc4008e	0.09570418
57	0xbd8ad307	-0.067785315
58	0xbccdef35	-0.025138477
59	0xbdb3b4e1	-0.08774734
60	0x3cb57fa5	0.022155592
61	0x3dcf6452	0.101265565
62	0xbcdc3221	-0.026879372
63	0xbd9673b0	-0.073462844
64	0xbd12611f	-0.035737153
65	0xbd43878b	-0.047736686
66	0xbdaa22be	-0.08307408
67	0x3dce9b91	0.10088266
68	0xbbd7b359	-0.006582659
69	0xbbd932ec	-0.006628385
70	0x3dd33f51	0.10314811
71	0xbdd8a90d	-0.10579119
72	0xbb59694b	-0.0033174332
73	0xbd872b75	-0.06600086
74	0xbd5fdd00	-0.05465412
75	0xbdccf31d	-0.10007308
76	0xbd9bdfd5	-0.07611052
77	0x3de60b3a	0.1123261
78	0xbca90821	-0.020633759
79	0xbcb5ea22	-0.02220637
80	0xbdd22cd2	-0.10262455
81	0x3d5c004b	0.053711217
82	0x3ba78e74	0.0051134173
83	0xbdfca2eb	-0.12335762
84	0x3da80d20	0.082056284
85	0x3c7c54d7	0.015401087
86	0x3d3e5d9e	0.046476
87	0xbc1dd2bd	-0.009632763
88	0x3d1a34bd	0.03764795
89	0xbdf82c59	-0.12117834
90	0x3cf2053b	0.02954351
91	0xbdf1892f	-0.11793744
92	0x3d2a13ec	0.041522905
93	0x3c96721e	0.018364962
94	0x3cdb47fd	0.026767725
95	0xbdbdc644	-0.09266332
96	0xbda169f7	-0.07881539
97	0x3d04c6a0	0.032415986
98	0xbc2a0943	-0.010378185
99	0xbdbedb25	-0.09319142
100	0x3d96a3d7	0.07355469
101	0xbdcbcbb8	-0.09950966
102	0x3d8e9951	0.069628365
103	0xbd8da97c	-0.06917092
104	0xbdc55687	-0.096356444
105	0x3ddb7f1f	0.10717606
106	0x3dc249ab	0.09486707
107	0xbc823beb	-0.015897712
108	0x3d89db4a	0.06731279
109	0x3d9a4838	0.07533306
110	0x3d71f77a	0.059073903
111	0x3d8da66a	0.069165066
112	0xbdd86ec7	-0.10568004
113	0x3e00956c	0.12557
114	0xbd850f7a	-0.064970925
115	0xbd63d161	-0.0556196
116	0x3bd78785	0.0065774345
117	0x3d1765c3	0.036962282
118	0xbd715286	-0.05891659
119	0xbd3a2d3c	-0.045453295
120	0xbd17cd6e	-0.037061147
121	0xbd9edafc	-0.07756612
122	0x3dd3b7ac	0.10337767
123	0xbdaf74b6	-0.08567183
124	0x3dcb6f07	0.09933286
125	0x3dec42f4	0.11536208
126	0x3cc4a5a2	0.024004761
127	0xbd95c2b9	-0.07312531
128	0xbe016388	-0.12635624
129	0xbd6efa5a	-0.058344223
130	0x3d36bb7d	0.044612397
131	0x3d3e473a	0.046454646
132	0x3d7a925b	0.06117473
133	0xbd484d64	-0.04890193
134	0x3d23b088	0.039963275
135	0x3d809cf1	0.06279934
136	0x3d8ef6c1	0.06980658
137	0xbdf2002e	-0.118164405
138	0xbd602eff	-0.05473232
139	0x3dd393b8	0.103309095
140	0xbd5b00af	-0.05346745
141	0xbc4f51a2	-0.01265374
142	0xbd7b10ed	-0.06129544
143	0x3d4ae4c2	0.049534567
144	0x3d09fdd2	0.033689328
145	0xbda933ec	-0.082618564
146	0xbdaf61db	-0.08563586
147	0x3defc13c	0.117067784
148	0x3d83108d	0.06399641
149	0x3bbd7119	0.0057813046
150	0x3cb8f731	0.022578808
151	0xbdfa295b	-0.12214919
152	0x3da10a29	0.07863266
153	0xbdf8fdd1	-0.12157787
154	0x3daeb2ec	0.085302204
155	0xbdbcea45	-0.09224371
156	0x3d9cc8ea	0.07655509
157	0xbd74dfa8	-0.059783608
158	0xbd887bd6	-0.06664245
159	0x3d97a321	0.07404161
160	0x3cc780ee	0.02435347
161	0xbc950161	-0.018189134
162	0xbc1e7787	-0.009672052
163	0x3d0894e8	0.033345133
164	0xbdbab72c	-0.091169685
165	0xbdd83cd6	-0.105584785
166	0xbdebd78d	-0.115157224
167	0x3e01b903	0.12668233
168	0x3d9cc49c	0.07654688
169	0xbb1e9c33	-0.0024201989
170	0xbd4a4b5d	-0.04938828
171	0xbc68232c	-0.014168542
172	0xbd21e6b7	-0.039526667
173	0xbbd688c5	-0.006547066
174	0xbdc2fae7	-0.09520512
175	0x3d5f5d62	0.054532416
176	0x3dcba430	0.09943426
177	0x3d8786b7	0.06617492
178	0x3a982a22	0.0011609236
179	0x3d7fe7cb	0.062476914
180	0x3dbff805	0.09373478
181	0x3c1ccc01	0.009570123
182	0x3ca81653	0.020518458
183	0xbcb8cd66	-0.02255888
184	0x3d50179d	0.05080377
185	0xbda1f979	-0.07908911
186	0x3dbaf127	0.091280274
187	0x3d0ab972	0.03386826
188	0xbd922234	-0.0713543
189	0x3d8bf75f	0.06834292
190	0x3db868c3	0.09004357
191	0xbbee5ba2	-0.007274107
192	0xbdae3de8	-0.085079014
193	0x3de97cf5	0.11400787
194	0x3ddfa9b4	0.1092104
195	0x3cf5d583	0.030009037
196	0x3d856eaf	0.06515252
197	0x3d3249d6	0.043527447
198	0xbdad61ba	-0.084659055
199	0x3db15a86	0.08659844
200	0x3dea322d	0.114353515
201	0xbd8276f4	-0.06370345
202	0xbcfaba65	-0.030606458
203	0xbdddf851	-0.10838378
204	0xbccafb3b	-0.024778
205	0x3dc7581a	0.09733601
206	0xbdcce9a6	-0.100055024
207	0x3d1343be	0.035953276
208	0x3d7db793	0.06194265
209	0x3de84d66	0.113428876
210	0xbddf2a60	-0.10896754
211	0x3c8bcb24	0.017064638
212	0xbd765f2b	-0.060149353
213	0xbd70c578	-0.05878207
214	0x3ddbf5d1	0.10740245
215	0x3c00e5a6	0.007867252
216	0xbd82197c	-0.06352517
217	0xbd222aa8	-0.03959146
218	0x3de9e37a	0.11420341
219	0xbbc6fdd0	-0.0060727373
220	0xbde28adc	-0.110616416
221	0x3db09120	0.086214304
222	0x3cd902cf	0.026490597
223	0xbd99533a	-0.07486577
224	0x3da6efc8	0.081512034
225	0xbd91f3ef	-0.07126605
226	0xbd549bd3	-0.051906418
227	0xbe0c41ef	-0.13697027
228	0x3ddbafd4	0.10726896
229	0x3d395124	0.045243397
230	0x3dd9dbc9	0.10637624
231	0x3d19c408	0.037540466
232	0x3da4496f	0.08021819
233	0x3ce6b3e6	0.028161954
234	0x3e00f2dd	0.12592645
235	0x3dce9a6f	0.100880496
236	0x3d7c3106	0.06157019
237	0x3d2e42d9	0.04254422
238	0x3c36e659	0.011163318
239	0xbd9a88e9	-0.07545645
240	0x3dea20a9	0.11432011
241	0xbbdfae35	-0.006826187
242	0x3c84cd66	0.016211223
243	0x3dd28357	0.10278957
244	0x3dd3745d	0.10324929
245	0x3dedc9ca	0.11610754
246	0x3db15b73	0.08660021
247	0x3e041f0b	0.12902467
248	0xbde7afe4	-0.11312845
249	0xbc27c8b7	-0.010240725
250	0xbdb582cf	-0.088628404
251	0x3cf8507b	0.030311814
252	0x3dc3bbd9	0.095573135
253	0xbcdb8c24	-0.026800223
254	0xbd666d01	-0.056256298
255	0x3d2ed244	0.042680994

lstm.bias_ih_l0 f4 [256]
0	0x3c62b5e6	0.013837313
1	0x3ca25726	0.019816946
2	0xbd649cde	-0.055813663
3	0xbcf22208	-0.029557243
4	0x3bbb485f	0.0057154144
5	0xbd41b3e5	-0.0472907
6	0x3e07d814	0.13266021
7	0xbda006e0	-0.07813811
8	0x3d3c1dd2	0.045926876
9	0x3c2c0775	0.010499825
10	0xbd9f8cc5	-0.077905215
11	0x3defb2a4	0.11703995
12	0xbc595c06	-0.013266569
13	0x3cc045eb	0.02347084
14	0x3dde5a0b	0.10857018
15	0xb85d619a	-5.2781405e-05
16	0x3de75958	0.11296338
17	0x3df9beb2	0.12194575
18	0x3dc0c764	0.09413031
19	0x3dd2c320	0.102911234
20	0xbdc40652	-0.09571518
21	0x3db7a735	0.08967439
22	0x3d696100	0.056977272
23	0x3d9ff8bb	0.078111134
24	0x3de1cacd	0.11025009
25	0xbd4c1418	-0.04982385
26	0xbde8be48	-0.11364418
27	0x3d83048b	0.06397351
28	0xbd07dc75	-0.03316923
29	0xbca1c4ea	-0.019747216
30	0xbd59dbea	-0.053188242
31	0x3d93aeba	0.07211061
32	0x3cd191ae	0.02558216
33	0xbd9f54ed	-0.0777987
34	0xbdb027b2	-0.08601321
35	0x3d968a73	0.07350626
36	0x3d00423d	0.03131317
37	0x3c4b6c9f	0.012416034
38	0x3d0b026e	0.033937864
39	0xbd3ff6f7	-0.046866383
40	0x3d878a4f	0.06618177
41	0xbb2377de	-0.0024943273
42	0xbd2bff7a	-0.04199169
43	0xbc3e929f	-0.011631637
44	0x3dd20f9a	0.10256882
45	0xbdaa5aef	-0.083181255
46	0xbced43a1	-0.028962912
47	0x3c59e8b8	0.013300113
48	0xbdc9b362	-0.09848668
49	0x3dca3f6f	0.0987538
50	0x3e041778	0.12899578
51	0xbd341cde	-0.043972842
52	0x3ce3c49b	0.02780371
53	0xbd835438	-0.06412548
54	0xbdea1324	-0.11429432
55	0xbdb224f2	-0.08698453
56	0xbd6c3632	-0.057668872
57	0xbc84e4de	-0.016222414
58	0xbc046bba	-0.008082325
59	0x3c0f38d7	0.008741579
60	0x3de60193	0.11230769
61	0x3bdae1c5	0.006679746
62	0xbcf2660d	-0.029589677
63	0x3dec219b	0.11529847
64	0x3cefbd4e	0.029265072
65	0x3ddeab42	0.108725086
66	0xbc969119	-0.018379735
67	0xbdaa441d	-0.08313773
68	0x3d4cf083	0.050034057
69	0x3d14e5d5	0.036351997
70	0xbd773fd0	-0.06036359
71	0xbd4c051c	-0.04980956
72	0x3dfb931d	0.12283919
73	0xbb0c105f	-0.0021372063
74	0xbdc657dd	-0.09684727
75	0xbdccf0d7	-0.10006874
76	0x3dfda397	0.12384718
77	0xbd6b4a98	-0.057444185
78	0x3d58c7c9	0.052924905
79	0xbdf9cf5c	-0.12197754
80	0x3d0239a3	0.031793248
81	0xbda1d2ab	-0.0790151
82	0xbdf03a55	-0.11729876
83	0x3c2f1eca	0.010688493
84	0x3dc7cdc4	0.097560436
85	0xbdbe3e08	-0.09289175
86	0x3cbbcf4c	0.022925995
87	0x3e03e08a	0.12878624
88	0xbd544227	-0.0518209
89	0x3d2b7901	0.041863445
90	0xbdb7c491	-0.08973039
91	0x3d414738	0.04718706
92	0x3da345d1	0.07972301
93	0xbdba545c	-0.090981215
94	0x3ce540b2	0.02798495
95	0x3c81bb6f	0.015836446
96	0xbcbaf8cd	-0.022823716
97	0xbda9cc6a	-0.08290942
98	0xbb827256	-0.003980915
99	0x3d231d96	0.039823137
100	0xbd2ec59c	-0.042668924
101	0xbdd6f5bf	-0.10496091
102	0xbdcb97ed	-0.09941087
103	0x3c885a70	0.016644686
104	0xbc222a1e	-0.009897737
105	0x3bfb9cb4	0.0076785926
106	0x3c313283	0.010815266
107	0xbbcab0f4	-0.0061856452
108	0x3d9913da	0.074744895
109	0x3dafcb96	0.08583753
110	0xbaf399c6	-0.0018585257
111	0x3d98e42c	0.07465395
112	0xbddbfecc	-0.10741958
113	0x3d83909f	0.06424069
114	0xbdad3916	-0.08458154
115	0xbd0f4583	-0.0349784
116	0xbd83da6a	-0.064381436
117	0xbd3b2e12	-0.045698233
118	0xbde75b2b	-0.11296686
119	0x3df90c44	0.121605426
120	0xbd8cb98f	-0.0687133
121	0xbdf3d0ec	-0.11905083
122	0xbb908cf0	-0.0044113323
123	0x3d3d87d7	0.046272125
124	0xbdb34939	-0.087542005
125	0x3db9ef93	0.09078898
126	0x3dcd50b4	0.100251585
127	0xbdb05f03	-0.08611872
128	0x3d7a7386	0.061145328
129	0xbdad4660	-0.084606886
130	0x3d2ed87e	0.04268693
131	0x3d550280	0.052004337
132	0x3df02601	0.11725999
133	0x3dc345b9	0.09534783
134	0xbd827590	-0.063700795
135	0x3dcd22e2	0.10016419
136	0xbd66277e	-0.056190006
137	0x3df1210e	0.11773883
138	0xbdafde81	-0.08587361
139	0xbde26bd7	-0.11055725
140	0xbc098d42	-0.008395495
141	0xbdc9be49	-0.09850747
142	0xbb299bf2	-0.0025880304
143	0xbccb4e56	-0.024817627
144	0xbbbd9171	-0.00578516
145	0x3d601afa	0.054713227
146	0xbd4b7636	-0.04967328
147	0x3c927c91	0.017881664
148	0x3d0a7ae3	0.0338086
149	0xbd60b830	-0.054863155
150	0xbc6b0160	-0.01434359
151	0x3d91fbba	0.07128091
152	0xbdcade69	-0.099057026
153	0xbd101c6e	-0.035183363
154	0x3d98d4ca	0.07462461
155	0x3e03f2c6	0.1288558
156	0x3da02408	0.078193724
157	0x3c472a82	0.012156131
158	0xbde8ed75	-0.11373416
159	0x3d54ad25	0.051922936
160	0x3e01d874	0.12680227
161	0xbc0e918a	-0.008701691
162	0xbd64245f	-0.05569875
163	0x3c5a0816	0.013307592
164	0xbde2dff6	-0.110778734
165	0xbd9e1819	-0.0771944
166	0x3d90c502	0.07068826
167	0xbd871647	-0.06596046
168	0xbd95db38	-0.07317203
169	0x3d59c42c	0.0531656
170	0x3d5cc9ed	0.05390351
171	0xbd44b1bc	-0.048021063
172	0xbdd99e2a	-0.106258705
173	0x3de74647	0.11292701
174	0x3d7d1c07	0.061794307
175	0xbdb4a6cb	-0.08820876
176	0x3db27255	0.08713213
177	0x3c35c567	0.011094428
178	0x3d01ed77	0.031720605
179	0xbe01eaef	-0.12687276
180	0xbd701ee3	-0.058623206
181	0x3afe48a9	0.0019400317
182	0xbc6dcf86	-0.0145148095
183	0xbd44e919	-0.04807386
184	0xbd44fa20	-0.0480901
185	0x3d60e4c4	0.054905668
186	0xbcc5111d	-0.024056012
187	0x3d5efc16	0.054439627
188	0xbde1309e	-0.10995601
189	0xbdbc8171	-0.092043765
190	0x3d6c5e1c	0.057706937
191	0x3d042acb	0.032267373
192	0xbde3cbbd	-0.11122844
193	0x3db86da3	0.090052865
194	0xbdb1b62d	-0.086773254
195	0xbdd6dc5a	-0.104912475
196	0x3bdfb9f3	0.006827587
197	0xbd38e3be	-0.045139067
198	0x3d2e0a1f	0.04249012
199	0xbd63e540	-0.05563855
200	0x3dae4731	0.085096724
201	0x3d926a36	0.071491644
202	0xbd71d588	-0.05904153
203	0xbc3ae8ea	-0.01140807
204	0x3ddeb235	0.10873834
205	0x3b4d05ba	0.003128393
206	0x3dce0dbf	0.100612156
207	0xbd7ae857	-0.061256733
208	0x3e048078	0.12939632
209	0xbd5cf297	-0.05394229
210	0xbd266b60	-0.040629745
211	0xbd674866	-0.05646553
212	0x3daa08ab	0.083024345
213	0xbddb665a	-0.107128814
214	0x3d871831	0.06596411
215	0x3df62a77	0.12019818
216	0xbde269ca	-0.11055334
217	0xbda39ae5	-0.07988528
218	0xbbaffb80	-0.0053705573
219	0xbd979ba3	-0.07402732
220	0xbd69b936	-0.057061397
221	0x3daca582	0.084300056
222	0x3d0f324e	0.034960084
223	0x3d1e1e4f	0.038603123
224	0xbd8c7ead	-0.06860099
225	0xbdca8562	-0.09888722
226	0xbd9ad2a1	-0.075597055
227	0x3dd9c4e6	0.106332585
228	0xbdd96bf0	-0.106162906
229	0xbdd8ff15	-0.10595528
230	0xbaed4f5a	-0.0018105314
231	0x3cdfbb10	0.027310878
232	0xbd7d531f	-0.06184685
233	0xbd358179	-0.044312928
234	0x3db3a9b9	0.087726064
235	0xbd19669c	-0.03745137
236	0x3e065b24	0.13120705
237	0xbc385169	-0.011249878
238	0x3cb9a93d	0.022663707
239	0xbd0f78b1	-0.03502721
240	0x3da5f6a5	0.08103684
241	0x3d5cc793	0.053901266
242	0x3dbb0162	0.09131123
243	0x3df30671	0.11866463
244	0x3d773718	0.060355276
245	0x3d5902a2	0.052981026
246	0x3dc5fece	0.09667741
247	0xbcc65feb	-0.02421566
248	0xbdad6016	-0.084655926
249	0xbc47239e	-0.012154488
250	0xbdad0978	-0.08449072
251	0xbc95e2a9	-0.018296557
252	0x3b3a5163	0.0028429858
253	0xbcd7051a	-0.02624755
254	0xbdb8c203	-0.0902138
255	0xbe03a58f	-0.12856124

lstm.bias_hh_l0 f4 [256]
0	0xbd8f1dbb	-0.069880925
1	0xbdabf26c	-0.08395848
2	0xbd43aece	-0.04777413
3	0xbde7c844	-0.113174945
4	0xbd03a408	-0.032138854
5	0x3e04978a	0.12948433
6	0xbdbcd496	-0.09220235
7	0x3d07b403	0.033130657
8	0xbd516562	-0.051122077
9	0x3d34e62f	0.044164833
10	0x3dd85295	0.10562626
11	0x3da61490	0.08109391
12	0xbd7f6554	-0.062352493
13	0xbbca2baf	-0.0061697583
14	0xbdd0465f	-0.10169672
15	0xbdbb777b	-0.091536485
16	0x3ddf531a	0.10904522
17	0xbd85a0e6	-0.065248296
18	0x3d8d9b2e	0.06914364
19	0x3bcf8fac	0.0063342657
20	0x3dc4575a	0.095869735
21	0xbd11b68e	-0.03557449
22	0x3dea38e6	0.11436634
23	0xbd298cd5	-0.041394074
24	0xbd0005b9	-0.031255458
25	0x3de9625e	0.11395715
26	0xbdeaabb0	-0.11458528
27	0xbd376118	-0.04477033
28	0xbd498eb9	-0.049208377
29	0xbde464b0	-0.11152017
30	0x3d9dc39f	0.077033274
31	0x3ab2c4a2	0.0013638923
32	0x3cfddfc0	0.030990481
33	0xbd354265	-0.044252772
34	0xbd250d27	-0.040295746
35	0x3dbbfe0d	0.09179316
36	0xbcfdf696	-0.03100137
37	0x3d8c89d5	0.06862227
38	0xbda8567e	-0.08219622
39	0x3ca1bd33	0.019743538
40	0x3dcf7fc8	0.10131794
41	0xbd8d2b1d	-0.06892989
42	0xbd6d74ea	-0.057972826
43	0xbd05004a	-0.03247098
44	0x3ccffa92	0.025388036
45	0xbde6bddb	-0.11266681
46	0xbd73c375	-0.059512574
47	0x3cbb1f69	0.022842126
48	0xbcce5200	-0.025185585
49	0x3d9893bb	0.07450052
50	0xb96817c7	-0.00022134102
51	0xbd0299d2	-0.031884976
52	0x3db3a782	0.08772184
53	0xbd9c0718	-0.076185405
54	0x3c87af31	0.01656303
55	0x3982a26c	0.00024916546
56	0xbdec8e89	-0.11550624
57	0x3ca72fac	0.020408474
58	0x3dd876f8	0.105695665
59	0x3dbfbcc9	0.0936218
60	0x3dd48519	0.10376949
61	0xbd743c03	-0.059627544
62	0xbde41c9a	-0.11138268
63	0xbd176cf1	-0.03696913
64	0xbd2105cd	-0.039312173
65	0xbcc021e1	-0.023453655
66	0x3d927fa9	0.071532555
67	0x3d62b606	0.055349372
68	0xbd3658dd	-0.04451834
69	0xbde7c6c3	-0.11317208
70	0x3d882f8d	0.066496946
71	0xbd23b4ac	-0.039967224
72	0xbcc02d60	-0.023459136
73	0xbd4fd3d8	-0.05073914
74	0xbda23211	-0.07919706
75	0x3c3c0a0b	0.011477004
76	0x3d96b04f	0.07357847
77	0xbdb09076	-0.08621304
78	0xbd80858c	-0.06275472
79	0x3cf2413b	0.02957212
80	0x3df0e4aa	0.11762364
81	0x3d1d707d	0.038437355
82	0xbdbc4f43	-0.091948055
83	0x3d6c5327	0.057696488
84	0x3cbad12e	0.022804823
85	0xbdbbfe7a	-0.09179397
86	0xbd46c0b2	-0.048523612
87	0x3d808202	0.06274797
88	0x3c6ed943	0.014578166
89	0x3d3552d5	0.044268448
90	0xbc6943a2	-0.014237316
91	0x3da7a6f6	0.08186142
92	0x3ca78c0b	0.02045252
93	0xbde93498	-0.113869846
94	0xbcc7ebd8	-0.024404451
95	0xbd365926	-0.044518612
96	0xbd1fefad	-0.039046932
97	0xbb6dae2a	-0.003626714
98	0x3d63ab3c	0.055583224
99	0xbca65dc7	-0.020308388
100	0x3dcfe98a	0.10151966
101	0x3d799956	0.06093725
102	0x3d99fadd	0.075185515
103	0x3d663323	0.05620111
104	0xbcb320f9	-0.021866309
105	0x3dbffb32	0.093740836
106	0xbb6a27c2	-0.0035729264
107	0xba966cd0	-0.001147652
108	0x3d13bb9c	0.03606759
109	0x3d9d0f68	0.07668954
110	0x3d8ef5d6	0.06980483
111	0x3d42cbbb	0.047557574
112	0x3df20c56	0.11818759
113	0xbda85e1b	-0.08221074
114	0xbd120e68	-0.03565827
115	0xbdd59566	-0.10428886
116	0x3d839a93	0.06425967
117	0x3dde392f	0.10850751
118	0x3d9d189f	0.07670712
119	0x3c5ec0fa	0.013595814
120	0x3d456f12	0.048201628
121	0xbc9f4538	-0.019442186
122	0x3d0ef105	0.034897823
123	0xbdcb96df	-0.09940886
124	0x3d0c4f44	0.03425528
125	0xbc80a6c9	-0.01570453
126	0x3d84555c	0.064615935
127	0x3db83aad	0.089955665
128	0x3ba4b708	0.005026702
129	0x3caf482f	0.021396725
130	0x3d878a25	0.06618146
131	0x3cf183e9	0.029481845
132	0x3b4344ce	0.002979565
133	0x3df51435	0.11966745
134	0xbdc5fdf2	-0.09667577
135	0x3d99e4da	0.07514353
136	0x3d8e48f4	0.069475085
137	0xbcc307c5	-0.023807416
138	0xbd94a79b	-0.07258531
139	0x3d032504	0.032017723
140	0x3d5da018	0.054107755
141	0xbdd66739	-0.10468907
142	0x3c92e7e2	0.017932836
143	0xbd5f1776	-0.054465733
144	0xbd962ee0	-0.073331594
145	0xbd9362ad	-0.07196555
146	0xbda54b24	-0.080709726
147	0xbda211b2	-0.07913531
148	0x3d9ec496	0.077523395
149	0x3dc18fd6	0.09451263
150	0xbd3ffd00	-0.04687214
151	0x3d971070	0.07376182
152	0x3c955525	0.018229077
153	0xbd4980e6	-0.049195193
154	0xbd389a38	-0.04506895
155	0xbcfa381e	-0.030544337
156	0x3dbd4210	0.09241116
157	0xbaa46831	-0.0012543258
158	0xbdcb54f7	-0.09928315
159	0xbe007b46	-0.12547025
160	0x3de7f7fd	0.11326597
161	0xbd83fb5e	-0.06444429
162	0x3c2a2bf3	0.010386455
163	0xbcdad743	-0.026713973
164	0x3d23fe01	0.04003716
165	0x3d121762	0.03566683
166	0x3dd94348	0.10608536
167	0x3dd72a63	0.105061315
168	0xbd33e71c	-0.043921575
169	0x3d719880	0.058983326
170	0x3dd2b278	0.102879465
171	0x3c434656	0.011918625
172	0x3b992c21	0.00467445
173	0xbde58fdd	-0.1120908
174	0xbdb7d7ef	-0.08976733
175	0x3dfde305	0.12396816
176	0x3d81dd3a	0.06341024
177	0xbcf9e1ab	-0.030503115
178	0xbbe28bd8	-0.0069136433
179	0x3d9b38e4	0.075792104
180	0xbdc50eeb	-0.09621986
181	0x3d17f877	0.03710219
182	0x3dc07d82	0.09398939
183	0xbd3ce11d	-0.046113122
184	0xbd86cdcc	-0.065822214
185	0xbda9944e	-0.0828024
186	0x3c45d18c	0.012073886
187	0x3d5c2436	0.05374547
188	0xbc62ef78	-0.013851039
189	0xbd9edd45	-0.077570476
190	0xbd83c03f	-0.064331524
191	0xbd008d51	-0.03138477
192	0xbbec00a5	-0.0072022253
193	0x3d98861f	0.074474566
194	0x3d808d2b	0.06276926
195	0x3dddffea	0.10839827
196	0xbdfd4070	-0.12365806
197	0xbde4de0c	-0.111751646
198	0x3bbbae83	0.0057275905
199	0xbdab10ae	-0.08352791
200	0xbcc7ea33	-0.024403667
201	0xbdee8d6c	-0.11648068
202	0x3d852aaf	0.06502282
203	0xbd4d82b6	-0.050173484
204	0xbd949da1	-0.07256628
205	0x3cd3e8ed	0.025867904
206	0xbdb3e4df	-0.08783888
207	0x3e063e60	0.13109732
208	0xbdbf1f86	-0.093321845
209	0xbd1149d9	-0.035470817
210	0x3e036472	0.12831286
211	0x3da2a70d	0.07942019
212	0x3db8ecc5	0.09029535
213	0xbd5869ed	-0.052835394
214	0xbd326791	-0.0435558
215	0xbd2b617c	-0.041841015
216	0xbd6147ba	-0.055000044
217	0xbde1773d	-0.11009071
218	0x3c429505	0.011876349
219	0x3d0a909a	0.03382931
220	0xbdab8ffd	-0.08377073
221	0x3d051249	0.03248814
222	0xbd94a2af	-0.07257592
223	0xbcc09d34	-0.02351246
224	0x3dabde89	0.083920546
225	0xbd82c672	-0.06385507
226	0xbd9a0873	-0.07521143
227	0x3d576c2a	0.052593388
228	0x3e029512	0.12752178
229	0x3dad7e35	0.08471338
230	0xbde2adcc	-0.110683054
231	0xbdd4a42f	-0.10382878
232	0xbcd92381	-0.026506187
233	0x3cc69c62	0.024244491
234	0xbd2166ef	-0.039404806
235	0xbdae0352	-0.08496727
236	0x3932a658	0.0001703737
237	0x3dc0c798	0.094130695
238	0xbd9177d8	-0.071029365
239	0x3dc205cb	0.09473761
240	0x3d56cf1b	0.052443605
241	0x3b643bf7	0.003482578
242	0x3d45637e	0.048190586
243	0xbdf6dafb	-0.12053486
244	0xbd946d56	-0.07247417
245	0xbbc88506	-0.0061193733
246	0xbda468c6	-0.080277964
247	0x3db762a0	0.08954358
248	0x3c5e6cbb	0.013575728
249	0xbc92837b	-0.01788496
250	0x3cc28cd9	0.023748802
251	0x3d98c105	0.074586906
252	0x3d6a4064	0.057190314
253	0xbd8e9c4a	-0.069634035
254	0xbcab7743	-0.020930892
255	0xbdf66064	-0.12030104

lstm.weight_ih_l1 f4 [256, 64]
0	0x3e0036e0	0.12520933
1	0x3dd1ceea	0.10244544
2	0xbdb253b6	-0.08707373
3	0xbb573ed1	-0.0032843838
4	0x3dad57ce	0.08464013
5	0xbe11a46f	-0.14222883
6	0x39aa24c7	0.00032452328
7	0xbd13cbad	-0.036082912
8	0x3cec14a9	0.028818445
9	0xbd8f2129	-0.06988747
10	0xbd84da99	-0.06487007
11	0x3cfbc712	0.030734573
12	0xbdd0d5b2	-0.10197009
13	0xbdc40e27	-0.09573012
14	0xba8c9f8d	-0.0010728702
15	0x3d8713e6	0.06595592
16	0xbdf237b6	-0.11827032
17	0xbd69bed4	-0.057066754
18	0x3c85c812	0.016330753
19	0xbdcaabf4	-0.09896079
20	0x3c2d1f76	0.010566583
21	0xbd0227fb	-0.03177641
22	0x3dcf2377	0.10114186
23	0xbcf3e0d0	-0.029770285
24	0xbd410828	-0.04712692
25	0x3de0f9cc	0.10985145
26	0xbdd1cccd	-0.10244141
27	0xbd0a0963	-0.033700358
28	0xbc70c8e1	-0.014696331
29	0xbcc6f5e6	-0.024287175
30	0x3d91172c	0.07084498
31	0x3d9993d6	0.074989006
32	0xbd2bc0fe	-0.0419321
33	0x3d30aed2	0.04313547
34	0xbdda665b	-0.10664054
35	0xbddf54e3	-0.10904863
36	0x3dc0881f	0.09400963
37	0x3dc9e1d7	0.09857529
38	0xbda22bad	-0.07918487
39	0x3e078bf1	0.13236977
40	0xbd19254e	-0.037389092
41	0x3dca1a4b	0.09868296
42	0xbdf41ad8	-0.119191825
43	0xbb18c449	-0.0023310354
44	0x3cf17cbd	0.029478425
45	0xbdf80448	-0.121101916
46	0xbdd0d938	-0.10197681
47	0x3cdd6273	0.027024483
48	0x3d7ba32c	0.06143491
49	0x3db2854c	0.087168306
50	0x3dab79cd	0.08372841
51	0xbd942422	-0.07233454
52	0x3dbb3498	0.09140891
53	0xbd6df4ad	-0.05809467
54	0xbdba2e40	-0.09090853
55	0x3d61b5a1	0.055104855
56	0xbdd31846	-0.10307364
57	0x3df8a102	0.12140085
58	0x3d129838	0.0357897
59	0xbc077911	-0.008268611
60	0xbda06be2	-0.07833077
61	0xbda17490	-0.07883561
62	0x3d92b193	0.07162776
63	0x3d998d5e	0.07497667
64	0x3de0aeee	0.10970865
65	0x3dac02ca	0.083989695
66	0xbd73dc30	-0.05953616
67	0xbd7e84ca	-0.062138356
68	0x3d9caa53	0.07649674
69	0x3de6dbcf	0.11272394
70	0x3d84f2e2	0.06491639
71	0x3cb604fb	0.022219172
72	0xbde971a9	-0.11398632
73	0xbc15828e	-0.009125365
74	0xbdbf05ab	-0.09327253
75	0x3b7c4c7f	0.0038497744
76	0xbd0e4eff	-0.034743305
77	0x3d9bc7e3	0.07606485
78	0xbc377bf3	-0.011198985
79	0xbd547513	-0.051869463
80	0x3d1558b2	0.03646154
81	0x3cf24a4e	0.029576447
82	0xbcc8bd55	-0.024504343
83	0x3d457f2a	0.048216976
84	0xbdb7b29f	-0.08969616
85	0x3d7d39e1	0.061822776
86	0xbcf10f47	-0.02942623
87	0xbdcf145a	-0.10111304
88	0xbc04854a	-0.008088419
89	0x3d5750ac	0.05256717
90	0xbdf715a5	-0.12064675
91	0x3db63857	0.08897465
92	0x3acadb35	0.0015476706
93	0x3dab6618	0.08369082
94	0x3da53973	0.08067598
95	0x3d714b8d	0.05890994
96	0xbd2daeeb	-0.042403143
97	0xbd04af9e	-0.032394044
98	0x3e0d7ed1	0.13817908
99	0xbcc6d6bc	-0.024272315
100	0xbd094652	-0.03351433
101	0xbbac5fb7	-0.0052604335
102	0xbdf59c58	-0.11992711
103	0x3c901a9c	0.017590813
104	0xbce0a97a	-0.027424563
105	0x3d3c2466	0.04593315
106	0xbd156fb1	-0.03648347
107	0xbd842220	-0.06451821
108	0x3d3a4b90	0.04548222
109	0x3c82dd06	0.015974533
110	0x3da266ae	0.07929741
111	0x3d3eee25	0.04661383
112	0x3dfad561	0.1224773
113	0x3de21c59	0.11040563
114	0xbdaa6a8d	-0.08321104
115	0x3d4efd15	0.050534327
116	0x3da5017b	0.08056923
117	0x3c55b696	0.01304402
118	0x3da289c7	0.07936435
119	0xbc01bfcb	-0.007919262
120	0x3de75cab	0.11296972
121	0x3df14676	0.117810175
122	0xbdcfbd1d	-0.10143492
123	0xbd496734	-0.049170688
124	0xbd3a1fb4	-0.04544039
125	0x3d49e623	0.04929174
126	0x3d23f258	0.04002604
127	0xbdba0164	-0.090822965
128	0x3d1808e2	0.037117846
129	0xbd7f6d29	-0.062359963
130	0x3d28820b	0.041139644
131	0xbd93d4e9	-0.07218344
132	0xbceb5785	-0.028728256
133	0x3d8119e8	0.06303769
134	0xbde384e9	-0.11109335
135	0xbc1be11f	-0.009514122
136	0xbddbd65a	-0.10734244
137	0x3d831259	0.06399984
138	0xbe07fa48	-0.13279068
139	0xbcd23e25	-0.025664398
140	0xbb619739	-0.003442241
141	0xbd677a18	-0.056512922
142	0x3de3d97a	0.11125465
143	0x3dc42439	0.095772214
144	0x3ccc98be	0.024975177
145	0xbd315eee	-0.043303423
146	0x3d93cceb	0.072168194
147	0xbd0e3a81	-0.034723762
148	0xbe099dcf	-0.13439105
149	0x3d8001fc	0.062503785
150	0xbc149fff	-0.009071349
151	0x3db6fa76	0.089344904
152	0x3e0177e6	0.12643394
153	0xbdbb2633	-0.09138145
154	0xbd7b8c39	-0.061413024
155	0x3da91cb1	0.082574256
156	0xbdbf48e3	-0.09340074
157	0xbd7792c6	-0.06044271
158	0xbd278d85	-0.040906448
159	0xbdc2f755	-0.09519831
160	0x3ccc4d16	0.024939101
161	0x3d51d46f	0.051227983
162	0x3dc09edf	0.09405302
163	0xbcb979d7	-0.022641106
164	0xbd0052e9	-0.03132907
165	0xbccde51f	-0.025133668
166	0x3e034b88	0.12821782
167	0x3dcc02af	0.09961449
168	0x3c84e48d	0.016222263
169	0x3d8eb808	0.06968695
170	0xbda0f2cf	-0.07858812
171	0xbdd6f780	-0.10496426
172	0xbd945a1a	-0.07243748
173	0x3db61da7	0.088923745
174	0x3cc70e59	0.024298834
175	0xbd9f461c	-0.07777044
176	0xbc81afb6	-0.015830856
177	0xbd71311d	-0.05888473
178	0x3dc8a57f	0.09797191
179	0x3dd95e0f	0.106136434
180	0x3ddbbe7d	0.10729692
181	0x3d343b2b	0.04400174
182	0x3d047b8f	0.032344397
183	0xbc145518	-0.009053491
184	0xbda99799	-0.08280868
185	0x3dde600a	0.10858162
186	0x3d989bc8	0.07451588
187	0x3c88b9e1	0.016690196
188	0xbdcaf054	-0.0990912
189	0xbbcbf482	-0.006224216
190	0x3d814a97	0.06313055
191	0xbcaae751	-0.020862253
192	0xbd1eb923	-0.03875078
193	0x3c8f0d5f	0.01746243
194	0x3dd679ab	0.10472425
195	0xbb5b9ba1	-0.003350951
196	0xbd044eeb	-0.032301825
197	0xbddbe58a	-0.107371405
198	0xbdc3756b	-0.0954388
199	0x3d9b23dd	0.075752
200	0x3d83193b	0.06401297
201	0xbddaae2d	-0.10677753
202	0xbda4ed54	-0.08053079
203	0xbb6d9dd6	-0.0036257408
204	0x3d98bc21	0.07457758
205	0x3d995726	0.07487325
206	0x3d5d8b81	0.05408812
207	0xbd1a85b9	-0.037725184
208	0x3d811604	0.06303027
209	0xbd87b896	-0.06627004
210	0x3cc72782	0.024310831
211	0x3d24581f	0.0401231
212	0xbde6f9fd	-0.1127815
213	0xbda13933	-0.07872238
214	0x3d2a36c6	0.041556142
215	0xbdcaa8fc	-0.098955125
216	0x3d519aa1	0.051172856
217	0xbb548acc	-0.0032431362
218	0xb9123698	-0.00013943983
219	0xbd5f0e8a	-0.054457225
220	0xbc9bb013	-0.019004857
221	0xbdc1e8d0	-0.094682336
222	0x3c77963e	0.015111504
223	0x3bad790c	0.005293971
224	0xbdfdf18b	-0.12399586
225	0xbd098983	-0.033578407
226	0x3d5f9a52	0.05459053
227	0xbd0bf17f	-0.034165855
228	0x3dd663a2	0.10468222
229	0x3be875dc	0.007094128
230	0xbd8a3382	-0.067481056
231	0x3dda67fa	0.10664363
232	0xbdaf4be4	-0.08559397
233	0x3dfcec8a	0.12349804
234	0xbd4dccfd	-0.05024432
235	0x3d139823	0.03603376
236	0xbcee0d4f	-0.02905908
237	0x3d4936c7	0.049124505
238	0xbcc6bfdb	-0.024261406
239	0x3cf25271	0.029580327
240	0xbda1fda4	-0.07909706
241	0xbd86ced7	-0.0658242
242	0x3e063f8a	0.13110176
243	0xbd94c8d7	-0.0726487
244	0x3d942643	0.0723386
245	0xbcc45363	-0.023965543
246	0x3ddeba2e	0.10875355
247	0x3d50f436	0.051014148
248	0x3de90eb4	0.113797575
249	0xbdc8c37f	-0.09802913
250	0x3d353cae	0.04424732
251	0x3dcc111f	0.09964203
252	0xbd9ba8ac	-0.07600531
253	0xbce7ceea	-0.028296907
254	0xbda1788e	-0.07884322
255	0xbba3cf63	-0.0049990877

lstm.weight_hh_l1 f4 [256, 64]
0	0x3e0e141b	0.13874857
1	0x3c7f43fa	0.015580172
2	0x3d334b9d	0.043773282
3	0xbde2541b	-0.11051198
4	0x3d092215	0.03347977
5	0xbd05aca9	-0.032635365
6	0x3d02f7b4	0.03197451
7	0xbdcfb448	-0.10141808
8	0x3d59b573	0.05315156
9	0xbda67a24	-0.08128765
10	0xbe1031e0	-0.14081526
11	0x3e133104	0.14374167
12	0xbbeb6524	-0.0071836878
13	0x3c29d8e9	0.010366657
14	0xba9611c4	-0.0011449386
15	0xbd2b38f9	-0.04180238
16	0xbd223fcc	-0.039611623
17	0xbd426c2a	-0.047466435
18	0xbdddef04	-0.10836604
19	0xbb1c66a9	-0.00238649
20	0x3d298b2d	0.041392494
21	0x3d5af1cb	0.053453248
22	0xbe005dc4	-0.12535769
23	0xbcb8bdc8	-0.022551432
24	0x3d7dc8ce	0.06195908
25	0xbc094389	-0.008377918
26	0xbe0f1360	-0.13972235
27	0xbd8167ed	-0.063186504
28	0xbdbe5d38	-0.09295124
29	0xbdc5005a	-0.09619208
30	0x3cc6fabc	0.024289481
31	0xbdce069e	-0.10059856
32	0x3db8dbb7	0.09026282
33	0x3d93d13b	0.07217642
34	0xbd5b1a88	-0.0534921
35	0xbe044cdc	-0.12919945
36	0xbde1bd2f	-0.11022412
37	0x3da7693f	0.08174371
38	0xbdff1747	-0.12455612
39	0xbd28e265	-0.04123153
40	0x3de059c5	0.10954622
41	0x3d38e1ed	0.045137335
42	0x3d4d273b	0.05008624
43	0x3c355517	0.01106765
44	0x3dfeb90c	0.12437639
45	0x3ccf7dd0	0.025328547
46	0x3c1f2f2f	0.009715839
47	0xbdb406a5	-0.0879033
48	0x3d596908	0.05307868
49	0xbd6b4e81	-0.057447914
50	0xbdbe659f	-0.092967264
51	0x3de8637f	0.113471024
52	0xbccbb83a	-0.02486812
53	0xbe06f7de	-0.13180491
54	0x3e0a53bd	0.13508506
55	0x3ac91a40	0.0015342906
56	0xbd9b75ad	-0.07590804
57	0x3d3d0b40	0.046153307
58	0xbdfa6a7b	-0.12227341
59	0x3d44fe5a	0.04809413
60	0xbdfe0d80	-0.12404919
61	0xbd2ea1cb	-0.042634767
62	0x3ca58ee1	0.020209732
63	0xbdf0e278	-0.117619455
64	0x3dac97b8	0.084273756
65	0xbdc382ae	-0.095464095
66	0xbccc3aa8	-0.024930313
67	0xbd83a895	-0.06428639
68	0xbd2e7ad1	-0.042597596
69	0x3de8780c	0.11351022
70	0xbdb19bd4	-0.086723
71	0xbddd75d1	-0.10813487
72	0x3d10cf93	0.03535421
73	0x3d33ef83	0.043929588
74	0xbde3e669	-0.111279316
75	0x3b95f1f7	0.0045759636
76	0xbd46a0fa	-0.048493363
77	0xbd01b776	-0.031669103
78	0x3cc9a2c8	0.024613753
79	0xbd6cabf3	-0.05778117
80	0x3d1ead16	0.038739286
81	0x3cef7735	0.029231647
82	0xbc0e9a2d	-0.008703751
83	0x3d99a621	0.0750239
84	0xbd6b12ea	-0.057391085
85	0x3d5a33d0	0.05327207
86	0xbdfb71d5	-0.12277571
87	0x3da7ea60	0.08199
88	0xbd64d87d	-0.05587052
89	0x3d9b0f44	0.07571271
90	0xbc830d5b	-0.01599758
91	0xbda9d914	-0.082933575
92	0x3dfd6ed5	0.12374655
93	0xbdd92f8f	-0.10604774
94	0xbc7fe7ba	-0.015619213
95	0x3cb86dcd	0.022513295
96	0xbd8b51af	-0.06802689
97	0xbc5e1db3	-0.0135568855
98	0x3dd78ff3	0.10525503
99	0xbdc24c31	-0.094871886
100	0xbdc6deb5	-0.09710447
101	0x3cf27cd6	0.029600542
102	0xbdce4228	-0.10071212
103	0xbb521ebb	-0.0032061774
104	0x3ce7c106	0.028290283
105	0x3caf77fd	0.02141952
106	0x3dddee49	0.10836465
107	0x3dd0b132	0.10190047
108	0x3c2b0098	0.010437153
109	0xbe0d2100	-0.1378212
110	0x3d5f3175	0.054490525
111	0x3d70c004	0.05877687
112	0xbd9da0b4	-0.07696667
113	0xbd0dd3ce	-0.03462582
114	0x3df1fba5	0.118155755
115	0xbdd9318e	-0.10605155
116	0x3db31160	0.087435484
117	0xbdde9ff8	-0.10870355
118	0x3c7073e9	0.014676073
119	0xbdb08d01	-0.08620644
120	0x3dee6512	0.116403714
121	0xbde0c7e9	-0.1097563
122	0xbde58a21	-0.112079866
123	0xbced1cf5	-0.028944472
124	0xbdf04649	-0.11732156
125	0x3d663492	0.05620248
126	0x3c955557	0.01822917
127	0x3d331321	0.043719415
128	0xbd8b4119	-0.06799526
129	0xbdb54f36	-0.08852999
130	0xbde234c5	-0.11045221
131	0x3df4d1e6	0.119540974
132	0x3da1a3a8	0.07892543
133	0x3dca655d	0.09882615
134	0x39ce9a63	0.0003940641
135	0x3cd827f4	0.026386239
136	0x3d9db23e	0.077000126
137	0xbdc31906	-0.09526257
138	0x3dcf3252	0.1011702
139	0xbdbca037	-0.09210246
140	0xbd9b813d	-0.075930096
141	0xbc063cfc	-0.008193251
142	0xbd9f02ac	-0.077641815
143	0x3d76c694	0.060247973
144	0x3df0943c	0.117470235
145	0x3ded5bb4	0.115897566
146	0xbe036028	-0.1282965
147	0xbd9a0cc3	-0.07521965
148	0xbd70c145	-0.058778066
149	0xbdda17bd	-0.10649059
150	0xbd32927a	-0.043596722
151	0xbdee76c5	-0.11643747
152	0xbd5500a4	-0.052002564
153	0x3d921d6b	0.07134517
154	0x3c20218e	0.009773625
155	0x3d2819bd	0.04104017
156	0x3cea995b	0.028637579
157	0x3db29cb2	0.087212935
158	0x3dfa19ac	0.12211928
159	0x3d902ec1	0.070401676
160	0x3c8a66fa	0.016894806
161	0x3cf6c0d3	0.030121243
162	0x3dde0624	0.10841015
163	0xbda8d468	-0.08243638
164	0x3ded727b	0.11594101
165	0x3d54d18f	0.051957663
166	0x3d02f69e	0.031973474
167	0xbc3008f5	-0.010744323
168	0xbd857d06	-0.06517987
169	0xbd4280f3	-0.047486257
170	0x3cc7e0a6	0.024399113
171	0xbd86d421	-0.06583429
172	0xbd8b9570	-0.06815612
173	0x3d9232a2	0.07138564
174	0xbcdb7fc5	-0.026794324
175	0xbd1d772b	-0.038443726
176	0x3da16f74	0.07882586
177	0x3d5e408e	0.054260783
178	0xbcc94db7	-0.02457319
179	0xbddbe59f	-0.10737156
180	0xbdf6a6cf	-0.12043535
181	0xbc8cd7c8	-0.017192736
182	0xbbf5449d	-0.007484986
183	0xbd64490b	-0.05573372
184	0x3d1748f0	0.036934793
185	0xbdced608	-0.10099417
186	0xbc308bdc	-0.010775533
187	0xbdf6bb83	-0.12047484
188	0x3dd840ee	0.10559259
189	0xbdb7ad31	-0.089685805
190	0x3dbf5a9f	0.093434565
191	0x3ca3ed24	0.020010538
192	0x3b96b2ec	0.004598966
193	0xbc76184c	-0.015020441
194	0x3d00c6b2	0.03143949
195	0xbd284ad2	-0.04108698
196	0xbc6cff5e	-0.014465181
197	0x3c3ee13d	0.011650381
198	0xbdb02d0c	-0.08602342
199	0x3df8d5d8	0.121501625
200	0x3da5d827	0.080978684
201	0x3c94bea5	0.018157313
202	0x3d451d8b	0.048123877
203	0x3c094e3f	0.008380472
204	0x3d5b744a	0.0535777
205	0x3d2a9edb	0.041655403
206	0xbdbfcf1f	-0.09365677
207	0x3df94588	0.12171465
208	0xbd973464	-0.073830396
209	0xbcc88100	-0.024475574
210	0xbd9f1fe5	-0.07769755
211	0x3dea3dcd	0.11437569
212	0xbdc98c72	-0.09841241
213	0x39a7eb9d	0.00032028268
214	0xbd4276c5	-0.04747655
215	0x3d5721ae	0.052522354
216	0x3cac652c	0.021044336
217	0x3cd70d6a	0.026251514
218	0x3c2e5192	0.010639565
219	0xbd173169	-0.036912356
220	0xbc832da6	-0.016012978
221	0x3db4e366	0.08832435
222	0x3db52fc1	0.08846999
223	0xb9b8e3e6	-0.00035265012
224	0xbb3a7041	-0.0028448256
225	0xbdd30661	-0.10303951
226	0x3d642775	0.05570169
227	0xbb5ca21c	-0.003366596
228	0xbdc6656c	-0.096873134
229	0x3dfe5b4a	0.12419756
230	0x3d8e5428	0.06949645
231	0xbd98b1d0	-0.0745579
232	0x3d6b7557	0.05748495
233	0xbd07da08	-0.033166915
234	0x3dfd9d62	0.12383534
235	0xbd27b3b7	-0.040942874
236	0xbdf0b425	-0.1175311
237	0xbe087c3c	-0.13328642
238	0x3ddc4863	0.10755994
239	0xbdd9fe21	-0.10644174
240	0x3e01d5af	0.1267917
241	0x3d1ada16	0.03780564
242	0x3d2bf44f	0.041981038
243	0xbda81918	-0.08207911
244	0x3ddc0868	0.10743791
245	0xbd948a55	-0.07252947
246	0xbde2f6d1	-0.11082233
247	0x3d7e43ca	0.062076367
248	0x3db8e137	0.09027331
249	0x3d1b6430	0.037937343
250	0xbdb51bdd	-0.08843205
251	0x3d1dac31	0.038494293
252	0xbb8c59e9	-0.004283179
253	0x3de1f019	0.11032123
254	0x3da0606e	0.078308925
255	0xbdb0e1a0	-0.086367846

lstm.bias_ih_l1 f4 [256]
0	0xbdc4d8a0	-0.096116304
1	0x3dc023ec	0.093818516
2	0xbdc7e2a6	-0.09760027
3	0x3c28d311	0.010304228
4	0xbc0c6182	-0.00856817
5	0xbc43139d	-0.011906532
6	0xbddd1914	-0.10795799
7	0x3dff3988	0.12462145
8	0x3d50e32a	0.05099789
9	0x3d8c5a10	0.068531156
10	0xbd2e5522	-0.042561658
11	0x3cb9707c	0.022636645
12	0xbd7eee7a	-0.062239148
13	0x3d48acc8	0.048992902
14	0x3d545f93	0.05184896
15	0x3cd84638	0.02640067
16	0xbd4ec0b6	-0.050476752
17	0xbcd1d91a	-0.025616217
18	0x3da20735	0.07911531
19	0x3de49f45	0.11163191
20	0xbdbf6969	-0.09346277
21	0x3db7c95b	0.089739524
22	0xbdd6c202	-0.10486223
23	0x3d83db8b	0.06438359
24	0xbd22cca7	-0.039745953
25	0xbd9e553a	-0.077310994
26	0x3d869fce	0.06573449
27	0x3bc4bd6b	0.0060040257
28	0xbd8b5d75	-0.06804935
29	0x3ddda1b8	0.10821861
30	0x3debfd1f	0.115228884
31	0x3dcde010	0.10052502
32	0xbd9928c1	-0.07478476
33	0x3cb60951	0.02222124
34	0xbdb60ba9	-0.08888943
35	0xbc277402	-0.0102205295
36	0xbc8cace9	-0.017172294
37	0xbda2f7e5	-0.079574384
38	0xbcde20ed	-0.02711531
39	0xbdf37b8e	-0.118888006
40	0xbbc91551	-0.0061365743
41	0x3cda774e	0.026668217
42	0xbd7425f4	-0.059606507
43	0xbd433629	-0.047659073
44	0xbdcac4d5	-0.09900824
45	0xbccb4578	-0.024813399
46	0x3da739b0	0.081653
47	0xbc80a5ce	-0.015704062
48	0xbd091953	-0.033471417
49	0xbde8f145	-0.113741435
50	0xbd3657bc	-0.044517264
51	0xbd69538c	-0.056964442
52	0x3d9a7298	0.07541388
53	0xbdab023c	-0.083500355
54	0x3ca495ec	0.02009102
55	0xbd120865	-0.035652537
56	0xbd0bfaaf	-0.034174617
57	0xbde94253	-0.113896035
58	0xbcd2b92c	-0.025723062
59	0xbc8707b8	-0.016483173
60	0xbc73f4e8	-0.014889933
61	0xbdbe1a5e	-0.09282373
62	0x3c3e5b7d	0.011618492
63	0xbdadf4bb	-0.08493944
64	0x3dd00198	0.10156554
65	0xbd99ad61	-0.075037725
66	0xbdd9a801	-0.10627747
67	0xbdc8a6ef	-0.09797465
68	0xbd0b75b4	-0.034047797
69	0x3cd6798d	0.026181007
70	0x3af0cc7a	0.0018371486
71	0x3de11157	0.109896354
72	0xbc846226	-0.016160082
73	0xbdd27896	-0.10276906
74	0x3cd188af	0.025577871
75	0xbba8c039	-0.005149868
76	0xbdc0b2ee	-0.09409128
77	0x3c133784	0.008985404
78	0x3d02f6e7	0.031973746
79	0xbd1d6fe0	-0.03843677
80	0x3c8daff8	0.017295823
81	0x3c484e0c	0.012225639
82	0xbb865c24	-0.0041003395
83	0xbe017a82	-0.1264439
84	0x3d96b737	0.07359164
85	0xbddd9875	-0.108200945
86	0x3be40ebf	0.0069597657
87	0xbdd626c1	-0.104566105
88	0x3c0c5ec9	0.00856752
89	0xbae27cd1	-0.001727963
90	0xbdff604e	-0.124695405
91	0xbdfe3912	-0.12413229
92	0xbdd5db94	-0.10442272
93	0x3d9ce1c6	0.0766025
94	0xbdaaacfc	-0.083337754
95	0xbd0f40cb	-0.0349739
96	0xbde620d0	-0.11236727
97	0xbcc26fa1	-0.02373487
98	0x3c4db166	0.012554502
99	0xbccaf8f9	-0.024776923
100	0xbd79c272	-0.060976453
101	0x3d944447	0.07239585
102	0xbceae989	-0.028675811
103	0xbd27f1f3	-0.041002225
104	0xbceca8b0	-0.02888903
105	0x3ce846d8	0.028354093
106	0x3d9faa17	0.07796114
107	0x3d9db51e	0.07700561
108	0x39cc2b7a	0.00038942305
109	0xbde909c2	-0.11378814
110	0xbde50232	-0.11182059
111	0x3d5286c8	0.05139807
112	0xbe02426c	-0.1272065
113	0xbb8f0a63	-0.004365252
114	0xbb52e150	-0.0032177754
115	0xbd23a633	-0.03995342
116	0x3d9ca08c	0.076478094
117	0xbd3da6a7	-0.04630151
118	0xbd8fb870	-0.070176005
119	0xbd8f01fd	-0.06982801
120	0x3dad262d	0.08454547
121	0xbdc7bbc0	-0.09752607
122	0xbc9da05b	-0.019241503
123	0x3da4c5ad	0.08045516
124	0xbdbdcdbc	-0.09267756
125	0xbd0a4087	-0.033752944
126	0x3df78764	0.120863706
127	0xbdfdc5db	-0.123912536
128	0xbd5f7bb2	-0.054561324
129	0x3ca4e73c	0.020129792
130	0xbd4825d5	-0.048864204
131	0xbdf64f8d	-0.12026892
132	0xbc9f743c	-0.019464605
133	0xbd544262	-0.05182112
134	0x3cadb634	0.021205045
135	0xbd581862	-0.05275763
136	0xbd2b70ef	-0.04185575
137	0x3da93804	0.08262637
138	0xbd124987	-0.035714652
139	0x3dde3d49	0.10851533
140	0x3d6d9d01	0.05801106
141	0xbd09fd20	-0.033688664
142	0x3c9156fc	0.017741673
143	0x3df1107e	0.11770724
144	0xbd0061b4	-0.031343177
145	0xbdd83230	-0.105564475
146	0xbdaf8298	-0.08569831
147	0x3d1186ed	0.035529066
148	0x3def5a19	0.11687107
149	0x3b3aac96	0.0028484217
150	0x3d534a95	0.0515848
151	0xbda90992	-0.082537785
152	0x3cdf049e	0.027223881
153	0x3d8023e9	0.06256849
154	0x3c89bccd	0.01681366
155	0x3d20ab83	0.039226066
156	0x3d534388	0.051578075
157	0xbd4ce68c	-0.050024554
158	0x3d8b6b47	0.06807571
159	0xbd4f3673	-0.050589036
160	0x3dd3ce43	0.10342076
161	0x3c694c92	0.014239447
162	0xbd184fbd	-0.03718542
163	0xbcf2e411	-0.029649766
164	0x3b9ffdc3	0.0048825457
165	0x3d3b9127	0.045792725
166	0xbdff71b0	-0.12472856
167	0x3d05248f	0.032505568
168	0xbdd7849a	-0.105233386
169	0xbddc7feb	-0.10766586
170	0xbbbb31ee	-0.005712739
171	0x3d9db1c7	0.07699924
172	0x3c4911fe	0.012272356
173	0x3b909bdd	0.0044131116
174	0xbd466b29	-0.04844204
175	0xbda6a8c1	-0.08137656
176	0x3c16998f	0.009191885
177	0xbc969a08	-0.018383995
178	0xbda0a1ed	-0.07843385
179	0xbc6b5799	-0.014364147
180	0x3dc1fd7a	0.09472175
181	0xbdab7dfa	-0.083736375
182	0xbdcfe10a	-0.10150345
183	0xbd070e5b	-0.032972675
184	0x3deb75b4	0.114970595
185	0xbd2c2e10	-0.042036116
186	0xbdaf4e7e	-0.08559893
187	0xbd9d9328	-0.076940835
188	0x3d37094b	0.044686597
189	0x3d9d3aff	0.07677268
190	0x3d8717db	0.06596347
191	0xbd975c4d	-0.07390652
192	0x3de3ce18	0.11123294
193	0x3d14d143	0.03633238
194	0xbd54da1c	-0.051965818
195	0x3d847654	0.06467882
196	0xbde45463	-0.11148908
197	0x3db6feba	0.08935304
198	0x3d06fefe	0.032958023
199	0xbd64172f	-0.055686172
200	0x3dea08a6	0.11427431
201	0x3ca28426	0.019838404
202	0x3dad943c	0.08475539
203	0xbd70e6d5	-0.05881389
204	0x3dd99077	0.106232576
205	0xbd138f17	-0.036025133
206	0xbdd73bbc	-0.1050944
207	0x3c0033a3	0.007824811
208	0x3bddaaf7	0.0067647654
209	0x3d1709a4	0.03687443
210	0xbd0498f4	-0.03237243
211	0xbdc34a52	-0.0953566
212	0xbd635cb0	-0.055508316
213	0x3c501b06	0.012701755
214	0xbdb9ee7e	-0.09078692
215	0x3dec3b44	0.115347415
216	0x3cc15e48	0.023604527
217	0xbd2e4620	-0.042547345
218	0x3d21b640	0.039480448
219	0xbd9b4533	-0.07581558
220	0xbdd3370c	-0.10313234
221	0xbc5c4d94	-0.01344623
222	0x3d873dbd	0.066035725
223	0xbdd72ee8	-0.105069935
224	0xbd7ad71e	-0.061240308
225	0xbbb0d37d	-0.005396305
226	0xbe039e7f	-0.1285343
227	0xbdbeee34	-0.093227774
228	0xbcefc2bf	-0.029267667
229	0xb9d2a0c3	-0.00040174098
230	0xbdc2ccf3	-0.09511747
231	0x3dbb77e6	0.09153728
232	0xbd1f9120	-0.03895676
233	0xbdf9210e	-0.12164508
234	0x3d115408	0.03548053
235	0x3dd4b0e7	0.10385304
236	0xbda71157	-0.08157604
237	0x3ca840f1	0.020538779
238	0xbcfded46	-0.03099693
239	0x3dd29f39	0.102842756
240	0x3be2a63c	0.0069167893
241	0x3e0326ea	0.12807813
242	0x3d9fd66c	0.078045696
243	0x3d0e4962	0.034737952
244	0xbdacc458	-0.08435887
245	0x3d459c13	0.048244547
246	0xbcebb803	-0.028774267
247	0x3d2f6834	0.042823985
248	0xbda4478f	-0.08021461
249	0xbdd783c9	-0.10523183
250	0xb9e4cc06	-0.00043639558
251	0xbbec64c0	-0.007214159
252	0xbddcaa99	-0.107747264
253	0xbda39071	-0.079865344
254	0x3ce9ea67	0.028554155
255	0x3c547585	0.012967472
